program(1.3)
[buildInfo = dict<string, string>({{"coremlc-component-MIL", "3510.2.1"}, {"coremlc-version", "3500.32.1"}})]
{
    func main<ios18>(state<tensor<fp16, [45424]>> gru_state, tensor<fp32, [1, 1, 161, 2]> spec) {
            string spec_to_fp16_dtype_0 = const()[name = string("spec_to_fp16_dtype_0"), val = string("fp16")];
            fp16 wnorm_to_fp16 = const()[name = string("wnorm_to_fp16"), val = fp16(0x1.998p-9)];
            tensor<fp16, [1, 1, 161, 2]> spec_to_fp16 = cast(dtype = spec_to_fp16_dtype_0, x = spec)[name = string("cast_33")];
            tensor<fp16, [1, 1, 161, 2]> x_1_cast_fp16 = mul(x = spec_to_fp16, y = wnorm_to_fp16)[name = string("x_1_cast_fp16")];
            tensor<fp16, [45424]> read_state_0 = read_state(input = gru_state)[name = string("read_state_0")];
            int32 var_49 = const()[name = string("op_49"), val = int32(3)];
            int32 var_51 = const()[name = string("op_51"), val = int32(0)];
            int32 var_52 = const()[name = string("op_52"), val = int32(1)];
            int32 var_55 = const()[name = string("op_55"), val = int32(-1)];
            fp16 var_56_promoted_to_fp16 = const()[name = string("op_56_promoted_to_fp16"), val = fp16(0x1p+1)];
            tensor<fp16, [1, 1, 161, 2]> var_62_cast_fp16 = pow(x = x_1_cast_fp16, y = var_56_promoted_to_fp16)[name = string("op_62_cast_fp16")];
            tensor<int32, [1]> var_64_axes_0 = const()[name = string("op_64_axes_0"), val = tensor<int32, [1]>([-1])];
            bool var_64_keep_dims_0 = const()[name = string("op_64_keep_dims_0"), val = bool(false)];
            tensor<fp16, [1, 1, 161]> var_64_cast_fp16 = reduce_sum(axes = var_64_axes_0, keep_dims = var_64_keep_dims_0, x = var_62_cast_fp16)[name = string("op_64_cast_fp16")];
            tensor<fp16, [32, 161]> transpose_0_to_fp16_palettized = constexpr_lut_to_dense(indices = tensor<uint4, [32, 161]>(BLOBFILE(path = string("@model_path/weights/weight.bin"), offset = uint64(64))), lut = tensor<fp16, [1, 1, 16, 1]>(BLOBFILE(path = string("@model_path/weights/weight.bin"), offset = uint64(2752))))[name = string("transpose_0_to_fp16_palettized")];
            tensor<fp16, [32]> x_3_bias_0_to_fp16 = const()[name = string("x_3_bias_0_to_fp16"), val = tensor<fp16, [32]>(BLOBFILE(path = string("@model_path/weights/weight.bin"), offset = uint64(2880)))];
            tensor<fp16, [1, 1, 32]> x_3_cast_fp16 = linear(bias = x_3_bias_0_to_fp16, weight = transpose_0_to_fp16_palettized, x = var_64_cast_fp16)[name = string("x_3_cast_fp16")];
            fp16 var_66_to_fp16 = const()[name = string("op_66_to_fp16"), val = fp16(0x1p-24)];
            tensor<fp16, [1, 1, 32]> var_67_cast_fp16 = add(x = x_3_cast_fp16, y = var_66_to_fp16)[name = string("op_67_cast_fp16")];
            fp32 log_0_epsilon_0 = const()[name = string("log_0_epsilon_0"), val = fp32(0x1p-149)];
            tensor<fp16, [1, 1, 32]> log_0_cast_fp16 = log(epsilon = log_0_epsilon_0, x = var_67_cast_fp16)[name = string("log_0_cast_fp16")];
            fp16 mul_0_y_0_to_fp16 = const()[name = string("mul_0_y_0_to_fp16"), val = fp16(0x1.bccp-2)];
            tensor<fp16, [1, 1, 32]> mul_0_cast_fp16 = mul(x = log_0_cast_fp16, y = mul_0_y_0_to_fp16)[name = string("mul_0_cast_fp16")];
            fp16 var_69_promoted_to_fp16 = const()[name = string("op_69_promoted_to_fp16"), val = fp16(0x1.4p+3)];
            tensor<fp16, [1, 1, 32]> x_5_cast_fp16 = mul(x = mul_0_cast_fp16, y = var_69_promoted_to_fp16)[name = string("x_5_cast_fp16")];
            tensor<int32, [4]> var_71_begin_0 = const()[name = string("op_71_begin_0"), val = tensor<int32, [4]>([0, 0, 0, 0])];
            tensor<int32, [4]> var_71_end_0 = const()[name = string("op_71_end_0"), val = tensor<int32, [4]>([1, 1, 96, 2])];
            tensor<bool, [4]> var_71_end_mask_0 = const()[name = string("op_71_end_mask_0"), val = tensor<bool, [4]>([true, true, false, true])];
            tensor<fp16, [1, 1, 96, 2]> var_71_cast_fp16 = slice_by_index(begin = var_71_begin_0, end = var_71_end_0, end_mask = var_71_end_mask_0, x = x_1_cast_fp16)[name = string("op_71_cast_fp16")];
            tensor<int32, [1]> mu_flat_begin_0 = const()[name = string("mu_flat_begin_0"), val = tensor<int32, [1]>([0])];
            tensor<int32, [1]> mu_flat_end_0 = const()[name = string("mu_flat_end_0"), val = tensor<int32, [1]>([32])];
            tensor<bool, [1]> mu_flat_end_mask_0 = const()[name = string("mu_flat_end_mask_0"), val = tensor<bool, [1]>([false])];
            tensor<fp16, [32]> mu_flat_cast_fp16 = slice_by_index(begin = mu_flat_begin_0, end = mu_flat_end_0, end_mask = mu_flat_end_mask_0, x = read_state_0)[name = string("mu_flat_cast_fp16")];
            tensor<int32, [3]> var_74 = const()[name = string("op_74"), val = tensor<int32, [3]>([1, 1, 32])];
            tensor<fp16, [1, 1, 32]> mu_prev_cast_fp16 = reshape(shape = var_74, x = mu_flat_cast_fp16)[name = string("mu_prev_cast_fp16")];
            fp16 var_76_to_fp16 = const()[name = string("op_76_to_fp16"), val = fp16(0x1.f5cp-1)];
            tensor<fp16, [1, 1, 32]> var_77_cast_fp16 = mul(x = mu_prev_cast_fp16, y = var_76_to_fp16)[name = string("op_77_cast_fp16")];
            fp16 var_78_to_fp16 = const()[name = string("op_78_to_fp16"), val = fp16(0x1.47cp-6)];
            tensor<fp16, [1, 1, 32]> var_79_cast_fp16 = mul(x = x_5_cast_fp16, y = var_78_to_fp16)[name = string("op_79_cast_fp16")];
            tensor<fp16, [1, 1, 32]> mu_next_cast_fp16 = add(x = var_77_cast_fp16, y = var_79_cast_fp16)[name = string("mu_next_cast_fp16")];
            tensor<fp16, [1, 1, 32]> var_81_cast_fp16 = sub(x = x_5_cast_fp16, y = mu_next_cast_fp16)[name = string("op_81_cast_fp16")];
            fp16 _inversed_feat_erb_y_0_to_fp16 = const()[name = string("_inversed_feat_erb_y_0_to_fp16"), val = fp16(0x1.998p-6)];
            tensor<fp16, [1, 1, 32]> _inversed_feat_erb_cast_fp16 = mul(x = var_81_cast_fp16, y = _inversed_feat_erb_y_0_to_fp16)[name = string("_inversed_feat_erb_cast_fp16")];
            tensor<int32, [1]> var_84 = const()[name = string("op_84"), val = tensor<int32, [1]>([-1])];
            tensor<fp16, [32]> erb_norm_state_out_cast_fp16 = reshape(shape = var_84, x = mu_next_cast_fp16)[name = string("erb_norm_state_out_cast_fp16")];
            fp16 var_56_promoted_1_to_fp16 = const()[name = string("op_56_promoted_1_to_fp16"), val = fp16(0x1p+1)];
            tensor<fp16, [1, 1, 96, 2]> var_89_cast_fp16 = pow(x = var_71_cast_fp16, y = var_56_promoted_1_to_fp16)[name = string("op_89_cast_fp16")];
            tensor<int32, [1]> var_91_axes_0 = const()[name = string("op_91_axes_0"), val = tensor<int32, [1]>([-1])];
            bool var_91_keep_dims_0 = const()[name = string("op_91_keep_dims_0"), val = bool(false)];
            tensor<fp16, [1, 1, 96]> var_91_cast_fp16 = reduce_sum(axes = var_91_axes_0, keep_dims = var_91_keep_dims_0, x = var_89_cast_fp16)[name = string("op_91_cast_fp16")];
            tensor<fp16, [1, 1, 96]> x_abs_cast_fp16 = sqrt(x = var_91_cast_fp16)[name = string("x_abs_cast_fp16")];
            tensor<int32, [1]> s_flat_begin_0 = const()[name = string("s_flat_begin_0"), val = tensor<int32, [1]>([32])];
            tensor<int32, [1]> s_flat_end_0 = const()[name = string("s_flat_end_0"), val = tensor<int32, [1]>([128])];
            tensor<bool, [1]> s_flat_end_mask_0 = const()[name = string("s_flat_end_mask_0"), val = tensor<bool, [1]>([false])];
            tensor<fp16, [96]> s_flat_cast_fp16 = slice_by_index(begin = s_flat_begin_0, end = s_flat_end_0, end_mask = s_flat_end_mask_0, x = read_state_0)[name = string("s_flat_cast_fp16")];
            tensor<int32, [3]> var_94 = const()[name = string("op_94"), val = tensor<int32, [3]>([1, 1, 96])];
            tensor<fp16, [1, 1, 96]> s_prev_cast_fp16 = reshape(shape = var_94, x = s_flat_cast_fp16)[name = string("s_prev_cast_fp16")];
            fp16 var_96_to_fp16 = const()[name = string("op_96_to_fp16"), val = fp16(0x1.f5cp-1)];
            tensor<fp16, [1, 1, 96]> var_97_cast_fp16 = mul(x = s_prev_cast_fp16, y = var_96_to_fp16)[name = string("op_97_cast_fp16")];
            fp16 var_98_to_fp16 = const()[name = string("op_98_to_fp16"), val = fp16(0x1.47cp-6)];
            tensor<fp16, [1, 1, 96]> var_99_cast_fp16 = mul(x = x_abs_cast_fp16, y = var_98_to_fp16)[name = string("op_99_cast_fp16")];
            tensor<fp16, [1, 1, 96]> s_next_cast_fp16 = add(x = var_97_cast_fp16, y = var_99_cast_fp16)[name = string("s_next_cast_fp16")];
            fp16 var_101_to_fp16 = const()[name = string("op_101_to_fp16"), val = fp16(0x1p-24)];
            tensor<fp16, [1, 1, 96]> var_102_cast_fp16 = add(x = s_next_cast_fp16, y = var_101_to_fp16)[name = string("op_102_cast_fp16")];
            tensor<fp16, [1, 1, 96]> denom_cast_fp16 = sqrt(x = var_102_cast_fp16)[name = string("denom_cast_fp16")];
            tensor<int32, [4]> var_104_begin_0 = const()[name = string("op_104_begin_0"), val = tensor<int32, [4]>([0, 0, 0, 0])];
            tensor<int32, [4]> var_104_end_0 = const()[name = string("op_104_end_0"), val = tensor<int32, [4]>([1, 1, 96, 1])];
            tensor<bool, [4]> var_104_end_mask_0 = const()[name = string("op_104_end_mask_0"), val = tensor<bool, [4]>([true, true, true, false])];
            tensor<bool, [4]> var_104_squeeze_mask_0 = const()[name = string("op_104_squeeze_mask_0"), val = tensor<bool, [4]>([false, false, false, true])];
            tensor<fp16, [1, 1, 96]> var_104_cast_fp16 = slice_by_index(begin = var_104_begin_0, end = var_104_end_0, end_mask = var_104_end_mask_0, squeeze_mask = var_104_squeeze_mask_0, x = var_71_cast_fp16)[name = string("op_104_cast_fp16")];
            tensor<fp16, [1, 1, 96]> x_r_norm_cast_fp16 = real_div(x = var_104_cast_fp16, y = denom_cast_fp16)[name = string("x_r_norm_cast_fp16")];
            tensor<int32, [4]> var_106_begin_0 = const()[name = string("op_106_begin_0"), val = tensor<int32, [4]>([0, 0, 0, 1])];
            tensor<int32, [4]> var_106_end_0 = const()[name = string("op_106_end_0"), val = tensor<int32, [4]>([1, 1, 96, 2])];
            tensor<bool, [4]> var_106_end_mask_0 = const()[name = string("op_106_end_mask_0"), val = tensor<bool, [4]>([true, true, true, false])];
            tensor<bool, [4]> var_106_squeeze_mask_0 = const()[name = string("op_106_squeeze_mask_0"), val = tensor<bool, [4]>([false, false, false, true])];
            tensor<fp16, [1, 1, 96]> var_106_cast_fp16 = slice_by_index(begin = var_106_begin_0, end = var_106_end_0, end_mask = var_106_end_mask_0, squeeze_mask = var_106_squeeze_mask_0, x = var_71_cast_fp16)[name = string("op_106_cast_fp16")];
            tensor<fp16, [1, 1, 96]> x_i_norm_cast_fp16 = real_div(x = var_106_cast_fp16, y = denom_cast_fp16)[name = string("x_i_norm_cast_fp16")];
            int32 feat_spec_axis_0 = const()[name = string("feat_spec_axis_0"), val = int32(-1)];
            tensor<fp16, [1, 1, 96, 2]> feat_spec_cast_fp16 = stack(axis = feat_spec_axis_0, values = (x_r_norm_cast_fp16, x_i_norm_cast_fp16))[name = string("feat_spec_cast_fp16")];
            tensor<int32, [1]> var_110 = const()[name = string("op_110"), val = tensor<int32, [1]>([-1])];
            tensor<fp16, [96]> spec_norm_state_out_cast_fp16 = reshape(shape = var_110, x = s_next_cast_fp16)[name = string("spec_norm_state_out_cast_fp16")];
            tensor<int32, [1]> x_93_axes_0 = const()[name = string("x_93_axes_0"), val = tensor<int32, [1]>([1])];
            tensor<fp16, [1, 1, 1, 161, 2]> x_93_cast_fp16 = expand_dims(axes = x_93_axes_0, x = x_1_cast_fp16)[name = string("x_93_cast_fp16")];
            tensor<int32, [1]> x_9_axes_0 = const()[name = string("x_9_axes_0"), val = tensor<int32, [1]>([1])];
            tensor<fp16, [1, 1, 1, 32]> x_9_cast_fp16 = expand_dims(axes = x_9_axes_0, x = _inversed_feat_erb_cast_fp16)[name = string("x_9_cast_fp16")];
            tensor<int32, [4]> transpose_5_perm_0 = const()[name = string("transpose_5_perm_0"), val = tensor<int32, [4]>([1, 0, 3, 2])];
            tensor<int32, [4]> var_129 = const()[name = string("op_129"), val = tensor<int32, [4]>([2, 0, 1, 3])];
            tensor<int32, [1]> buf_flat_1_begin_0 = const()[name = string("buf_flat_1_begin_0"), val = tensor<int32, [1]>([128])];
            tensor<int32, [1]> buf_flat_1_end_0 = const()[name = string("buf_flat_1_end_0"), val = tensor<int32, [1]>([224])];
            tensor<bool, [1]> buf_flat_1_end_mask_0 = const()[name = string("buf_flat_1_end_mask_0"), val = tensor<bool, [1]>([false])];
            tensor<fp16, [96]> buf_flat_1_cast_fp16 = slice_by_index(begin = buf_flat_1_begin_0, end = buf_flat_1_end_0, end_mask = buf_flat_1_end_mask_0, x = read_state_0)[name = string("buf_flat_1_cast_fp16")];
            tensor<int32, [4]> var_132 = const()[name = string("op_132"), val = tensor<int32, [4]>([3, 1, 1, 32])];
            tensor<fp16, [3, 1, 1, 32]> buf_1_cast_fp16 = reshape(shape = var_132, x = buf_flat_1_cast_fp16)[name = string("buf_1_cast_fp16")];
            tensor<int32, [4]> var_134_begin_0 = const()[name = string("op_134_begin_0"), val = tensor<int32, [4]>([1, 0, 0, 0])];
            tensor<int32, [4]> var_134_end_0 = const()[name = string("op_134_end_0"), val = tensor<int32, [4]>([3, 1, 1, 32])];
            tensor<bool, [4]> var_134_end_mask_0 = const()[name = string("op_134_end_mask_0"), val = tensor<bool, [4]>([true, true, true, true])];
            tensor<fp16, [2, 1, 1, 32]> var_134_cast_fp16 = slice_by_index(begin = var_134_begin_0, end = var_134_end_0, end_mask = var_134_end_mask_0, x = buf_1_cast_fp16)[name = string("op_134_cast_fp16")];
            bool buf_next_1_interleave_0 = const()[name = string("buf_next_1_interleave_0"), val = bool(false)];
            tensor<fp16, [1, 1, 1, 32]> x_tf_1_cast_fp16 = transpose(perm = var_129, x = x_9_cast_fp16)[name = string("transpose_37")];
            tensor<fp16, [3, 1, 1, 32]> buf_next_1_cast_fp16 = concat(axis = var_51, interleave = buf_next_1_interleave_0, values = (var_134_cast_fp16, x_tf_1_cast_fp16))[name = string("buf_next_1_cast_fp16")];
            tensor<int32, [4]> var_138 = const()[name = string("op_138"), val = tensor<int32, [4]>([1, 2, 0, 3])];
            tensor<int32, [1]> var_140 = const()[name = string("op_140"), val = tensor<int32, [1]>([-1])];
            tensor<fp16, [96]> erb_conv0_state_out_cast_fp16 = reshape(shape = var_140, x = buf_next_1_cast_fp16)[name = string("erb_conv0_state_out_cast_fp16")];
            string input_3_pad_type_0 = const()[name = string("input_3_pad_type_0"), val = string("custom")];
            tensor<int32, [4]> input_3_pad_0 = const()[name = string("input_3_pad_0"), val = tensor<int32, [4]>([0, 0, 1, 1])];
            tensor<int32, [2]> input_3_strides_0 = const()[name = string("input_3_strides_0"), val = tensor<int32, [2]>([1, 1])];
            tensor<int32, [2]> input_3_dilations_0 = const()[name = string("input_3_dilations_0"), val = tensor<int32, [2]>([1, 1])];
            int32 input_3_groups_0 = const()[name = string("input_3_groups_0"), val = int32(1)];
            tensor<fp16, [64, 1, 3, 3]> const_20_to_fp16 = const()[name = string("const_20_to_fp16"), val = tensor<fp16, [64, 1, 3, 3]>(BLOBFILE(path = string("@model_path/weights/weight.bin"), offset = uint64(3008)))];
            tensor<fp16, [64]> const_21_to_fp16 = const()[name = string("const_21_to_fp16"), val = tensor<fp16, [64]>(BLOBFILE(path = string("@model_path/weights/weight.bin"), offset = uint64(4224)))];
            tensor<fp16, [1, 1, 3, 32]> input_1_cast_fp16 = transpose(perm = var_138, x = buf_next_1_cast_fp16)[name = string("transpose_36")];
            tensor<fp16, [1, 64, 1, 32]> input_5_cast_fp16 = conv(bias = const_21_to_fp16, dilations = input_3_dilations_0, groups = input_3_groups_0, pad = input_3_pad_0, pad_type = input_3_pad_type_0, strides = input_3_strides_0, weight = const_20_to_fp16, x = input_1_cast_fp16)[name = string("input_5_cast_fp16")];
            tensor<fp16, [1, 64, 1, 32]> input_7_cast_fp16 = relu(x = input_5_cast_fp16)[name = string("input_7_cast_fp16")];
            string input_9_pad_type_0 = const()[name = string("input_9_pad_type_0"), val = string("custom")];
            tensor<int32, [4]> input_9_pad_0 = const()[name = string("input_9_pad_0"), val = tensor<int32, [4]>([0, 0, 1, 1])];
            tensor<int32, [2]> input_9_strides_0 = const()[name = string("input_9_strides_0"), val = tensor<int32, [2]>([1, 2])];
            int32 input_9_groups_0 = const()[name = string("input_9_groups_0"), val = int32(64)];
            tensor<int32, [2]> input_9_dilations_0 = const()[name = string("input_9_dilations_0"), val = tensor<int32, [2]>([1, 1])];
            tensor<fp16, [64, 1, 1, 3]> net_enc_erb_conv1_0_weight_to_fp16 = const()[name = string("net_enc_erb_conv1_0_weight_to_fp16"), val = tensor<fp16, [64, 1, 1, 3]>(BLOBFILE(path = string("@model_path/weights/weight.bin"), offset = uint64(4416)))];
            tensor<fp16, [1, 64, 1, 16]> input_9_cast_fp16 = conv(dilations = input_9_dilations_0, groups = input_9_groups_0, pad = input_9_pad_0, pad_type = input_9_pad_type_0, strides = input_9_strides_0, weight = net_enc_erb_conv1_0_weight_to_fp16, x = input_7_cast_fp16)[name = string("input_9_cast_fp16")];
            string input_11_pad_type_0 = const()[name = string("input_11_pad_type_0"), val = string("valid")];
            tensor<int32, [2]> input_11_strides_0 = const()[name = string("input_11_strides_0"), val = tensor<int32, [2]>([1, 1])];
            tensor<int32, [4]> input_11_pad_0 = const()[name = string("input_11_pad_0"), val = tensor<int32, [4]>([0, 0, 0, 0])];
            tensor<int32, [2]> input_11_dilations_0 = const()[name = string("input_11_dilations_0"), val = tensor<int32, [2]>([1, 1])];
            int32 input_11_groups_0 = const()[name = string("input_11_groups_0"), val = int32(1)];
            tensor<fp16, [64, 64, 1, 1]> const_22_to_fp16_palettized = constexpr_lut_to_dense(indices = tensor<uint4, [64, 64, 1, 1]>(BLOBFILE(path = string("@model_path/weights/weight.bin"), offset = uint64(4864))), lut = tensor<fp16, [1, 1, 1, 1, 16, 1]>(BLOBFILE(path = string("@model_path/weights/weight.bin"), offset = uint64(6976))))[name = string("const_22_to_fp16_palettized")];
            tensor<fp16, [64]> const_23_to_fp16 = const()[name = string("const_23_to_fp16"), val = tensor<fp16, [64]>(BLOBFILE(path = string("@model_path/weights/weight.bin"), offset = uint64(7104)))];
            tensor<fp16, [1, 64, 1, 16]> input_13_cast_fp16 = conv(bias = const_23_to_fp16, dilations = input_11_dilations_0, groups = input_11_groups_0, pad = input_11_pad_0, pad_type = input_11_pad_type_0, strides = input_11_strides_0, weight = const_22_to_fp16_palettized, x = input_9_cast_fp16)[name = string("input_13_cast_fp16")];
            tensor<fp16, [1, 64, 1, 16]> input_15_cast_fp16 = relu(x = input_13_cast_fp16)[name = string("input_15_cast_fp16")];
            string input_17_pad_type_0 = const()[name = string("input_17_pad_type_0"), val = string("custom")];
            tensor<int32, [4]> input_17_pad_0 = const()[name = string("input_17_pad_0"), val = tensor<int32, [4]>([0, 0, 1, 1])];
            tensor<int32, [2]> input_17_strides_0 = const()[name = string("input_17_strides_0"), val = tensor<int32, [2]>([1, 2])];
            int32 input_17_groups_0 = const()[name = string("input_17_groups_0"), val = int32(64)];
            tensor<int32, [2]> input_17_dilations_0 = const()[name = string("input_17_dilations_0"), val = tensor<int32, [2]>([1, 1])];
            tensor<fp16, [64, 1, 1, 3]> net_enc_erb_conv2_0_weight_to_fp16 = const()[name = string("net_enc_erb_conv2_0_weight_to_fp16"), val = tensor<fp16, [64, 1, 1, 3]>(BLOBFILE(path = string("@model_path/weights/weight.bin"), offset = uint64(7296)))];
            tensor<fp16, [1, 64, 1, 8]> input_17_cast_fp16 = conv(dilations = input_17_dilations_0, groups = input_17_groups_0, pad = input_17_pad_0, pad_type = input_17_pad_type_0, strides = input_17_strides_0, weight = net_enc_erb_conv2_0_weight_to_fp16, x = input_15_cast_fp16)[name = string("input_17_cast_fp16")];
            string input_19_pad_type_0 = const()[name = string("input_19_pad_type_0"), val = string("valid")];
            tensor<int32, [2]> input_19_strides_0 = const()[name = string("input_19_strides_0"), val = tensor<int32, [2]>([1, 1])];
            tensor<int32, [4]> input_19_pad_0 = const()[name = string("input_19_pad_0"), val = tensor<int32, [4]>([0, 0, 0, 0])];
            tensor<int32, [2]> input_19_dilations_0 = const()[name = string("input_19_dilations_0"), val = tensor<int32, [2]>([1, 1])];
            int32 input_19_groups_0 = const()[name = string("input_19_groups_0"), val = int32(1)];
            tensor<fp16, [64, 64, 1, 1]> const_24_to_fp16_palettized = constexpr_lut_to_dense(indices = tensor<uint4, [64, 64, 1, 1]>(BLOBFILE(path = string("@model_path/weights/weight.bin"), offset = uint64(7744))), lut = tensor<fp16, [1, 1, 1, 1, 16, 1]>(BLOBFILE(path = string("@model_path/weights/weight.bin"), offset = uint64(9856))))[name = string("const_24_to_fp16_palettized")];
            tensor<fp16, [64]> const_25_to_fp16 = const()[name = string("const_25_to_fp16"), val = tensor<fp16, [64]>(BLOBFILE(path = string("@model_path/weights/weight.bin"), offset = uint64(9984)))];
            tensor<fp16, [1, 64, 1, 8]> input_21_cast_fp16 = conv(bias = const_25_to_fp16, dilations = input_19_dilations_0, groups = input_19_groups_0, pad = input_19_pad_0, pad_type = input_19_pad_type_0, strides = input_19_strides_0, weight = const_24_to_fp16_palettized, x = input_17_cast_fp16)[name = string("input_21_cast_fp16")];
            tensor<fp16, [1, 64, 1, 8]> input_23_cast_fp16 = relu(x = input_21_cast_fp16)[name = string("input_23_cast_fp16")];
            string input_25_pad_type_0 = const()[name = string("input_25_pad_type_0"), val = string("custom")];
            tensor<int32, [4]> input_25_pad_0 = const()[name = string("input_25_pad_0"), val = tensor<int32, [4]>([0, 0, 1, 1])];
            int32 input_25_groups_0 = const()[name = string("input_25_groups_0"), val = int32(64)];
            tensor<int32, [2]> input_25_strides_0 = const()[name = string("input_25_strides_0"), val = tensor<int32, [2]>([1, 1])];
            tensor<int32, [2]> input_25_dilations_0 = const()[name = string("input_25_dilations_0"), val = tensor<int32, [2]>([1, 1])];
            tensor<fp16, [64, 1, 1, 3]> net_enc_erb_conv3_0_weight_to_fp16 = const()[name = string("net_enc_erb_conv3_0_weight_to_fp16"), val = tensor<fp16, [64, 1, 1, 3]>(BLOBFILE(path = string("@model_path/weights/weight.bin"), offset = uint64(10176)))];
            tensor<fp16, [1, 64, 1, 8]> input_25_cast_fp16 = conv(dilations = input_25_dilations_0, groups = input_25_groups_0, pad = input_25_pad_0, pad_type = input_25_pad_type_0, strides = input_25_strides_0, weight = net_enc_erb_conv3_0_weight_to_fp16, x = input_23_cast_fp16)[name = string("input_25_cast_fp16")];
            string input_27_pad_type_0 = const()[name = string("input_27_pad_type_0"), val = string("valid")];
            tensor<int32, [2]> input_27_strides_0 = const()[name = string("input_27_strides_0"), val = tensor<int32, [2]>([1, 1])];
            tensor<int32, [4]> input_27_pad_0 = const()[name = string("input_27_pad_0"), val = tensor<int32, [4]>([0, 0, 0, 0])];
            tensor<int32, [2]> input_27_dilations_0 = const()[name = string("input_27_dilations_0"), val = tensor<int32, [2]>([1, 1])];
            int32 input_27_groups_0 = const()[name = string("input_27_groups_0"), val = int32(1)];
            tensor<fp16, [64, 64, 1, 1]> const_26_to_fp16_palettized = constexpr_lut_to_dense(indices = tensor<uint4, [64, 64, 1, 1]>(BLOBFILE(path = string("@model_path/weights/weight.bin"), offset = uint64(10624))), lut = tensor<fp16, [1, 1, 1, 1, 16, 1]>(BLOBFILE(path = string("@model_path/weights/weight.bin"), offset = uint64(12736))))[name = string("const_26_to_fp16_palettized")];
            tensor<fp16, [64]> const_27_to_fp16 = const()[name = string("const_27_to_fp16"), val = tensor<fp16, [64]>(BLOBFILE(path = string("@model_path/weights/weight.bin"), offset = uint64(12864)))];
            tensor<fp16, [1, 64, 1, 8]> input_29_cast_fp16 = conv(bias = const_27_to_fp16, dilations = input_27_dilations_0, groups = input_27_groups_0, pad = input_27_pad_0, pad_type = input_27_pad_type_0, strides = input_27_strides_0, weight = const_26_to_fp16_palettized, x = input_25_cast_fp16)[name = string("input_29_cast_fp16")];
            tensor<fp16, [1, 64, 1, 8]> inputs_1_cast_fp16 = relu(x = input_29_cast_fp16)[name = string("inputs_1_cast_fp16")];
            tensor<int32, [1]> var_232_axes_0 = const()[name = string("op_232_axes_0"), val = tensor<int32, [1]>([2])];
            tensor<fp16, [1, 64, 8]> var_232_cast_fp16 = squeeze(axes = var_232_axes_0, x = inputs_1_cast_fp16)[name = string("op_232_cast_fp16")];
            tensor<int32, [3]> transpose_6_perm_0 = const()[name = string("transpose_6_perm_0"), val = tensor<int32, [3]>([2, 0, 1])];
            tensor<int32, [1]> slice_by_index_1 = const()[name = string("slice_by_index_1"), val = tensor<int32, [1]>([8])];
            tensor<fp32, [9, 1, 64]> concat_1 = const()[name = string("concat_1"), val = tensor<fp32, [9, 1, 64]>(BLOBFILE(path = string("@model_path/weights/weight.bin"), offset = uint64(13056)))];
            tensor<int32, [1]> while_loop_0_loop_vars0_0 = const()[name = string("while_loop_0_loop_vars0_0"), val = tensor<int32, [1]>([0])];
            tensor<fp16, [8, 1, 64]> transpose_6_cast_fp16 = transpose(perm = transpose_6_perm_0, x = var_232_cast_fp16)[name = string("transpose_35")];
            tensor<int32, [1]> while_loop_0_0, tensor<fp32, [9, 1, 64]> while_loop_0_1 = while_loop(loop_vars = (while_loop_0_loop_vars0_0, concat_1))[name = string("while_loop_0")]
                (tensor<int32, [1]> while_loop_0_loop_vars0_0_x0_1_1_1, tensor<fp32, [9, 1, 64]> concat_1_x0_1_1_1) {
                    tensor<bool, [1]> less_1 = less(x = while_loop_0_loop_vars0_0_x0_1_1_1, y = slice_by_index_1)[name = string("less_1")];
                } -> (less_1)
                (tensor<int32, [1]> while_loop_0_loop_vars0_0_x0_1_1_1_1, tensor<fp32, [9, 1, 64]> concat_1_x0_1_1_1_1) {
                    int32 gather_2_axis_0 = const()[name = string("gather_2_axis_0"), val = int32(0)];
                    int32 gather_2_batch_dims_0 = const()[name = string("gather_2_batch_dims_0"), val = int32(0)];
                    bool gather_2_validate_indices_0 = const()[name = string("gather_2_validate_indices_0"), val = bool(false)];
                    string while_loop_0_loop_vars0_0_x0_1_to_uint16_dtype_0 = const()[name = string("while_loop_0_loop_vars0_0_x0_1_to_uint16_dtype_0"), val = string("uint16")];
                    tensor<uint16, [1]> while_loop_0_loop_vars0_0_x0_1_to_uint16 = cast(dtype = while_loop_0_loop_vars0_0_x0_1_to_uint16_dtype_0, x = while_loop_0_loop_vars0_0_x0_1_1_1_1)[name = string("cast_32")];
                    tensor<fp16, [1, 1, 64]> gather_2_cast_fp16_cast_uint16 = gather(axis = gather_2_axis_0, batch_dims = gather_2_batch_dims_0, indices = while_loop_0_loop_vars0_0_x0_1_to_uint16, validate_indices = gather_2_validate_indices_0, x = transpose_6_cast_fp16)[name = string("gather_2_cast_fp16_cast_uint16")];
                    int32 gather_3_axis_0 = const()[name = string("gather_3_axis_0"), val = int32(0)];
                    int32 gather_3_batch_dims_0 = const()[name = string("gather_3_batch_dims_0"), val = int32(0)];
                    bool gather_3_validate_indices_0 = const()[name = string("gather_3_validate_indices_0"), val = bool(false)];
                    string concat_1_x0_1_to_fp16_dtype_0 = const()[name = string("concat_1_x0_1_to_fp16_dtype_0"), val = string("fp16")];
                    tensor<fp16, [9, 1, 64]> concat_1_x0_1_to_fp16 = cast(dtype = concat_1_x0_1_to_fp16_dtype_0, x = concat_1_x0_1_1_1_1)[name = string("cast_31")];
                    tensor<fp16, [1, 1, 64]> gather_3_cast_fp16_cast_uint16 = gather(axis = gather_3_axis_0, batch_dims = gather_3_batch_dims_0, indices = while_loop_0_loop_vars0_0_x0_1_to_uint16, validate_indices = gather_3_validate_indices_0, x = concat_1_x0_1_to_fp16)[name = string("gather_3_cast_fp16_cast_uint16")];
                    tensor<int32, [1]> squeeze_2_axes_0 = const()[name = string("squeeze_2_axes_0"), val = tensor<int32, [1]>([0])];
                    tensor<fp16, [1, 64]> squeeze_2_cast_fp16 = squeeze(axes = squeeze_2_axes_0, x = gather_2_cast_fp16_cast_uint16)[name = string("squeeze_2_cast_fp16")];
                    tensor<int32, [1]> squeeze_3_axes_0 = const()[name = string("squeeze_3_axes_0"), val = tensor<int32, [1]>([0])];
                    tensor<fp16, [1, 64]> squeeze_3_cast_fp16 = squeeze(axes = squeeze_3_axes_0, x = gather_3_cast_fp16_cast_uint16)[name = string("squeeze_3_cast_fp16")];
                    tensor<fp16, [64, 64]> linear_6_weight_0_to_fp16_palettized = constexpr_lut_to_dense(indices = tensor<uint4, [64, 64]>(BLOBFILE(path = string("@model_path/weights/weight.bin"), offset = uint64(15424))), lut = tensor<fp16, [1, 1, 16, 1]>(BLOBFILE(path = string("@model_path/weights/weight.bin"), offset = uint64(17536))))[name = string("linear_6_weight_0_to_fp16_palettized")];
                    tensor<fp16, [64]> linear_6_bias_0_to_fp16 = const()[name = string("linear_6_bias_0_to_fp16"), val = tensor<fp16, [64]>(BLOBFILE(path = string("@model_path/weights/weight.bin"), offset = uint64(17664)))];
                    tensor<fp16, [1, 64]> linear_6_cast_fp16 = linear(bias = linear_6_bias_0_to_fp16, weight = linear_6_weight_0_to_fp16_palettized, x = squeeze_2_cast_fp16)[name = string("linear_6_cast_fp16")];
                    tensor<fp16, [64, 64]> linear_7_weight_0_to_fp16_palettized = constexpr_lut_to_dense(indices = tensor<uint4, [64, 64]>(BLOBFILE(path = string("@model_path/weights/weight.bin"), offset = uint64(17856))), lut = tensor<fp16, [1, 1, 16, 1]>(BLOBFILE(path = string("@model_path/weights/weight.bin"), offset = uint64(19968))))[name = string("linear_7_weight_0_to_fp16_palettized")];
                    tensor<fp16, [64]> linear_7_bias_0_to_fp16 = const()[name = string("linear_7_bias_0_to_fp16"), val = tensor<fp16, [64]>(BLOBFILE(path = string("@model_path/weights/weight.bin"), offset = uint64(20096)))];
                    tensor<fp16, [1, 64]> linear_7_cast_fp16 = linear(bias = linear_7_bias_0_to_fp16, weight = linear_7_weight_0_to_fp16_palettized, x = squeeze_3_cast_fp16)[name = string("linear_7_cast_fp16")];
                    tensor<fp16, [1, 64]> add_5_cast_fp16 = add(x = linear_6_cast_fp16, y = linear_7_cast_fp16)[name = string("add_5_cast_fp16")];
                    tensor<fp16, [1, 64]> sigmoid_2_cast_fp16 = sigmoid(x = add_5_cast_fp16)[name = string("sigmoid_2_cast_fp16")];
                    tensor<fp16, [64, 64]> linear_8_weight_0_to_fp16_palettized = constexpr_lut_to_dense(indices = tensor<uint4, [64, 64]>(BLOBFILE(path = string("@model_path/weights/weight.bin"), offset = uint64(20288))), lut = tensor<fp16, [1, 1, 16, 1]>(BLOBFILE(path = string("@model_path/weights/weight.bin"), offset = uint64(22400))))[name = string("linear_8_weight_0_to_fp16_palettized")];
                    tensor<fp16, [64]> linear_8_bias_0_to_fp16 = const()[name = string("linear_8_bias_0_to_fp16"), val = tensor<fp16, [64]>(BLOBFILE(path = string("@model_path/weights/weight.bin"), offset = uint64(22528)))];
                    tensor<fp16, [1, 64]> linear_8_cast_fp16 = linear(bias = linear_8_bias_0_to_fp16, weight = linear_8_weight_0_to_fp16_palettized, x = squeeze_2_cast_fp16)[name = string("linear_8_cast_fp16")];
                    tensor<fp16, [64, 64]> linear_9_weight_0_to_fp16_palettized = constexpr_lut_to_dense(indices = tensor<uint4, [64, 64]>(BLOBFILE(path = string("@model_path/weights/weight.bin"), offset = uint64(22720))), lut = tensor<fp16, [1, 1, 16, 1]>(BLOBFILE(path = string("@model_path/weights/weight.bin"), offset = uint64(24832))))[name = string("linear_9_weight_0_to_fp16_palettized")];
                    tensor<fp16, [64]> linear_9_bias_0_to_fp16 = const()[name = string("linear_9_bias_0_to_fp16"), val = tensor<fp16, [64]>(BLOBFILE(path = string("@model_path/weights/weight.bin"), offset = uint64(24960)))];
                    tensor<fp16, [1, 64]> linear_9_cast_fp16 = linear(bias = linear_9_bias_0_to_fp16, weight = linear_9_weight_0_to_fp16_palettized, x = squeeze_3_cast_fp16)[name = string("linear_9_cast_fp16")];
                    tensor<fp16, [1, 64]> add_6_cast_fp16 = add(x = linear_8_cast_fp16, y = linear_9_cast_fp16)[name = string("add_6_cast_fp16")];
                    tensor<fp16, [1, 64]> sigmoid_3_cast_fp16 = sigmoid(x = add_6_cast_fp16)[name = string("sigmoid_3_cast_fp16")];
                    tensor<fp16, [64, 64]> linear_10_weight_0_to_fp16_palettized = constexpr_lut_to_dense(indices = tensor<uint4, [64, 64]>(BLOBFILE(path = string("@model_path/weights/weight.bin"), offset = uint64(25152))), lut = tensor<fp16, [1, 1, 16, 1]>(BLOBFILE(path = string("@model_path/weights/weight.bin"), offset = uint64(27264))))[name = string("linear_10_weight_0_to_fp16_palettized")];
                    tensor<fp16, [64]> linear_10_bias_0_to_fp16 = const()[name = string("linear_10_bias_0_to_fp16"), val = tensor<fp16, [64]>(BLOBFILE(path = string("@model_path/weights/weight.bin"), offset = uint64(27392)))];
                    tensor<fp16, [1, 64]> linear_10_cast_fp16 = linear(bias = linear_10_bias_0_to_fp16, weight = linear_10_weight_0_to_fp16_palettized, x = squeeze_2_cast_fp16)[name = string("linear_10_cast_fp16")];
                    tensor<fp16, [64, 64]> linear_11_weight_0_to_fp16_palettized = constexpr_lut_to_dense(indices = tensor<uint4, [64, 64]>(BLOBFILE(path = string("@model_path/weights/weight.bin"), offset = uint64(27584))), lut = tensor<fp16, [1, 1, 16, 1]>(BLOBFILE(path = string("@model_path/weights/weight.bin"), offset = uint64(29696))))[name = string("linear_11_weight_0_to_fp16_palettized")];
                    tensor<fp16, [64]> linear_11_bias_0_to_fp16 = const()[name = string("linear_11_bias_0_to_fp16"), val = tensor<fp16, [64]>(BLOBFILE(path = string("@model_path/weights/weight.bin"), offset = uint64(29824)))];
                    tensor<fp16, [1, 64]> linear_11_cast_fp16 = linear(bias = linear_11_bias_0_to_fp16, weight = linear_11_weight_0_to_fp16_palettized, x = squeeze_3_cast_fp16)[name = string("linear_11_cast_fp16")];
                    tensor<fp16, [1, 64]> mul_4_cast_fp16 = mul(x = sigmoid_2_cast_fp16, y = linear_11_cast_fp16)[name = string("mul_4_cast_fp16")];
                    tensor<fp16, [1, 64]> add_7_cast_fp16 = add(x = linear_10_cast_fp16, y = mul_4_cast_fp16)[name = string("add_7_cast_fp16")];
                    tensor<fp16, [1, 64]> tanh_1_cast_fp16 = tanh(x = add_7_cast_fp16)[name = string("tanh_1_cast_fp16")];
                    fp16 sub_1_x_0_to_fp16 = const()[name = string("sub_1_x_0_to_fp16"), val = fp16(0x1p+0)];
                    tensor<fp16, [1, 64]> sub_1_cast_fp16 = sub(x = sub_1_x_0_to_fp16, y = sigmoid_3_cast_fp16)[name = string("sub_1_cast_fp16")];
                    tensor<fp16, [1, 64]> mul_5_cast_fp16 = mul(x = sub_1_cast_fp16, y = tanh_1_cast_fp16)[name = string("mul_5_cast_fp16")];
                    tensor<fp16, [1, 64]> mul_6_cast_fp16 = mul(x = sigmoid_3_cast_fp16, y = squeeze_3_cast_fp16)[name = string("mul_6_cast_fp16")];
                    tensor<fp16, [1, 64]> add_8_cast_fp16 = add(x = mul_5_cast_fp16, y = mul_6_cast_fp16)[name = string("add_8_cast_fp16")];
                    int32 add_9_y_0 = const()[name = string("add_9_y_0"), val = int32(1)];
                    tensor<int32, [1]> add_9 = add(x = while_loop_0_loop_vars0_0_x0_1_1_1_1, y = add_9_y_0)[name = string("add_9")];
                    tensor<int32, [1]> expand_dims_1_axes_0 = const()[name = string("expand_dims_1_axes_0"), val = tensor<int32, [1]>([0])];
                    tensor<fp16, [1, 1, 64]> expand_dims_1_cast_fp16 = expand_dims(axes = expand_dims_1_axes_0, x = add_8_cast_fp16)[name = string("expand_dims_1_cast_fp16")];
                    int32 scatter_1_axis_0 = const()[name = string("scatter_1_axis_0"), val = int32(0)];
                    string scatter_1_mode_0 = const()[name = string("scatter_1_mode_0"), val = string("add")];
                    bool scatter_1_validate_indices_0 = const()[name = string("scatter_1_validate_indices_0"), val = bool(false)];
                    tensor<fp16, [9, 1, 64]> scatter_1_cast_fp16 = scatter(axis = scatter_1_axis_0, data = concat_1_x0_1_to_fp16, indices = add_9, mode = scatter_1_mode_0, updates = expand_dims_1_cast_fp16, validate_indices = scatter_1_validate_indices_0)[name = string("scatter_1_cast_fp16")];
                    string scatter_1_cast_fp16_to_fp32_dtype_0 = const()[name = string("scatter_1_cast_fp16_to_fp32_dtype_0"), val = string("fp32")];
                    tensor<fp32, [9, 1, 64]> scatter_1_cast_fp16_to_fp32 = cast(dtype = scatter_1_cast_fp16_to_fp32_dtype_0, x = scatter_1_cast_fp16)[name = string("cast_30")];
                } -> (add_9, scatter_1_cast_fp16_to_fp32);
            tensor<int32, [3]> input_33_tmp_forward_begin_0 = const()[name = string("input_33_tmp_forward_begin_0"), val = tensor<int32, [3]>([1, 0, 0])];
            tensor<int32, [3]> input_33_tmp_forward_end_0 = const()[name = string("input_33_tmp_forward_end_0"), val = tensor<int32, [3]>([0, 0, 0])];
            tensor<bool, [3]> input_33_tmp_forward_begin_mask_0 = const()[name = string("input_33_tmp_forward_begin_mask_0"), val = tensor<bool, [3]>([false, true, true])];
            tensor<bool, [3]> input_33_tmp_forward_end_mask_0 = const()[name = string("input_33_tmp_forward_end_mask_0"), val = tensor<bool, [3]>([true, true, true])];
            string while_loop_0_1_to_fp16_dtype_0 = const()[name = string("while_loop_0_1_to_fp16_dtype_0"), val = string("fp16")];
            tensor<fp16, [9, 1, 64]> while_loop_0_1_to_fp16 = cast(dtype = while_loop_0_1_to_fp16_dtype_0, x = while_loop_0_1)[name = string("cast_29")];
            tensor<fp16, [8, 1, 64]> input_33_tmp_forward_cast_fp16 = slice_by_index(begin = input_33_tmp_forward_begin_0, begin_mask = input_33_tmp_forward_begin_mask_0, end = input_33_tmp_forward_end_0, end_mask = input_33_tmp_forward_end_mask_0, x = while_loop_0_1_to_fp16)[name = string("input_33_tmp_forward_cast_fp16")];
            tensor<int32, [1]> reverse_0_axes_0 = const()[name = string("reverse_0_axes_0"), val = tensor<int32, [1]>([0])];
            tensor<fp16, [8, 1, 64]> reverse_0_cast_fp16 = reverse(axes = reverse_0_axes_0, x = transpose_6_cast_fp16)[name = string("reverse_0_cast_fp16")];
            tensor<int32, [1]> slice_by_index_4 = const()[name = string("slice_by_index_4"), val = tensor<int32, [1]>([8])];
            tensor<int32, [1]> while_loop_1_loop_vars0_0 = const()[name = string("while_loop_1_loop_vars0_0"), val = tensor<int32, [1]>([0])];
            tensor<int32, [1]> while_loop_1_0, tensor<fp32, [9, 1, 64]> while_loop_1_1 = while_loop(loop_vars = (while_loop_1_loop_vars0_0, concat_1))[name = string("while_loop_1")]
                (tensor<int32, [1]> while_loop_1_loop_vars0_0_x0_1_1_1, tensor<fp32, [9, 1, 64]> concat_3_x0_1_1_1) {
                    tensor<bool, [1]> less_3 = less(x = while_loop_1_loop_vars0_0_x0_1_1_1, y = slice_by_index_4)[name = string("less_3")];
                } -> (less_3)
                (tensor<int32, [1]> while_loop_1_loop_vars0_0_x0_1_1_1_1, tensor<fp32, [9, 1, 64]> concat_3_x0_1_1_1_1) {
                    int32 gather_6_axis_0 = const()[name = string("gather_6_axis_0"), val = int32(0)];
                    int32 gather_6_batch_dims_0 = const()[name = string("gather_6_batch_dims_0"), val = int32(0)];
                    bool gather_6_validate_indices_0 = const()[name = string("gather_6_validate_indices_0"), val = bool(false)];
                    string while_loop_1_loop_vars0_0_x0_1_to_uint16_dtype_0 = const()[name = string("while_loop_1_loop_vars0_0_x0_1_to_uint16_dtype_0"), val = string("uint16")];
                    tensor<uint16, [1]> while_loop_1_loop_vars0_0_x0_1_to_uint16 = cast(dtype = while_loop_1_loop_vars0_0_x0_1_to_uint16_dtype_0, x = while_loop_1_loop_vars0_0_x0_1_1_1_1)[name = string("cast_28")];
                    tensor<fp16, [1, 1, 64]> gather_6_cast_fp16_cast_uint16 = gather(axis = gather_6_axis_0, batch_dims = gather_6_batch_dims_0, indices = while_loop_1_loop_vars0_0_x0_1_to_uint16, validate_indices = gather_6_validate_indices_0, x = reverse_0_cast_fp16)[name = string("gather_6_cast_fp16_cast_uint16")];
                    int32 gather_7_axis_0 = const()[name = string("gather_7_axis_0"), val = int32(0)];
                    int32 gather_7_batch_dims_0 = const()[name = string("gather_7_batch_dims_0"), val = int32(0)];
                    bool gather_7_validate_indices_0 = const()[name = string("gather_7_validate_indices_0"), val = bool(false)];
                    string concat_3_x0_1_to_fp16_dtype_0 = const()[name = string("concat_3_x0_1_to_fp16_dtype_0"), val = string("fp16")];
                    tensor<fp16, [9, 1, 64]> concat_3_x0_1_to_fp16 = cast(dtype = concat_3_x0_1_to_fp16_dtype_0, x = concat_3_x0_1_1_1_1)[name = string("cast_27")];
                    tensor<fp16, [1, 1, 64]> gather_7_cast_fp16_cast_uint16 = gather(axis = gather_7_axis_0, batch_dims = gather_7_batch_dims_0, indices = while_loop_1_loop_vars0_0_x0_1_to_uint16, validate_indices = gather_7_validate_indices_0, x = concat_3_x0_1_to_fp16)[name = string("gather_7_cast_fp16_cast_uint16")];
                    tensor<int32, [1]> squeeze_6_axes_0 = const()[name = string("squeeze_6_axes_0"), val = tensor<int32, [1]>([0])];
                    tensor<fp16, [1, 64]> squeeze_6_cast_fp16 = squeeze(axes = squeeze_6_axes_0, x = gather_6_cast_fp16_cast_uint16)[name = string("squeeze_6_cast_fp16")];
                    tensor<int32, [1]> squeeze_7_axes_0 = const()[name = string("squeeze_7_axes_0"), val = tensor<int32, [1]>([0])];
                    tensor<fp16, [1, 64]> squeeze_7_cast_fp16 = squeeze(axes = squeeze_7_axes_0, x = gather_7_cast_fp16_cast_uint16)[name = string("squeeze_7_cast_fp16")];
                    tensor<fp16, [64, 64]> linear_18_weight_0_to_fp16_palettized = constexpr_lut_to_dense(indices = tensor<uint4, [64, 64]>(BLOBFILE(path = string("@model_path/weights/weight.bin"), offset = uint64(30016))), lut = tensor<fp16, [1, 1, 16, 1]>(BLOBFILE(path = string("@model_path/weights/weight.bin"), offset = uint64(32128))))[name = string("linear_18_weight_0_to_fp16_palettized")];
                    tensor<fp16, [64]> linear_18_bias_0_to_fp16 = const()[name = string("linear_18_bias_0_to_fp16"), val = tensor<fp16, [64]>(BLOBFILE(path = string("@model_path/weights/weight.bin"), offset = uint64(32256)))];
                    tensor<fp16, [1, 64]> linear_18_cast_fp16 = linear(bias = linear_18_bias_0_to_fp16, weight = linear_18_weight_0_to_fp16_palettized, x = squeeze_6_cast_fp16)[name = string("linear_18_cast_fp16")];
                    tensor<fp16, [64, 64]> linear_19_weight_0_to_fp16_palettized = constexpr_lut_to_dense(indices = tensor<uint4, [64, 64]>(BLOBFILE(path = string("@model_path/weights/weight.bin"), offset = uint64(32448))), lut = tensor<fp16, [1, 1, 16, 1]>(BLOBFILE(path = string("@model_path/weights/weight.bin"), offset = uint64(34560))))[name = string("linear_19_weight_0_to_fp16_palettized")];
                    tensor<fp16, [64]> linear_19_bias_0_to_fp16 = const()[name = string("linear_19_bias_0_to_fp16"), val = tensor<fp16, [64]>(BLOBFILE(path = string("@model_path/weights/weight.bin"), offset = uint64(34688)))];
                    tensor<fp16, [1, 64]> linear_19_cast_fp16 = linear(bias = linear_19_bias_0_to_fp16, weight = linear_19_weight_0_to_fp16_palettized, x = squeeze_7_cast_fp16)[name = string("linear_19_cast_fp16")];
                    tensor<fp16, [1, 64]> add_15_cast_fp16 = add(x = linear_18_cast_fp16, y = linear_19_cast_fp16)[name = string("add_15_cast_fp16")];
                    tensor<fp16, [1, 64]> sigmoid_6_cast_fp16 = sigmoid(x = add_15_cast_fp16)[name = string("sigmoid_6_cast_fp16")];
                    tensor<fp16, [64, 64]> linear_20_weight_0_to_fp16_palettized = constexpr_lut_to_dense(indices = tensor<uint4, [64, 64]>(BLOBFILE(path = string("@model_path/weights/weight.bin"), offset = uint64(34880))), lut = tensor<fp16, [1, 1, 16, 1]>(BLOBFILE(path = string("@model_path/weights/weight.bin"), offset = uint64(36992))))[name = string("linear_20_weight_0_to_fp16_palettized")];
                    tensor<fp16, [64]> linear_20_bias_0_to_fp16 = const()[name = string("linear_20_bias_0_to_fp16"), val = tensor<fp16, [64]>(BLOBFILE(path = string("@model_path/weights/weight.bin"), offset = uint64(37120)))];
                    tensor<fp16, [1, 64]> linear_20_cast_fp16 = linear(bias = linear_20_bias_0_to_fp16, weight = linear_20_weight_0_to_fp16_palettized, x = squeeze_6_cast_fp16)[name = string("linear_20_cast_fp16")];
                    tensor<fp16, [64, 64]> linear_21_weight_0_to_fp16_palettized = constexpr_lut_to_dense(indices = tensor<uint4, [64, 64]>(BLOBFILE(path = string("@model_path/weights/weight.bin"), offset = uint64(37312))), lut = tensor<fp16, [1, 1, 16, 1]>(BLOBFILE(path = string("@model_path/weights/weight.bin"), offset = uint64(39424))))[name = string("linear_21_weight_0_to_fp16_palettized")];
                    tensor<fp16, [64]> linear_21_bias_0_to_fp16 = const()[name = string("linear_21_bias_0_to_fp16"), val = tensor<fp16, [64]>(BLOBFILE(path = string("@model_path/weights/weight.bin"), offset = uint64(39552)))];
                    tensor<fp16, [1, 64]> linear_21_cast_fp16 = linear(bias = linear_21_bias_0_to_fp16, weight = linear_21_weight_0_to_fp16_palettized, x = squeeze_7_cast_fp16)[name = string("linear_21_cast_fp16")];
                    tensor<fp16, [1, 64]> add_16_cast_fp16 = add(x = linear_20_cast_fp16, y = linear_21_cast_fp16)[name = string("add_16_cast_fp16")];
                    tensor<fp16, [1, 64]> sigmoid_7_cast_fp16 = sigmoid(x = add_16_cast_fp16)[name = string("sigmoid_7_cast_fp16")];
                    tensor<fp16, [64, 64]> linear_22_weight_0_to_fp16_palettized = constexpr_lut_to_dense(indices = tensor<uint4, [64, 64]>(BLOBFILE(path = string("@model_path/weights/weight.bin"), offset = uint64(39744))), lut = tensor<fp16, [1, 1, 16, 1]>(BLOBFILE(path = string("@model_path/weights/weight.bin"), offset = uint64(41856))))[name = string("linear_22_weight_0_to_fp16_palettized")];
                    tensor<fp16, [64]> linear_22_bias_0_to_fp16 = const()[name = string("linear_22_bias_0_to_fp16"), val = tensor<fp16, [64]>(BLOBFILE(path = string("@model_path/weights/weight.bin"), offset = uint64(41984)))];
                    tensor<fp16, [1, 64]> linear_22_cast_fp16 = linear(bias = linear_22_bias_0_to_fp16, weight = linear_22_weight_0_to_fp16_palettized, x = squeeze_6_cast_fp16)[name = string("linear_22_cast_fp16")];
                    tensor<fp16, [64, 64]> linear_23_weight_0_to_fp16_palettized = constexpr_lut_to_dense(indices = tensor<uint4, [64, 64]>(BLOBFILE(path = string("@model_path/weights/weight.bin"), offset = uint64(42176))), lut = tensor<fp16, [1, 1, 16, 1]>(BLOBFILE(path = string("@model_path/weights/weight.bin"), offset = uint64(44288))))[name = string("linear_23_weight_0_to_fp16_palettized")];
                    tensor<fp16, [64]> linear_23_bias_0_to_fp16 = const()[name = string("linear_23_bias_0_to_fp16"), val = tensor<fp16, [64]>(BLOBFILE(path = string("@model_path/weights/weight.bin"), offset = uint64(44416)))];
                    tensor<fp16, [1, 64]> linear_23_cast_fp16 = linear(bias = linear_23_bias_0_to_fp16, weight = linear_23_weight_0_to_fp16_palettized, x = squeeze_7_cast_fp16)[name = string("linear_23_cast_fp16")];
                    tensor<fp16, [1, 64]> mul_10_cast_fp16 = mul(x = sigmoid_6_cast_fp16, y = linear_23_cast_fp16)[name = string("mul_10_cast_fp16")];
                    tensor<fp16, [1, 64]> add_17_cast_fp16 = add(x = linear_22_cast_fp16, y = mul_10_cast_fp16)[name = string("add_17_cast_fp16")];
                    tensor<fp16, [1, 64]> tanh_3_cast_fp16 = tanh(x = add_17_cast_fp16)[name = string("tanh_3_cast_fp16")];
                    fp16 sub_3_x_0_to_fp16 = const()[name = string("sub_3_x_0_to_fp16"), val = fp16(0x1p+0)];
                    tensor<fp16, [1, 64]> sub_3_cast_fp16 = sub(x = sub_3_x_0_to_fp16, y = sigmoid_7_cast_fp16)[name = string("sub_3_cast_fp16")];
                    tensor<fp16, [1, 64]> mul_11_cast_fp16 = mul(x = sub_3_cast_fp16, y = tanh_3_cast_fp16)[name = string("mul_11_cast_fp16")];
                    tensor<fp16, [1, 64]> mul_12_cast_fp16 = mul(x = sigmoid_7_cast_fp16, y = squeeze_7_cast_fp16)[name = string("mul_12_cast_fp16")];
                    tensor<fp16, [1, 64]> add_18_cast_fp16 = add(x = mul_11_cast_fp16, y = mul_12_cast_fp16)[name = string("add_18_cast_fp16")];
                    int32 add_19_y_0 = const()[name = string("add_19_y_0"), val = int32(1)];
                    tensor<int32, [1]> add_19 = add(x = while_loop_1_loop_vars0_0_x0_1_1_1_1, y = add_19_y_0)[name = string("add_19")];
                    tensor<int32, [1]> expand_dims_3_axes_0 = const()[name = string("expand_dims_3_axes_0"), val = tensor<int32, [1]>([0])];
                    tensor<fp16, [1, 1, 64]> expand_dims_3_cast_fp16 = expand_dims(axes = expand_dims_3_axes_0, x = add_18_cast_fp16)[name = string("expand_dims_3_cast_fp16")];
                    int32 scatter_3_axis_0 = const()[name = string("scatter_3_axis_0"), val = int32(0)];
                    string scatter_3_mode_0 = const()[name = string("scatter_3_mode_0"), val = string("add")];
                    bool scatter_3_validate_indices_0 = const()[name = string("scatter_3_validate_indices_0"), val = bool(false)];
                    tensor<fp16, [9, 1, 64]> scatter_3_cast_fp16 = scatter(axis = scatter_3_axis_0, data = concat_3_x0_1_to_fp16, indices = add_19, mode = scatter_3_mode_0, updates = expand_dims_3_cast_fp16, validate_indices = scatter_3_validate_indices_0)[name = string("scatter_3_cast_fp16")];
                    string scatter_3_cast_fp16_to_fp32_dtype_0 = const()[name = string("scatter_3_cast_fp16_to_fp32_dtype_0"), val = string("fp32")];
                    tensor<fp32, [9, 1, 64]> scatter_3_cast_fp16_to_fp32 = cast(dtype = scatter_3_cast_fp16_to_fp32_dtype_0, x = scatter_3_cast_fp16)[name = string("cast_26")];
                } -> (add_19, scatter_3_cast_fp16_to_fp32);
            tensor<int32, [3]> input_33_tmp_backward_reverse_begin_0 = const()[name = string("input_33_tmp_backward_reverse_begin_0"), val = tensor<int32, [3]>([1, 0, 0])];
            tensor<int32, [3]> input_33_tmp_backward_reverse_end_0 = const()[name = string("input_33_tmp_backward_reverse_end_0"), val = tensor<int32, [3]>([0, 0, 0])];
            tensor<bool, [3]> input_33_tmp_backward_reverse_begin_mask_0 = const()[name = string("input_33_tmp_backward_reverse_begin_mask_0"), val = tensor<bool, [3]>([false, true, true])];
            tensor<bool, [3]> input_33_tmp_backward_reverse_end_mask_0 = const()[name = string("input_33_tmp_backward_reverse_end_mask_0"), val = tensor<bool, [3]>([true, true, true])];
            string while_loop_1_1_to_fp16_dtype_0 = const()[name = string("while_loop_1_1_to_fp16_dtype_0"), val = string("fp16")];
            tensor<fp16, [9, 1, 64]> while_loop_1_1_to_fp16 = cast(dtype = while_loop_1_1_to_fp16_dtype_0, x = while_loop_1_1)[name = string("cast_25")];
            tensor<fp16, [8, 1, 64]> input_33_tmp_backward_reverse_cast_fp16 = slice_by_index(begin = input_33_tmp_backward_reverse_begin_0, begin_mask = input_33_tmp_backward_reverse_begin_mask_0, end = input_33_tmp_backward_reverse_end_0, end_mask = input_33_tmp_backward_reverse_end_mask_0, x = while_loop_1_1_to_fp16)[name = string("input_33_tmp_backward_reverse_cast_fp16")];
            tensor<int32, [1]> input_33_tmp_backward_axes_0 = const()[name = string("input_33_tmp_backward_axes_0"), val = tensor<int32, [1]>([0])];
            tensor<fp16, [8, 1, 64]> input_33_tmp_backward_cast_fp16 = reverse(axes = input_33_tmp_backward_axes_0, x = input_33_tmp_backward_reverse_cast_fp16)[name = string("input_33_tmp_backward_cast_fp16")];
            int32 input_33_tmp_axis_0 = const()[name = string("input_33_tmp_axis_0"), val = int32(2)];
            bool input_33_tmp_interleave_0 = const()[name = string("input_33_tmp_interleave_0"), val = bool(false)];
            tensor<fp16, [8, 1, 128]> input_33_tmp_cast_fp16 = concat(axis = input_33_tmp_axis_0, interleave = input_33_tmp_interleave_0, values = (input_33_tmp_forward_cast_fp16, input_33_tmp_backward_cast_fp16))[name = string("input_33_tmp_cast_fp16")];
            tensor<int32, [3]> input_33_perm_0 = const()[name = string("input_33_perm_0"), val = tensor<int32, [3]>([1, 0, 2])];
            tensor<fp16, [64, 128]> net_enc_dprnn_erb_blocks_0_fc_intra_weight_to_fp16_palettized = constexpr_lut_to_dense(indices = tensor<uint4, [64, 128]>(BLOBFILE(path = string("@model_path/weights/weight.bin"), offset = uint64(44608))), lut = tensor<fp16, [1, 1, 16, 1]>(BLOBFILE(path = string("@model_path/weights/weight.bin"), offset = uint64(48768))))[name = string("net_enc_dprnn_erb_blocks_0_fc_intra_weight_to_fp16_palettized")];
            tensor<fp16, [64]> net_enc_dprnn_erb_blocks_0_fc_intra_bias_to_fp16 = const()[name = string("net_enc_dprnn_erb_blocks_0_fc_intra_bias_to_fp16"), val = tensor<fp16, [64]>(BLOBFILE(path = string("@model_path/weights/weight.bin"), offset = uint64(48896)))];
            tensor<fp16, [1, 8, 128]> input_33_cast_fp16 = transpose(perm = input_33_perm_0, x = input_33_tmp_cast_fp16)[name = string("transpose_34")];
            tensor<fp16, [1, 8, 64]> linear_24_cast_fp16 = linear(bias = net_enc_dprnn_erb_blocks_0_fc_intra_bias_to_fp16, weight = net_enc_dprnn_erb_blocks_0_fc_intra_weight_to_fp16_palettized, x = input_33_cast_fp16)[name = string("linear_24_cast_fp16")];
            tensor<int32, [1]> x_intra_1_axes_0 = const()[name = string("x_intra_1_axes_0"), val = tensor<int32, [1]>([-1])];
            tensor<fp16, [64]> net_enc_dprnn_erb_blocks_0_ln_intra_weight_to_fp16 = const()[name = string("net_enc_dprnn_erb_blocks_0_ln_intra_weight_to_fp16"), val = tensor<fp16, [64]>(BLOBFILE(path = string("@model_path/weights/weight.bin"), offset = uint64(49088)))];
            tensor<fp16, [64]> net_enc_dprnn_erb_blocks_0_ln_intra_bias_to_fp16 = const()[name = string("net_enc_dprnn_erb_blocks_0_ln_intra_bias_to_fp16"), val = tensor<fp16, [64]>(BLOBFILE(path = string("@model_path/weights/weight.bin"), offset = uint64(49280)))];
            fp16 var_27_to_fp16 = const()[name = string("op_27_to_fp16"), val = fp16(0x1.5p-17)];
            tensor<fp16, [1, 8, 64]> x_intra_1_cast_fp16 = layer_norm(axes = x_intra_1_axes_0, beta = net_enc_dprnn_erb_blocks_0_ln_intra_bias_to_fp16, epsilon = var_27_to_fp16, gamma = net_enc_dprnn_erb_blocks_0_ln_intra_weight_to_fp16, x = linear_24_cast_fp16)[name = string("x_intra_1_cast_fp16")];
            tensor<int32, [3]> var_256 = const()[name = string("op_256"), val = tensor<int32, [3]>([0, 2, 1])];
            tensor<int32, [1]> x_intra_3_axes_0 = const()[name = string("x_intra_3_axes_0"), val = tensor<int32, [1]>([2])];
            tensor<fp16, [1, 64, 8]> var_257_cast_fp16 = transpose(perm = var_256, x = x_intra_1_cast_fp16)[name = string("transpose_33")];
            tensor<fp16, [1, 64, 1, 8]> x_intra_3_cast_fp16 = expand_dims(axes = x_intra_3_axes_0, x = var_257_cast_fp16)[name = string("x_intra_3_cast_fp16")];
            tensor<fp16, [1, 64, 1, 8]> x_11_cast_fp16 = add(x = inputs_1_cast_fp16, y = x_intra_3_cast_fp16)[name = string("x_11_cast_fp16")];
            tensor<int32, [1]> var_260_axes_0 = const()[name = string("op_260_axes_0"), val = tensor<int32, [1]>([0])];
            tensor<fp16, [64, 1, 8]> var_260_cast_fp16 = squeeze(axes = var_260_axes_0, x = x_11_cast_fp16)[name = string("op_260_cast_fp16")];
            tensor<int32, [1]> var_261_axes_0 = const()[name = string("op_261_axes_0"), val = tensor<int32, [1]>([1])];
            tensor<fp16, [64, 8]> var_261_cast_fp16 = squeeze(axes = var_261_axes_0, x = var_260_cast_fp16)[name = string("op_261_cast_fp16")];
            tensor<int32, [2]> var_262 = const()[name = string("op_262"), val = tensor<int32, [2]>([1, 0])];
            tensor<int32, [1]> h_flat_1_begin_0 = const()[name = string("h_flat_1_begin_0"), val = tensor<int32, [1]>([224])];
            tensor<int32, [1]> h_flat_1_end_0 = const()[name = string("h_flat_1_end_0"), val = tensor<int32, [1]>([736])];
            tensor<bool, [1]> h_flat_1_end_mask_0 = const()[name = string("h_flat_1_end_mask_0"), val = tensor<bool, [1]>([false])];
            tensor<fp16, [512]> h_flat_1_cast_fp16 = slice_by_index(begin = h_flat_1_begin_0, end = h_flat_1_end_0, end_mask = h_flat_1_end_mask_0, x = read_state_0)[name = string("h_flat_1_cast_fp16")];
            tensor<int32, [2]> var_273 = const()[name = string("op_273"), val = tensor<int32, [2]>([8, 64])];
            tensor<fp16, [8, 64]> h_1_cast_fp16 = reshape(shape = var_273, x = h_flat_1_cast_fp16)[name = string("h_1_cast_fp16")];
            tensor<fp16, [192, 64]> net_enc_dprnn_erb_blocks_0_inter_gru_grucell_weight_ih_to_fp16_palettized = constexpr_lut_to_dense(indices = tensor<uint4, [192, 64]>(BLOBFILE(path = string("@model_path/weights/weight.bin"), offset = uint64(49472))), lut = tensor<fp16, [1, 1, 16, 1]>(BLOBFILE(path = string("@model_path/weights/weight.bin"), offset = uint64(55680))))[name = string("net_enc_dprnn_erb_blocks_0_inter_gru_grucell_weight_ih_to_fp16_palettized")];
            tensor<fp16, [192]> net_enc_dprnn_erb_blocks_0_inter_gru_grucell_bias_ih_to_fp16 = const()[name = string("net_enc_dprnn_erb_blocks_0_inter_gru_grucell_bias_ih_to_fp16"), val = tensor<fp16, [192]>(BLOBFILE(path = string("@model_path/weights/weight.bin"), offset = uint64(55808)))];
            tensor<fp16, [8, 64]> x_13_cast_fp16 = transpose(perm = var_262, x = var_261_cast_fp16)[name = string("transpose_32")];
            tensor<fp16, [8, 192]> linear_25_cast_fp16 = linear(bias = net_enc_dprnn_erb_blocks_0_inter_gru_grucell_bias_ih_to_fp16, weight = net_enc_dprnn_erb_blocks_0_inter_gru_grucell_weight_ih_to_fp16_palettized, x = x_13_cast_fp16)[name = string("linear_25_cast_fp16")];
            tensor<fp16, [192, 64]> net_enc_dprnn_erb_blocks_0_inter_gru_grucell_weight_hh_to_fp16_palettized = constexpr_lut_to_dense(indices = tensor<uint4, [192, 64]>(BLOBFILE(path = string("@model_path/weights/weight.bin"), offset = uint64(56256))), lut = tensor<fp16, [1, 1, 16, 1]>(BLOBFILE(path = string("@model_path/weights/weight.bin"), offset = uint64(62464))))[name = string("net_enc_dprnn_erb_blocks_0_inter_gru_grucell_weight_hh_to_fp16_palettized")];
            tensor<fp16, [192]> net_enc_dprnn_erb_blocks_0_inter_gru_grucell_bias_hh_to_fp16 = const()[name = string("net_enc_dprnn_erb_blocks_0_inter_gru_grucell_bias_hh_to_fp16"), val = tensor<fp16, [192]>(BLOBFILE(path = string("@model_path/weights/weight.bin"), offset = uint64(62592)))];
            tensor<fp16, [8, 192]> linear_26_cast_fp16 = linear(bias = net_enc_dprnn_erb_blocks_0_inter_gru_grucell_bias_hh_to_fp16, weight = net_enc_dprnn_erb_blocks_0_inter_gru_grucell_weight_hh_to_fp16_palettized, x = h_1_cast_fp16)[name = string("linear_26_cast_fp16")];
            tensor<int32, [2]> var_277_begin_0 = const()[name = string("op_277_begin_0"), val = tensor<int32, [2]>([0, 0])];
            tensor<int32, [2]> var_277_end_0 = const()[name = string("op_277_end_0"), val = tensor<int32, [2]>([8, 64])];
            tensor<fp16, [8, 64]> var_277_cast_fp16 = slice_by_index(begin = var_277_begin_0, end = var_277_end_0, x = linear_25_cast_fp16)[name = string("op_277_cast_fp16")];
            tensor<int32, [2]> var_278_begin_0 = const()[name = string("op_278_begin_0"), val = tensor<int32, [2]>([0, 0])];
            tensor<int32, [2]> var_278_end_0 = const()[name = string("op_278_end_0"), val = tensor<int32, [2]>([8, 64])];
            tensor<fp16, [8, 64]> var_278_cast_fp16 = slice_by_index(begin = var_278_begin_0, end = var_278_end_0, x = linear_26_cast_fp16)[name = string("op_278_cast_fp16")];
            tensor<fp16, [8, 64]> var_279_cast_fp16 = add(x = var_277_cast_fp16, y = var_278_cast_fp16)[name = string("op_279_cast_fp16")];
            tensor<fp16, [8, 64]> r_1_cast_fp16 = sigmoid(x = var_279_cast_fp16)[name = string("r_1_cast_fp16")];
            tensor<int32, [2]> var_281_begin_0 = const()[name = string("op_281_begin_0"), val = tensor<int32, [2]>([0, 64])];
            tensor<int32, [2]> var_281_end_0 = const()[name = string("op_281_end_0"), val = tensor<int32, [2]>([8, 128])];
            tensor<fp16, [8, 64]> var_281_cast_fp16 = slice_by_index(begin = var_281_begin_0, end = var_281_end_0, x = linear_25_cast_fp16)[name = string("op_281_cast_fp16")];
            tensor<int32, [2]> var_282_begin_0 = const()[name = string("op_282_begin_0"), val = tensor<int32, [2]>([0, 64])];
            tensor<int32, [2]> var_282_end_0 = const()[name = string("op_282_end_0"), val = tensor<int32, [2]>([8, 128])];
            tensor<fp16, [8, 64]> var_282_cast_fp16 = slice_by_index(begin = var_282_begin_0, end = var_282_end_0, x = linear_26_cast_fp16)[name = string("op_282_cast_fp16")];
            tensor<fp16, [8, 64]> var_283_cast_fp16 = add(x = var_281_cast_fp16, y = var_282_cast_fp16)[name = string("op_283_cast_fp16")];
            tensor<fp16, [8, 64]> z_1_cast_fp16 = sigmoid(x = var_283_cast_fp16)[name = string("z_1_cast_fp16")];
            tensor<int32, [2]> var_285_begin_0 = const()[name = string("op_285_begin_0"), val = tensor<int32, [2]>([0, 128])];
            tensor<int32, [2]> var_285_end_0 = const()[name = string("op_285_end_0"), val = tensor<int32, [2]>([8, 192])];
            tensor<fp16, [8, 64]> var_285_cast_fp16 = slice_by_index(begin = var_285_begin_0, end = var_285_end_0, x = linear_25_cast_fp16)[name = string("op_285_cast_fp16")];
            tensor<int32, [2]> var_286_begin_0 = const()[name = string("op_286_begin_0"), val = tensor<int32, [2]>([0, 128])];
            tensor<int32, [2]> var_286_end_0 = const()[name = string("op_286_end_0"), val = tensor<int32, [2]>([8, 192])];
            tensor<fp16, [8, 64]> var_286_cast_fp16 = slice_by_index(begin = var_286_begin_0, end = var_286_end_0, x = linear_26_cast_fp16)[name = string("op_286_cast_fp16")];
            tensor<fp16, [8, 64]> var_287_cast_fp16 = mul(x = r_1_cast_fp16, y = var_286_cast_fp16)[name = string("op_287_cast_fp16")];
            tensor<fp16, [8, 64]> var_288_cast_fp16 = add(x = var_285_cast_fp16, y = var_287_cast_fp16)[name = string("op_288_cast_fp16")];
            tensor<fp16, [8, 64]> n_1_cast_fp16 = tanh(x = var_288_cast_fp16)[name = string("n_1_cast_fp16")];
            fp16 var_34_to_fp16 = const()[name = string("op_34_to_fp16"), val = fp16(0x1p+0)];
            tensor<fp16, [8, 64]> var_290_cast_fp16 = sub(x = var_34_to_fp16, y = z_1_cast_fp16)[name = string("op_290_cast_fp16")];
            tensor<fp16, [8, 64]> var_291_cast_fp16 = mul(x = var_290_cast_fp16, y = n_1_cast_fp16)[name = string("op_291_cast_fp16")];
            tensor<fp16, [8, 64]> var_292_cast_fp16 = mul(x = z_1_cast_fp16, y = h_1_cast_fp16)[name = string("op_292_cast_fp16")];
            tensor<fp16, [8, 64]> y_1_cast_fp16 = add(x = var_291_cast_fp16, y = var_292_cast_fp16)[name = string("y_1_cast_fp16")];
            tensor<int32, [1]> var_294 = const()[name = string("op_294"), val = tensor<int32, [1]>([-1])];
            tensor<fp16, [512]> var_295_cast_fp16 = reshape(shape = var_294, x = y_1_cast_fp16)[name = string("op_295_cast_fp16")];
            tensor<fp16, [64, 64]> net_enc_dprnn_erb_blocks_0_fc_inter_weight_to_fp16_palettized = constexpr_lut_to_dense(indices = tensor<uint4, [64, 64]>(BLOBFILE(path = string("@model_path/weights/weight.bin"), offset = uint64(63040))), lut = tensor<fp16, [1, 1, 16, 1]>(BLOBFILE(path = string("@model_path/weights/weight.bin"), offset = uint64(65152))))[name = string("net_enc_dprnn_erb_blocks_0_fc_inter_weight_to_fp16_palettized")];
            tensor<fp16, [64]> net_enc_dprnn_erb_blocks_0_fc_inter_bias_to_fp16 = const()[name = string("net_enc_dprnn_erb_blocks_0_fc_inter_bias_to_fp16"), val = tensor<fp16, [64]>(BLOBFILE(path = string("@model_path/weights/weight.bin"), offset = uint64(65280)))];
            tensor<fp16, [8, 64]> linear_27_cast_fp16 = linear(bias = net_enc_dprnn_erb_blocks_0_fc_inter_bias_to_fp16, weight = net_enc_dprnn_erb_blocks_0_fc_inter_weight_to_fp16_palettized, x = y_1_cast_fp16)[name = string("linear_27_cast_fp16")];
            tensor<int32, [1]> x_inter_1_axes_0 = const()[name = string("x_inter_1_axes_0"), val = tensor<int32, [1]>([-1])];
            tensor<fp16, [64]> net_enc_dprnn_erb_blocks_0_ln_inter_weight_to_fp16 = const()[name = string("net_enc_dprnn_erb_blocks_0_ln_inter_weight_to_fp16"), val = tensor<fp16, [64]>(BLOBFILE(path = string("@model_path/weights/weight.bin"), offset = uint64(65472)))];
            tensor<fp16, [64]> net_enc_dprnn_erb_blocks_0_ln_inter_bias_to_fp16 = const()[name = string("net_enc_dprnn_erb_blocks_0_ln_inter_bias_to_fp16"), val = tensor<fp16, [64]>(BLOBFILE(path = string("@model_path/weights/weight.bin"), offset = uint64(65664)))];
            tensor<fp16, [8, 64]> x_inter_1_cast_fp16 = layer_norm(axes = x_inter_1_axes_0, beta = net_enc_dprnn_erb_blocks_0_ln_inter_bias_to_fp16, epsilon = var_27_to_fp16, gamma = net_enc_dprnn_erb_blocks_0_ln_inter_weight_to_fp16, x = linear_27_cast_fp16)[name = string("x_inter_1_cast_fp16")];
            tensor<int32, [2]> var_306 = const()[name = string("op_306"), val = tensor<int32, [2]>([1, 0])];
            tensor<int32, [1]> var_308_axes_0 = const()[name = string("op_308_axes_0"), val = tensor<int32, [1]>([0])];
            tensor<fp16, [64, 8]> var_307_cast_fp16 = transpose(perm = var_306, x = x_inter_1_cast_fp16)[name = string("transpose_31")];
            tensor<fp16, [1, 64, 8]> var_308_cast_fp16 = expand_dims(axes = var_308_axes_0, x = var_307_cast_fp16)[name = string("op_308_cast_fp16")];
            tensor<int32, [1]> x_inter_3_axes_0 = const()[name = string("x_inter_3_axes_0"), val = tensor<int32, [1]>([2])];
            tensor<fp16, [1, 64, 1, 8]> x_inter_3_cast_fp16 = expand_dims(axes = x_inter_3_axes_0, x = var_308_cast_fp16)[name = string("x_inter_3_cast_fp16")];
            tensor<fp16, [1, 64, 1, 8]> inputs_3_cast_fp16 = add(x = x_11_cast_fp16, y = x_inter_3_cast_fp16)[name = string("inputs_3_cast_fp16")];
            tensor<int32, [1]> var_320_axes_0 = const()[name = string("op_320_axes_0"), val = tensor<int32, [1]>([2])];
            tensor<fp16, [1, 64, 8]> var_320_cast_fp16 = squeeze(axes = var_320_axes_0, x = inputs_3_cast_fp16)[name = string("op_320_cast_fp16")];
            tensor<int32, [3]> transpose_7_perm_0 = const()[name = string("transpose_7_perm_0"), val = tensor<int32, [3]>([2, 0, 1])];
            tensor<int32, [1]> slice_by_index_7 = const()[name = string("slice_by_index_7"), val = tensor<int32, [1]>([8])];
            tensor<int32, [1]> while_loop_2_loop_vars0_0 = const()[name = string("while_loop_2_loop_vars0_0"), val = tensor<int32, [1]>([0])];
            tensor<fp16, [8, 1, 64]> transpose_7_cast_fp16 = transpose(perm = transpose_7_perm_0, x = var_320_cast_fp16)[name = string("transpose_30")];
            tensor<int32, [1]> while_loop_2_0, tensor<fp32, [9, 1, 64]> while_loop_2_1 = while_loop(loop_vars = (while_loop_2_loop_vars0_0, concat_1))[name = string("while_loop_2")]
                (tensor<int32, [1]> while_loop_2_loop_vars0_0_x0_1_1_1, tensor<fp32, [9, 1, 64]> concat_5_x0_1_1_1) {
                    tensor<bool, [1]> less_5 = less(x = while_loop_2_loop_vars0_0_x0_1_1_1, y = slice_by_index_7)[name = string("less_5")];
                } -> (less_5)
                (tensor<int32, [1]> while_loop_2_loop_vars0_0_x0_1_1_1_1, tensor<fp32, [9, 1, 64]> concat_5_x0_1_1_1_1) {
                    int32 gather_10_axis_0 = const()[name = string("gather_10_axis_0"), val = int32(0)];
                    int32 gather_10_batch_dims_0 = const()[name = string("gather_10_batch_dims_0"), val = int32(0)];
                    bool gather_10_validate_indices_0 = const()[name = string("gather_10_validate_indices_0"), val = bool(false)];
                    string while_loop_2_loop_vars0_0_x0_1_to_uint16_dtype_0 = const()[name = string("while_loop_2_loop_vars0_0_x0_1_to_uint16_dtype_0"), val = string("uint16")];
                    tensor<uint16, [1]> while_loop_2_loop_vars0_0_x0_1_to_uint16 = cast(dtype = while_loop_2_loop_vars0_0_x0_1_to_uint16_dtype_0, x = while_loop_2_loop_vars0_0_x0_1_1_1_1)[name = string("cast_24")];
                    tensor<fp16, [1, 1, 64]> gather_10_cast_fp16_cast_uint16 = gather(axis = gather_10_axis_0, batch_dims = gather_10_batch_dims_0, indices = while_loop_2_loop_vars0_0_x0_1_to_uint16, validate_indices = gather_10_validate_indices_0, x = transpose_7_cast_fp16)[name = string("gather_10_cast_fp16_cast_uint16")];
                    int32 gather_11_axis_0 = const()[name = string("gather_11_axis_0"), val = int32(0)];
                    int32 gather_11_batch_dims_0 = const()[name = string("gather_11_batch_dims_0"), val = int32(0)];
                    bool gather_11_validate_indices_0 = const()[name = string("gather_11_validate_indices_0"), val = bool(false)];
                    string concat_5_x0_1_to_fp16_dtype_0 = const()[name = string("concat_5_x0_1_to_fp16_dtype_0"), val = string("fp16")];
                    tensor<fp16, [9, 1, 64]> concat_5_x0_1_to_fp16 = cast(dtype = concat_5_x0_1_to_fp16_dtype_0, x = concat_5_x0_1_1_1_1)[name = string("cast_23")];
                    tensor<fp16, [1, 1, 64]> gather_11_cast_fp16_cast_uint16 = gather(axis = gather_11_axis_0, batch_dims = gather_11_batch_dims_0, indices = while_loop_2_loop_vars0_0_x0_1_to_uint16, validate_indices = gather_11_validate_indices_0, x = concat_5_x0_1_to_fp16)[name = string("gather_11_cast_fp16_cast_uint16")];
                    tensor<int32, [1]> squeeze_10_axes_0 = const()[name = string("squeeze_10_axes_0"), val = tensor<int32, [1]>([0])];
                    tensor<fp16, [1, 64]> squeeze_10_cast_fp16 = squeeze(axes = squeeze_10_axes_0, x = gather_10_cast_fp16_cast_uint16)[name = string("squeeze_10_cast_fp16")];
                    tensor<int32, [1]> squeeze_11_axes_0 = const()[name = string("squeeze_11_axes_0"), val = tensor<int32, [1]>([0])];
                    tensor<fp16, [1, 64]> squeeze_11_cast_fp16 = squeeze(axes = squeeze_11_axes_0, x = gather_11_cast_fp16_cast_uint16)[name = string("squeeze_11_cast_fp16")];
                    tensor<fp16, [64, 64]> linear_34_weight_0_to_fp16_palettized = constexpr_lut_to_dense(indices = tensor<uint4, [64, 64]>(BLOBFILE(path = string("@model_path/weights/weight.bin"), offset = uint64(65856))), lut = tensor<fp16, [1, 1, 16, 1]>(BLOBFILE(path = string("@model_path/weights/weight.bin"), offset = uint64(67968))))[name = string("linear_34_weight_0_to_fp16_palettized")];
                    tensor<fp16, [64]> linear_34_bias_0_to_fp16 = const()[name = string("linear_34_bias_0_to_fp16"), val = tensor<fp16, [64]>(BLOBFILE(path = string("@model_path/weights/weight.bin"), offset = uint64(68096)))];
                    tensor<fp16, [1, 64]> linear_34_cast_fp16 = linear(bias = linear_34_bias_0_to_fp16, weight = linear_34_weight_0_to_fp16_palettized, x = squeeze_10_cast_fp16)[name = string("linear_34_cast_fp16")];
                    tensor<fp16, [64, 64]> linear_35_weight_0_to_fp16_palettized = constexpr_lut_to_dense(indices = tensor<uint4, [64, 64]>(BLOBFILE(path = string("@model_path/weights/weight.bin"), offset = uint64(68288))), lut = tensor<fp16, [1, 1, 16, 1]>(BLOBFILE(path = string("@model_path/weights/weight.bin"), offset = uint64(70400))))[name = string("linear_35_weight_0_to_fp16_palettized")];
                    tensor<fp16, [64]> linear_35_bias_0_to_fp16 = const()[name = string("linear_35_bias_0_to_fp16"), val = tensor<fp16, [64]>(BLOBFILE(path = string("@model_path/weights/weight.bin"), offset = uint64(70528)))];
                    tensor<fp16, [1, 64]> linear_35_cast_fp16 = linear(bias = linear_35_bias_0_to_fp16, weight = linear_35_weight_0_to_fp16_palettized, x = squeeze_11_cast_fp16)[name = string("linear_35_cast_fp16")];
                    tensor<fp16, [1, 64]> add_25_cast_fp16 = add(x = linear_34_cast_fp16, y = linear_35_cast_fp16)[name = string("add_25_cast_fp16")];
                    tensor<fp16, [1, 64]> sigmoid_10_cast_fp16 = sigmoid(x = add_25_cast_fp16)[name = string("sigmoid_10_cast_fp16")];
                    tensor<fp16, [64, 64]> linear_36_weight_0_to_fp16_palettized = constexpr_lut_to_dense(indices = tensor<uint4, [64, 64]>(BLOBFILE(path = string("@model_path/weights/weight.bin"), offset = uint64(70720))), lut = tensor<fp16, [1, 1, 16, 1]>(BLOBFILE(path = string("@model_path/weights/weight.bin"), offset = uint64(72832))))[name = string("linear_36_weight_0_to_fp16_palettized")];
                    tensor<fp16, [64]> linear_36_bias_0_to_fp16 = const()[name = string("linear_36_bias_0_to_fp16"), val = tensor<fp16, [64]>(BLOBFILE(path = string("@model_path/weights/weight.bin"), offset = uint64(72960)))];
                    tensor<fp16, [1, 64]> linear_36_cast_fp16 = linear(bias = linear_36_bias_0_to_fp16, weight = linear_36_weight_0_to_fp16_palettized, x = squeeze_10_cast_fp16)[name = string("linear_36_cast_fp16")];
                    tensor<fp16, [64, 64]> linear_37_weight_0_to_fp16_palettized = constexpr_lut_to_dense(indices = tensor<uint4, [64, 64]>(BLOBFILE(path = string("@model_path/weights/weight.bin"), offset = uint64(73152))), lut = tensor<fp16, [1, 1, 16, 1]>(BLOBFILE(path = string("@model_path/weights/weight.bin"), offset = uint64(75264))))[name = string("linear_37_weight_0_to_fp16_palettized")];
                    tensor<fp16, [64]> linear_37_bias_0_to_fp16 = const()[name = string("linear_37_bias_0_to_fp16"), val = tensor<fp16, [64]>(BLOBFILE(path = string("@model_path/weights/weight.bin"), offset = uint64(75392)))];
                    tensor<fp16, [1, 64]> linear_37_cast_fp16 = linear(bias = linear_37_bias_0_to_fp16, weight = linear_37_weight_0_to_fp16_palettized, x = squeeze_11_cast_fp16)[name = string("linear_37_cast_fp16")];
                    tensor<fp16, [1, 64]> add_26_cast_fp16 = add(x = linear_36_cast_fp16, y = linear_37_cast_fp16)[name = string("add_26_cast_fp16")];
                    tensor<fp16, [1, 64]> sigmoid_11_cast_fp16 = sigmoid(x = add_26_cast_fp16)[name = string("sigmoid_11_cast_fp16")];
                    tensor<fp16, [64, 64]> linear_38_weight_0_to_fp16_palettized = constexpr_lut_to_dense(indices = tensor<uint4, [64, 64]>(BLOBFILE(path = string("@model_path/weights/weight.bin"), offset = uint64(75584))), lut = tensor<fp16, [1, 1, 16, 1]>(BLOBFILE(path = string("@model_path/weights/weight.bin"), offset = uint64(77696))))[name = string("linear_38_weight_0_to_fp16_palettized")];
                    tensor<fp16, [64]> linear_38_bias_0_to_fp16 = const()[name = string("linear_38_bias_0_to_fp16"), val = tensor<fp16, [64]>(BLOBFILE(path = string("@model_path/weights/weight.bin"), offset = uint64(77824)))];
                    tensor<fp16, [1, 64]> linear_38_cast_fp16 = linear(bias = linear_38_bias_0_to_fp16, weight = linear_38_weight_0_to_fp16_palettized, x = squeeze_10_cast_fp16)[name = string("linear_38_cast_fp16")];
                    tensor<fp16, [64, 64]> linear_39_weight_0_to_fp16_palettized = constexpr_lut_to_dense(indices = tensor<uint4, [64, 64]>(BLOBFILE(path = string("@model_path/weights/weight.bin"), offset = uint64(78016))), lut = tensor<fp16, [1, 1, 16, 1]>(BLOBFILE(path = string("@model_path/weights/weight.bin"), offset = uint64(80128))))[name = string("linear_39_weight_0_to_fp16_palettized")];
                    tensor<fp16, [64]> linear_39_bias_0_to_fp16 = const()[name = string("linear_39_bias_0_to_fp16"), val = tensor<fp16, [64]>(BLOBFILE(path = string("@model_path/weights/weight.bin"), offset = uint64(80256)))];
                    tensor<fp16, [1, 64]> linear_39_cast_fp16 = linear(bias = linear_39_bias_0_to_fp16, weight = linear_39_weight_0_to_fp16_palettized, x = squeeze_11_cast_fp16)[name = string("linear_39_cast_fp16")];
                    tensor<fp16, [1, 64]> mul_16_cast_fp16 = mul(x = sigmoid_10_cast_fp16, y = linear_39_cast_fp16)[name = string("mul_16_cast_fp16")];
                    tensor<fp16, [1, 64]> add_27_cast_fp16 = add(x = linear_38_cast_fp16, y = mul_16_cast_fp16)[name = string("add_27_cast_fp16")];
                    tensor<fp16, [1, 64]> tanh_5_cast_fp16 = tanh(x = add_27_cast_fp16)[name = string("tanh_5_cast_fp16")];
                    fp16 sub_5_x_0_to_fp16 = const()[name = string("sub_5_x_0_to_fp16"), val = fp16(0x1p+0)];
                    tensor<fp16, [1, 64]> sub_5_cast_fp16 = sub(x = sub_5_x_0_to_fp16, y = sigmoid_11_cast_fp16)[name = string("sub_5_cast_fp16")];
                    tensor<fp16, [1, 64]> mul_17_cast_fp16 = mul(x = sub_5_cast_fp16, y = tanh_5_cast_fp16)[name = string("mul_17_cast_fp16")];
                    tensor<fp16, [1, 64]> mul_18_cast_fp16 = mul(x = sigmoid_11_cast_fp16, y = squeeze_11_cast_fp16)[name = string("mul_18_cast_fp16")];
                    tensor<fp16, [1, 64]> add_28_cast_fp16 = add(x = mul_17_cast_fp16, y = mul_18_cast_fp16)[name = string("add_28_cast_fp16")];
                    int32 add_29_y_0 = const()[name = string("add_29_y_0"), val = int32(1)];
                    tensor<int32, [1]> add_29 = add(x = while_loop_2_loop_vars0_0_x0_1_1_1_1, y = add_29_y_0)[name = string("add_29")];
                    tensor<int32, [1]> expand_dims_5_axes_0 = const()[name = string("expand_dims_5_axes_0"), val = tensor<int32, [1]>([0])];
                    tensor<fp16, [1, 1, 64]> expand_dims_5_cast_fp16 = expand_dims(axes = expand_dims_5_axes_0, x = add_28_cast_fp16)[name = string("expand_dims_5_cast_fp16")];
                    int32 scatter_5_axis_0 = const()[name = string("scatter_5_axis_0"), val = int32(0)];
                    string scatter_5_mode_0 = const()[name = string("scatter_5_mode_0"), val = string("add")];
                    bool scatter_5_validate_indices_0 = const()[name = string("scatter_5_validate_indices_0"), val = bool(false)];
                    tensor<fp16, [9, 1, 64]> scatter_5_cast_fp16 = scatter(axis = scatter_5_axis_0, data = concat_5_x0_1_to_fp16, indices = add_29, mode = scatter_5_mode_0, updates = expand_dims_5_cast_fp16, validate_indices = scatter_5_validate_indices_0)[name = string("scatter_5_cast_fp16")];
                    string scatter_5_cast_fp16_to_fp32_dtype_0 = const()[name = string("scatter_5_cast_fp16_to_fp32_dtype_0"), val = string("fp32")];
                    tensor<fp32, [9, 1, 64]> scatter_5_cast_fp16_to_fp32 = cast(dtype = scatter_5_cast_fp16_to_fp32_dtype_0, x = scatter_5_cast_fp16)[name = string("cast_22")];
                } -> (add_29, scatter_5_cast_fp16_to_fp32);
            tensor<int32, [3]> input_41_tmp_forward_begin_0 = const()[name = string("input_41_tmp_forward_begin_0"), val = tensor<int32, [3]>([1, 0, 0])];
            tensor<int32, [3]> input_41_tmp_forward_end_0 = const()[name = string("input_41_tmp_forward_end_0"), val = tensor<int32, [3]>([0, 0, 0])];
            tensor<bool, [3]> input_41_tmp_forward_begin_mask_0 = const()[name = string("input_41_tmp_forward_begin_mask_0"), val = tensor<bool, [3]>([false, true, true])];
            tensor<bool, [3]> input_41_tmp_forward_end_mask_0 = const()[name = string("input_41_tmp_forward_end_mask_0"), val = tensor<bool, [3]>([true, true, true])];
            string while_loop_2_1_to_fp16_dtype_0 = const()[name = string("while_loop_2_1_to_fp16_dtype_0"), val = string("fp16")];
            tensor<fp16, [9, 1, 64]> while_loop_2_1_to_fp16 = cast(dtype = while_loop_2_1_to_fp16_dtype_0, x = while_loop_2_1)[name = string("cast_21")];
            tensor<fp16, [8, 1, 64]> input_41_tmp_forward_cast_fp16 = slice_by_index(begin = input_41_tmp_forward_begin_0, begin_mask = input_41_tmp_forward_begin_mask_0, end = input_41_tmp_forward_end_0, end_mask = input_41_tmp_forward_end_mask_0, x = while_loop_2_1_to_fp16)[name = string("input_41_tmp_forward_cast_fp16")];
            tensor<int32, [1]> reverse_1_axes_0 = const()[name = string("reverse_1_axes_0"), val = tensor<int32, [1]>([0])];
            tensor<fp16, [8, 1, 64]> reverse_1_cast_fp16 = reverse(axes = reverse_1_axes_0, x = transpose_7_cast_fp16)[name = string("reverse_1_cast_fp16")];
            tensor<int32, [1]> slice_by_index_10 = const()[name = string("slice_by_index_10"), val = tensor<int32, [1]>([8])];
            tensor<int32, [1]> while_loop_3_loop_vars0_0 = const()[name = string("while_loop_3_loop_vars0_0"), val = tensor<int32, [1]>([0])];
            tensor<int32, [1]> while_loop_3_0, tensor<fp32, [9, 1, 64]> while_loop_3_1 = while_loop(loop_vars = (while_loop_3_loop_vars0_0, concat_1))[name = string("while_loop_3")]
                (tensor<int32, [1]> while_loop_3_loop_vars0_0_x0_1_1_1, tensor<fp32, [9, 1, 64]> concat_7_x0_1_1_1) {
                    tensor<bool, [1]> less_7 = less(x = while_loop_3_loop_vars0_0_x0_1_1_1, y = slice_by_index_10)[name = string("less_7")];
                } -> (less_7)
                (tensor<int32, [1]> while_loop_3_loop_vars0_0_x0_1_1_1_1, tensor<fp32, [9, 1, 64]> concat_7_x0_1_1_1_1) {
                    int32 gather_14_axis_0 = const()[name = string("gather_14_axis_0"), val = int32(0)];
                    int32 gather_14_batch_dims_0 = const()[name = string("gather_14_batch_dims_0"), val = int32(0)];
                    bool gather_14_validate_indices_0 = const()[name = string("gather_14_validate_indices_0"), val = bool(false)];
                    string while_loop_3_loop_vars0_0_x0_1_to_uint16_dtype_0 = const()[name = string("while_loop_3_loop_vars0_0_x0_1_to_uint16_dtype_0"), val = string("uint16")];
                    tensor<uint16, [1]> while_loop_3_loop_vars0_0_x0_1_to_uint16 = cast(dtype = while_loop_3_loop_vars0_0_x0_1_to_uint16_dtype_0, x = while_loop_3_loop_vars0_0_x0_1_1_1_1)[name = string("cast_20")];
                    tensor<fp16, [1, 1, 64]> gather_14_cast_fp16_cast_uint16 = gather(axis = gather_14_axis_0, batch_dims = gather_14_batch_dims_0, indices = while_loop_3_loop_vars0_0_x0_1_to_uint16, validate_indices = gather_14_validate_indices_0, x = reverse_1_cast_fp16)[name = string("gather_14_cast_fp16_cast_uint16")];
                    int32 gather_15_axis_0 = const()[name = string("gather_15_axis_0"), val = int32(0)];
                    int32 gather_15_batch_dims_0 = const()[name = string("gather_15_batch_dims_0"), val = int32(0)];
                    bool gather_15_validate_indices_0 = const()[name = string("gather_15_validate_indices_0"), val = bool(false)];
                    string concat_7_x0_1_to_fp16_dtype_0 = const()[name = string("concat_7_x0_1_to_fp16_dtype_0"), val = string("fp16")];
                    tensor<fp16, [9, 1, 64]> concat_7_x0_1_to_fp16 = cast(dtype = concat_7_x0_1_to_fp16_dtype_0, x = concat_7_x0_1_1_1_1)[name = string("cast_19")];
                    tensor<fp16, [1, 1, 64]> gather_15_cast_fp16_cast_uint16 = gather(axis = gather_15_axis_0, batch_dims = gather_15_batch_dims_0, indices = while_loop_3_loop_vars0_0_x0_1_to_uint16, validate_indices = gather_15_validate_indices_0, x = concat_7_x0_1_to_fp16)[name = string("gather_15_cast_fp16_cast_uint16")];
                    tensor<int32, [1]> squeeze_14_axes_0 = const()[name = string("squeeze_14_axes_0"), val = tensor<int32, [1]>([0])];
                    tensor<fp16, [1, 64]> squeeze_14_cast_fp16 = squeeze(axes = squeeze_14_axes_0, x = gather_14_cast_fp16_cast_uint16)[name = string("squeeze_14_cast_fp16")];
                    tensor<int32, [1]> squeeze_15_axes_0 = const()[name = string("squeeze_15_axes_0"), val = tensor<int32, [1]>([0])];
                    tensor<fp16, [1, 64]> squeeze_15_cast_fp16 = squeeze(axes = squeeze_15_axes_0, x = gather_15_cast_fp16_cast_uint16)[name = string("squeeze_15_cast_fp16")];
                    tensor<fp16, [64, 64]> linear_46_weight_0_to_fp16_palettized = constexpr_lut_to_dense(indices = tensor<uint4, [64, 64]>(BLOBFILE(path = string("@model_path/weights/weight.bin"), offset = uint64(80448))), lut = tensor<fp16, [1, 1, 16, 1]>(BLOBFILE(path = string("@model_path/weights/weight.bin"), offset = uint64(82560))))[name = string("linear_46_weight_0_to_fp16_palettized")];
                    tensor<fp16, [64]> linear_46_bias_0_to_fp16 = const()[name = string("linear_46_bias_0_to_fp16"), val = tensor<fp16, [64]>(BLOBFILE(path = string("@model_path/weights/weight.bin"), offset = uint64(82688)))];
                    tensor<fp16, [1, 64]> linear_46_cast_fp16 = linear(bias = linear_46_bias_0_to_fp16, weight = linear_46_weight_0_to_fp16_palettized, x = squeeze_14_cast_fp16)[name = string("linear_46_cast_fp16")];
                    tensor<fp16, [64, 64]> linear_47_weight_0_to_fp16_palettized = constexpr_lut_to_dense(indices = tensor<uint4, [64, 64]>(BLOBFILE(path = string("@model_path/weights/weight.bin"), offset = uint64(82880))), lut = tensor<fp16, [1, 1, 16, 1]>(BLOBFILE(path = string("@model_path/weights/weight.bin"), offset = uint64(84992))))[name = string("linear_47_weight_0_to_fp16_palettized")];
                    tensor<fp16, [64]> linear_47_bias_0_to_fp16 = const()[name = string("linear_47_bias_0_to_fp16"), val = tensor<fp16, [64]>(BLOBFILE(path = string("@model_path/weights/weight.bin"), offset = uint64(85120)))];
                    tensor<fp16, [1, 64]> linear_47_cast_fp16 = linear(bias = linear_47_bias_0_to_fp16, weight = linear_47_weight_0_to_fp16_palettized, x = squeeze_15_cast_fp16)[name = string("linear_47_cast_fp16")];
                    tensor<fp16, [1, 64]> add_35_cast_fp16 = add(x = linear_46_cast_fp16, y = linear_47_cast_fp16)[name = string("add_35_cast_fp16")];
                    tensor<fp16, [1, 64]> sigmoid_14_cast_fp16 = sigmoid(x = add_35_cast_fp16)[name = string("sigmoid_14_cast_fp16")];
                    tensor<fp16, [64, 64]> linear_48_weight_0_to_fp16_palettized = constexpr_lut_to_dense(indices = tensor<uint4, [64, 64]>(BLOBFILE(path = string("@model_path/weights/weight.bin"), offset = uint64(85312))), lut = tensor<fp16, [1, 1, 16, 1]>(BLOBFILE(path = string("@model_path/weights/weight.bin"), offset = uint64(87424))))[name = string("linear_48_weight_0_to_fp16_palettized")];
                    tensor<fp16, [64]> linear_48_bias_0_to_fp16 = const()[name = string("linear_48_bias_0_to_fp16"), val = tensor<fp16, [64]>(BLOBFILE(path = string("@model_path/weights/weight.bin"), offset = uint64(87552)))];
                    tensor<fp16, [1, 64]> linear_48_cast_fp16 = linear(bias = linear_48_bias_0_to_fp16, weight = linear_48_weight_0_to_fp16_palettized, x = squeeze_14_cast_fp16)[name = string("linear_48_cast_fp16")];
                    tensor<fp16, [64, 64]> linear_49_weight_0_to_fp16_palettized = constexpr_lut_to_dense(indices = tensor<uint4, [64, 64]>(BLOBFILE(path = string("@model_path/weights/weight.bin"), offset = uint64(87744))), lut = tensor<fp16, [1, 1, 16, 1]>(BLOBFILE(path = string("@model_path/weights/weight.bin"), offset = uint64(89856))))[name = string("linear_49_weight_0_to_fp16_palettized")];
                    tensor<fp16, [64]> linear_49_bias_0_to_fp16 = const()[name = string("linear_49_bias_0_to_fp16"), val = tensor<fp16, [64]>(BLOBFILE(path = string("@model_path/weights/weight.bin"), offset = uint64(89984)))];
                    tensor<fp16, [1, 64]> linear_49_cast_fp16 = linear(bias = linear_49_bias_0_to_fp16, weight = linear_49_weight_0_to_fp16_palettized, x = squeeze_15_cast_fp16)[name = string("linear_49_cast_fp16")];
                    tensor<fp16, [1, 64]> add_36_cast_fp16 = add(x = linear_48_cast_fp16, y = linear_49_cast_fp16)[name = string("add_36_cast_fp16")];
                    tensor<fp16, [1, 64]> sigmoid_15_cast_fp16 = sigmoid(x = add_36_cast_fp16)[name = string("sigmoid_15_cast_fp16")];
                    tensor<fp16, [64, 64]> linear_50_weight_0_to_fp16_palettized = constexpr_lut_to_dense(indices = tensor<uint4, [64, 64]>(BLOBFILE(path = string("@model_path/weights/weight.bin"), offset = uint64(90176))), lut = tensor<fp16, [1, 1, 16, 1]>(BLOBFILE(path = string("@model_path/weights/weight.bin"), offset = uint64(92288))))[name = string("linear_50_weight_0_to_fp16_palettized")];
                    tensor<fp16, [64]> linear_50_bias_0_to_fp16 = const()[name = string("linear_50_bias_0_to_fp16"), val = tensor<fp16, [64]>(BLOBFILE(path = string("@model_path/weights/weight.bin"), offset = uint64(92416)))];
                    tensor<fp16, [1, 64]> linear_50_cast_fp16 = linear(bias = linear_50_bias_0_to_fp16, weight = linear_50_weight_0_to_fp16_palettized, x = squeeze_14_cast_fp16)[name = string("linear_50_cast_fp16")];
                    tensor<fp16, [64, 64]> linear_51_weight_0_to_fp16_palettized = constexpr_lut_to_dense(indices = tensor<uint4, [64, 64]>(BLOBFILE(path = string("@model_path/weights/weight.bin"), offset = uint64(92608))), lut = tensor<fp16, [1, 1, 16, 1]>(BLOBFILE(path = string("@model_path/weights/weight.bin"), offset = uint64(94720))))[name = string("linear_51_weight_0_to_fp16_palettized")];
                    tensor<fp16, [64]> linear_51_bias_0_to_fp16 = const()[name = string("linear_51_bias_0_to_fp16"), val = tensor<fp16, [64]>(BLOBFILE(path = string("@model_path/weights/weight.bin"), offset = uint64(94848)))];
                    tensor<fp16, [1, 64]> linear_51_cast_fp16 = linear(bias = linear_51_bias_0_to_fp16, weight = linear_51_weight_0_to_fp16_palettized, x = squeeze_15_cast_fp16)[name = string("linear_51_cast_fp16")];
                    tensor<fp16, [1, 64]> mul_22_cast_fp16 = mul(x = sigmoid_14_cast_fp16, y = linear_51_cast_fp16)[name = string("mul_22_cast_fp16")];
                    tensor<fp16, [1, 64]> add_37_cast_fp16 = add(x = linear_50_cast_fp16, y = mul_22_cast_fp16)[name = string("add_37_cast_fp16")];
                    tensor<fp16, [1, 64]> tanh_7_cast_fp16 = tanh(x = add_37_cast_fp16)[name = string("tanh_7_cast_fp16")];
                    fp16 sub_7_x_0_to_fp16 = const()[name = string("sub_7_x_0_to_fp16"), val = fp16(0x1p+0)];
                    tensor<fp16, [1, 64]> sub_7_cast_fp16 = sub(x = sub_7_x_0_to_fp16, y = sigmoid_15_cast_fp16)[name = string("sub_7_cast_fp16")];
                    tensor<fp16, [1, 64]> mul_23_cast_fp16 = mul(x = sub_7_cast_fp16, y = tanh_7_cast_fp16)[name = string("mul_23_cast_fp16")];
                    tensor<fp16, [1, 64]> mul_24_cast_fp16 = mul(x = sigmoid_15_cast_fp16, y = squeeze_15_cast_fp16)[name = string("mul_24_cast_fp16")];
                    tensor<fp16, [1, 64]> add_38_cast_fp16 = add(x = mul_23_cast_fp16, y = mul_24_cast_fp16)[name = string("add_38_cast_fp16")];
                    int32 add_39_y_0 = const()[name = string("add_39_y_0"), val = int32(1)];
                    tensor<int32, [1]> add_39 = add(x = while_loop_3_loop_vars0_0_x0_1_1_1_1, y = add_39_y_0)[name = string("add_39")];
                    tensor<int32, [1]> expand_dims_7_axes_0 = const()[name = string("expand_dims_7_axes_0"), val = tensor<int32, [1]>([0])];
                    tensor<fp16, [1, 1, 64]> expand_dims_7_cast_fp16 = expand_dims(axes = expand_dims_7_axes_0, x = add_38_cast_fp16)[name = string("expand_dims_7_cast_fp16")];
                    int32 scatter_7_axis_0 = const()[name = string("scatter_7_axis_0"), val = int32(0)];
                    string scatter_7_mode_0 = const()[name = string("scatter_7_mode_0"), val = string("add")];
                    bool scatter_7_validate_indices_0 = const()[name = string("scatter_7_validate_indices_0"), val = bool(false)];
                    tensor<fp16, [9, 1, 64]> scatter_7_cast_fp16 = scatter(axis = scatter_7_axis_0, data = concat_7_x0_1_to_fp16, indices = add_39, mode = scatter_7_mode_0, updates = expand_dims_7_cast_fp16, validate_indices = scatter_7_validate_indices_0)[name = string("scatter_7_cast_fp16")];
                    string scatter_7_cast_fp16_to_fp32_dtype_0 = const()[name = string("scatter_7_cast_fp16_to_fp32_dtype_0"), val = string("fp32")];
                    tensor<fp32, [9, 1, 64]> scatter_7_cast_fp16_to_fp32 = cast(dtype = scatter_7_cast_fp16_to_fp32_dtype_0, x = scatter_7_cast_fp16)[name = string("cast_18")];
                } -> (add_39, scatter_7_cast_fp16_to_fp32);
            tensor<int32, [3]> input_41_tmp_backward_reverse_begin_0 = const()[name = string("input_41_tmp_backward_reverse_begin_0"), val = tensor<int32, [3]>([1, 0, 0])];
            tensor<int32, [3]> input_41_tmp_backward_reverse_end_0 = const()[name = string("input_41_tmp_backward_reverse_end_0"), val = tensor<int32, [3]>([0, 0, 0])];
            tensor<bool, [3]> input_41_tmp_backward_reverse_begin_mask_0 = const()[name = string("input_41_tmp_backward_reverse_begin_mask_0"), val = tensor<bool, [3]>([false, true, true])];
            tensor<bool, [3]> input_41_tmp_backward_reverse_end_mask_0 = const()[name = string("input_41_tmp_backward_reverse_end_mask_0"), val = tensor<bool, [3]>([true, true, true])];
            string while_loop_3_1_to_fp16_dtype_0 = const()[name = string("while_loop_3_1_to_fp16_dtype_0"), val = string("fp16")];
            tensor<fp16, [9, 1, 64]> while_loop_3_1_to_fp16 = cast(dtype = while_loop_3_1_to_fp16_dtype_0, x = while_loop_3_1)[name = string("cast_17")];
            tensor<fp16, [8, 1, 64]> input_41_tmp_backward_reverse_cast_fp16 = slice_by_index(begin = input_41_tmp_backward_reverse_begin_0, begin_mask = input_41_tmp_backward_reverse_begin_mask_0, end = input_41_tmp_backward_reverse_end_0, end_mask = input_41_tmp_backward_reverse_end_mask_0, x = while_loop_3_1_to_fp16)[name = string("input_41_tmp_backward_reverse_cast_fp16")];
            tensor<int32, [1]> input_41_tmp_backward_axes_0 = const()[name = string("input_41_tmp_backward_axes_0"), val = tensor<int32, [1]>([0])];
            tensor<fp16, [8, 1, 64]> input_41_tmp_backward_cast_fp16 = reverse(axes = input_41_tmp_backward_axes_0, x = input_41_tmp_backward_reverse_cast_fp16)[name = string("input_41_tmp_backward_cast_fp16")];
            int32 input_41_tmp_axis_0 = const()[name = string("input_41_tmp_axis_0"), val = int32(2)];
            bool input_41_tmp_interleave_0 = const()[name = string("input_41_tmp_interleave_0"), val = bool(false)];
            tensor<fp16, [8, 1, 128]> input_41_tmp_cast_fp16 = concat(axis = input_41_tmp_axis_0, interleave = input_41_tmp_interleave_0, values = (input_41_tmp_forward_cast_fp16, input_41_tmp_backward_cast_fp16))[name = string("input_41_tmp_cast_fp16")];
            tensor<int32, [3]> input_41_perm_0 = const()[name = string("input_41_perm_0"), val = tensor<int32, [3]>([1, 0, 2])];
            tensor<fp16, [64, 128]> net_enc_dprnn_erb_blocks_1_fc_intra_weight_to_fp16_palettized = constexpr_lut_to_dense(indices = tensor<uint4, [64, 128]>(BLOBFILE(path = string("@model_path/weights/weight.bin"), offset = uint64(95040))), lut = tensor<fp16, [1, 1, 16, 1]>(BLOBFILE(path = string("@model_path/weights/weight.bin"), offset = uint64(99200))))[name = string("net_enc_dprnn_erb_blocks_1_fc_intra_weight_to_fp16_palettized")];
            tensor<fp16, [64]> net_enc_dprnn_erb_blocks_1_fc_intra_bias_to_fp16 = const()[name = string("net_enc_dprnn_erb_blocks_1_fc_intra_bias_to_fp16"), val = tensor<fp16, [64]>(BLOBFILE(path = string("@model_path/weights/weight.bin"), offset = uint64(99328)))];
            tensor<fp16, [1, 8, 128]> input_41_cast_fp16 = transpose(perm = input_41_perm_0, x = input_41_tmp_cast_fp16)[name = string("transpose_29")];
            tensor<fp16, [1, 8, 64]> linear_52_cast_fp16 = linear(bias = net_enc_dprnn_erb_blocks_1_fc_intra_bias_to_fp16, weight = net_enc_dprnn_erb_blocks_1_fc_intra_weight_to_fp16_palettized, x = input_41_cast_fp16)[name = string("linear_52_cast_fp16")];
            tensor<int32, [1]> x_intra_5_axes_0 = const()[name = string("x_intra_5_axes_0"), val = tensor<int32, [1]>([-1])];
            tensor<fp16, [64]> net_enc_dprnn_erb_blocks_1_ln_intra_weight_to_fp16 = const()[name = string("net_enc_dprnn_erb_blocks_1_ln_intra_weight_to_fp16"), val = tensor<fp16, [64]>(BLOBFILE(path = string("@model_path/weights/weight.bin"), offset = uint64(99520)))];
            tensor<fp16, [64]> net_enc_dprnn_erb_blocks_1_ln_intra_bias_to_fp16 = const()[name = string("net_enc_dprnn_erb_blocks_1_ln_intra_bias_to_fp16"), val = tensor<fp16, [64]>(BLOBFILE(path = string("@model_path/weights/weight.bin"), offset = uint64(99712)))];
            tensor<fp16, [1, 8, 64]> x_intra_5_cast_fp16 = layer_norm(axes = x_intra_5_axes_0, beta = net_enc_dprnn_erb_blocks_1_ln_intra_bias_to_fp16, epsilon = var_27_to_fp16, gamma = net_enc_dprnn_erb_blocks_1_ln_intra_weight_to_fp16, x = linear_52_cast_fp16)[name = string("x_intra_5_cast_fp16")];
            tensor<int32, [3]> var_344 = const()[name = string("op_344"), val = tensor<int32, [3]>([0, 2, 1])];
            tensor<int32, [1]> x_intra_7_axes_0 = const()[name = string("x_intra_7_axes_0"), val = tensor<int32, [1]>([2])];
            tensor<fp16, [1, 64, 8]> var_345_cast_fp16 = transpose(perm = var_344, x = x_intra_5_cast_fp16)[name = string("transpose_28")];
            tensor<fp16, [1, 64, 1, 8]> x_intra_7_cast_fp16 = expand_dims(axes = x_intra_7_axes_0, x = var_345_cast_fp16)[name = string("x_intra_7_cast_fp16")];
            tensor<fp16, [1, 64, 1, 8]> x_15_cast_fp16 = add(x = inputs_3_cast_fp16, y = x_intra_7_cast_fp16)[name = string("x_15_cast_fp16")];
            tensor<int32, [1]> var_348_axes_0 = const()[name = string("op_348_axes_0"), val = tensor<int32, [1]>([0])];
            tensor<fp16, [64, 1, 8]> var_348_cast_fp16 = squeeze(axes = var_348_axes_0, x = x_15_cast_fp16)[name = string("op_348_cast_fp16")];
            tensor<int32, [1]> var_349_axes_0 = const()[name = string("op_349_axes_0"), val = tensor<int32, [1]>([1])];
            tensor<fp16, [64, 8]> var_349_cast_fp16 = squeeze(axes = var_349_axes_0, x = var_348_cast_fp16)[name = string("op_349_cast_fp16")];
            tensor<int32, [2]> var_350 = const()[name = string("op_350"), val = tensor<int32, [2]>([1, 0])];
            tensor<int32, [1]> h_flat_3_begin_0 = const()[name = string("h_flat_3_begin_0"), val = tensor<int32, [1]>([736])];
            tensor<int32, [1]> h_flat_3_end_0 = const()[name = string("h_flat_3_end_0"), val = tensor<int32, [1]>([1248])];
            tensor<bool, [1]> h_flat_3_end_mask_0 = const()[name = string("h_flat_3_end_mask_0"), val = tensor<bool, [1]>([false])];
            tensor<fp16, [512]> h_flat_3_cast_fp16 = slice_by_index(begin = h_flat_3_begin_0, end = h_flat_3_end_0, end_mask = h_flat_3_end_mask_0, x = read_state_0)[name = string("h_flat_3_cast_fp16")];
            tensor<int32, [2]> var_361 = const()[name = string("op_361"), val = tensor<int32, [2]>([8, 64])];
            tensor<fp16, [8, 64]> h_3_cast_fp16 = reshape(shape = var_361, x = h_flat_3_cast_fp16)[name = string("h_3_cast_fp16")];
            tensor<fp16, [192, 64]> net_enc_dprnn_erb_blocks_1_inter_gru_grucell_weight_ih_to_fp16_palettized = constexpr_lut_to_dense(indices = tensor<uint4, [192, 64]>(BLOBFILE(path = string("@model_path/weights/weight.bin"), offset = uint64(99904))), lut = tensor<fp16, [1, 1, 16, 1]>(BLOBFILE(path = string("@model_path/weights/weight.bin"), offset = uint64(106112))))[name = string("net_enc_dprnn_erb_blocks_1_inter_gru_grucell_weight_ih_to_fp16_palettized")];
            tensor<fp16, [192]> net_enc_dprnn_erb_blocks_1_inter_gru_grucell_bias_ih_to_fp16 = const()[name = string("net_enc_dprnn_erb_blocks_1_inter_gru_grucell_bias_ih_to_fp16"), val = tensor<fp16, [192]>(BLOBFILE(path = string("@model_path/weights/weight.bin"), offset = uint64(106240)))];
            tensor<fp16, [8, 64]> x_17_cast_fp16 = transpose(perm = var_350, x = var_349_cast_fp16)[name = string("transpose_27")];
            tensor<fp16, [8, 192]> linear_53_cast_fp16 = linear(bias = net_enc_dprnn_erb_blocks_1_inter_gru_grucell_bias_ih_to_fp16, weight = net_enc_dprnn_erb_blocks_1_inter_gru_grucell_weight_ih_to_fp16_palettized, x = x_17_cast_fp16)[name = string("linear_53_cast_fp16")];
            tensor<fp16, [192, 64]> net_enc_dprnn_erb_blocks_1_inter_gru_grucell_weight_hh_to_fp16_palettized = constexpr_lut_to_dense(indices = tensor<uint4, [192, 64]>(BLOBFILE(path = string("@model_path/weights/weight.bin"), offset = uint64(106688))), lut = tensor<fp16, [1, 1, 16, 1]>(BLOBFILE(path = string("@model_path/weights/weight.bin"), offset = uint64(112896))))[name = string("net_enc_dprnn_erb_blocks_1_inter_gru_grucell_weight_hh_to_fp16_palettized")];
            tensor<fp16, [192]> net_enc_dprnn_erb_blocks_1_inter_gru_grucell_bias_hh_to_fp16 = const()[name = string("net_enc_dprnn_erb_blocks_1_inter_gru_grucell_bias_hh_to_fp16"), val = tensor<fp16, [192]>(BLOBFILE(path = string("@model_path/weights/weight.bin"), offset = uint64(113024)))];
            tensor<fp16, [8, 192]> linear_54_cast_fp16 = linear(bias = net_enc_dprnn_erb_blocks_1_inter_gru_grucell_bias_hh_to_fp16, weight = net_enc_dprnn_erb_blocks_1_inter_gru_grucell_weight_hh_to_fp16_palettized, x = h_3_cast_fp16)[name = string("linear_54_cast_fp16")];
            tensor<int32, [2]> var_365_begin_0 = const()[name = string("op_365_begin_0"), val = tensor<int32, [2]>([0, 0])];
            tensor<int32, [2]> var_365_end_0 = const()[name = string("op_365_end_0"), val = tensor<int32, [2]>([8, 64])];
            tensor<fp16, [8, 64]> var_365_cast_fp16 = slice_by_index(begin = var_365_begin_0, end = var_365_end_0, x = linear_53_cast_fp16)[name = string("op_365_cast_fp16")];
            tensor<int32, [2]> var_366_begin_0 = const()[name = string("op_366_begin_0"), val = tensor<int32, [2]>([0, 0])];
            tensor<int32, [2]> var_366_end_0 = const()[name = string("op_366_end_0"), val = tensor<int32, [2]>([8, 64])];
            tensor<fp16, [8, 64]> var_366_cast_fp16 = slice_by_index(begin = var_366_begin_0, end = var_366_end_0, x = linear_54_cast_fp16)[name = string("op_366_cast_fp16")];
            tensor<fp16, [8, 64]> var_367_cast_fp16 = add(x = var_365_cast_fp16, y = var_366_cast_fp16)[name = string("op_367_cast_fp16")];
            tensor<fp16, [8, 64]> r_3_cast_fp16 = sigmoid(x = var_367_cast_fp16)[name = string("r_3_cast_fp16")];
            tensor<int32, [2]> var_369_begin_0 = const()[name = string("op_369_begin_0"), val = tensor<int32, [2]>([0, 64])];
            tensor<int32, [2]> var_369_end_0 = const()[name = string("op_369_end_0"), val = tensor<int32, [2]>([8, 128])];
            tensor<fp16, [8, 64]> var_369_cast_fp16 = slice_by_index(begin = var_369_begin_0, end = var_369_end_0, x = linear_53_cast_fp16)[name = string("op_369_cast_fp16")];
            tensor<int32, [2]> var_370_begin_0 = const()[name = string("op_370_begin_0"), val = tensor<int32, [2]>([0, 64])];
            tensor<int32, [2]> var_370_end_0 = const()[name = string("op_370_end_0"), val = tensor<int32, [2]>([8, 128])];
            tensor<fp16, [8, 64]> var_370_cast_fp16 = slice_by_index(begin = var_370_begin_0, end = var_370_end_0, x = linear_54_cast_fp16)[name = string("op_370_cast_fp16")];
            tensor<fp16, [8, 64]> var_371_cast_fp16 = add(x = var_369_cast_fp16, y = var_370_cast_fp16)[name = string("op_371_cast_fp16")];
            tensor<fp16, [8, 64]> z_3_cast_fp16 = sigmoid(x = var_371_cast_fp16)[name = string("z_3_cast_fp16")];
            tensor<int32, [2]> var_373_begin_0 = const()[name = string("op_373_begin_0"), val = tensor<int32, [2]>([0, 128])];
            tensor<int32, [2]> var_373_end_0 = const()[name = string("op_373_end_0"), val = tensor<int32, [2]>([8, 192])];
            tensor<fp16, [8, 64]> var_373_cast_fp16 = slice_by_index(begin = var_373_begin_0, end = var_373_end_0, x = linear_53_cast_fp16)[name = string("op_373_cast_fp16")];
            tensor<int32, [2]> var_374_begin_0 = const()[name = string("op_374_begin_0"), val = tensor<int32, [2]>([0, 128])];
            tensor<int32, [2]> var_374_end_0 = const()[name = string("op_374_end_0"), val = tensor<int32, [2]>([8, 192])];
            tensor<fp16, [8, 64]> var_374_cast_fp16 = slice_by_index(begin = var_374_begin_0, end = var_374_end_0, x = linear_54_cast_fp16)[name = string("op_374_cast_fp16")];
            tensor<fp16, [8, 64]> var_375_cast_fp16 = mul(x = r_3_cast_fp16, y = var_374_cast_fp16)[name = string("op_375_cast_fp16")];
            tensor<fp16, [8, 64]> var_376_cast_fp16 = add(x = var_373_cast_fp16, y = var_375_cast_fp16)[name = string("op_376_cast_fp16")];
            tensor<fp16, [8, 64]> n_3_cast_fp16 = tanh(x = var_376_cast_fp16)[name = string("n_3_cast_fp16")];
            tensor<fp16, [8, 64]> var_378_cast_fp16 = sub(x = var_34_to_fp16, y = z_3_cast_fp16)[name = string("op_378_cast_fp16")];
            tensor<fp16, [8, 64]> var_379_cast_fp16 = mul(x = var_378_cast_fp16, y = n_3_cast_fp16)[name = string("op_379_cast_fp16")];
            tensor<fp16, [8, 64]> var_380_cast_fp16 = mul(x = z_3_cast_fp16, y = h_3_cast_fp16)[name = string("op_380_cast_fp16")];
            tensor<fp16, [8, 64]> y_3_cast_fp16 = add(x = var_379_cast_fp16, y = var_380_cast_fp16)[name = string("y_3_cast_fp16")];
            tensor<int32, [1]> var_382 = const()[name = string("op_382"), val = tensor<int32, [1]>([-1])];
            tensor<fp16, [512]> block_state_out_1_cast_fp16 = reshape(shape = var_382, x = y_3_cast_fp16)[name = string("block_state_out_1_cast_fp16")];
            tensor<fp16, [64, 64]> net_enc_dprnn_erb_blocks_1_fc_inter_weight_to_fp16_palettized = constexpr_lut_to_dense(indices = tensor<uint4, [64, 64]>(BLOBFILE(path = string("@model_path/weights/weight.bin"), offset = uint64(113472))), lut = tensor<fp16, [1, 1, 16, 1]>(BLOBFILE(path = string("@model_path/weights/weight.bin"), offset = uint64(115584))))[name = string("net_enc_dprnn_erb_blocks_1_fc_inter_weight_to_fp16_palettized")];
            tensor<fp16, [64]> net_enc_dprnn_erb_blocks_1_fc_inter_bias_to_fp16 = const()[name = string("net_enc_dprnn_erb_blocks_1_fc_inter_bias_to_fp16"), val = tensor<fp16, [64]>(BLOBFILE(path = string("@model_path/weights/weight.bin"), offset = uint64(115712)))];
            tensor<fp16, [8, 64]> linear_55_cast_fp16 = linear(bias = net_enc_dprnn_erb_blocks_1_fc_inter_bias_to_fp16, weight = net_enc_dprnn_erb_blocks_1_fc_inter_weight_to_fp16_palettized, x = y_3_cast_fp16)[name = string("linear_55_cast_fp16")];
            tensor<int32, [1]> x_inter_5_axes_0 = const()[name = string("x_inter_5_axes_0"), val = tensor<int32, [1]>([-1])];
            tensor<fp16, [64]> net_enc_dprnn_erb_blocks_1_ln_inter_weight_to_fp16 = const()[name = string("net_enc_dprnn_erb_blocks_1_ln_inter_weight_to_fp16"), val = tensor<fp16, [64]>(BLOBFILE(path = string("@model_path/weights/weight.bin"), offset = uint64(115904)))];
            tensor<fp16, [64]> net_enc_dprnn_erb_blocks_1_ln_inter_bias_to_fp16 = const()[name = string("net_enc_dprnn_erb_blocks_1_ln_inter_bias_to_fp16"), val = tensor<fp16, [64]>(BLOBFILE(path = string("@model_path/weights/weight.bin"), offset = uint64(116096)))];
            tensor<fp16, [8, 64]> x_inter_5_cast_fp16 = layer_norm(axes = x_inter_5_axes_0, beta = net_enc_dprnn_erb_blocks_1_ln_inter_bias_to_fp16, epsilon = var_27_to_fp16, gamma = net_enc_dprnn_erb_blocks_1_ln_inter_weight_to_fp16, x = linear_55_cast_fp16)[name = string("x_inter_5_cast_fp16")];
            tensor<int32, [2]> var_394 = const()[name = string("op_394"), val = tensor<int32, [2]>([1, 0])];
            tensor<int32, [1]> var_396_axes_0 = const()[name = string("op_396_axes_0"), val = tensor<int32, [1]>([0])];
            tensor<fp16, [64, 8]> var_395_cast_fp16 = transpose(perm = var_394, x = x_inter_5_cast_fp16)[name = string("transpose_26")];
            tensor<fp16, [1, 64, 8]> var_396_cast_fp16 = expand_dims(axes = var_396_axes_0, x = var_395_cast_fp16)[name = string("op_396_cast_fp16")];
            tensor<int32, [1]> x_inter_7_axes_0 = const()[name = string("x_inter_7_axes_0"), val = tensor<int32, [1]>([2])];
            tensor<fp16, [1, 64, 1, 8]> x_inter_7_cast_fp16 = expand_dims(axes = x_inter_7_axes_0, x = var_396_cast_fp16)[name = string("x_inter_7_cast_fp16")];
            tensor<fp16, [1, 64, 1, 8]> e3_dprnn_cast_fp16 = add(x = x_15_cast_fp16, y = x_inter_7_cast_fp16)[name = string("e3_dprnn_cast_fp16")];
            bool dprnn_erb_state_out_interleave_0 = const()[name = string("dprnn_erb_state_out_interleave_0"), val = bool(false)];
            tensor<fp16, [1024]> dprnn_erb_state_out_cast_fp16 = concat(axis = var_51, interleave = dprnn_erb_state_out_interleave_0, values = (var_295_cast_fp16, block_state_out_1_cast_fp16))[name = string("dprnn_erb_state_out_cast_fp16")];
            tensor<int32, [1]> buf_flat_3_begin_0 = const()[name = string("buf_flat_3_begin_0"), val = tensor<int32, [1]>([1248])];
            tensor<int32, [1]> buf_flat_3_end_0 = const()[name = string("buf_flat_3_end_0"), val = tensor<int32, [1]>([1824])];
            tensor<bool, [1]> buf_flat_3_end_mask_0 = const()[name = string("buf_flat_3_end_mask_0"), val = tensor<bool, [1]>([false])];
            tensor<fp16, [576]> buf_flat_3_cast_fp16 = slice_by_index(begin = buf_flat_3_begin_0, end = buf_flat_3_end_0, end_mask = buf_flat_3_end_mask_0, x = read_state_0)[name = string("buf_flat_3_cast_fp16")];
            tensor<int32, [4]> var_410 = const()[name = string("op_410"), val = tensor<int32, [4]>([3, 1, 2, 96])];
            tensor<fp16, [3, 1, 2, 96]> buf_3_cast_fp16 = reshape(shape = var_410, x = buf_flat_3_cast_fp16)[name = string("buf_3_cast_fp16")];
            tensor<int32, [4]> var_412_begin_0 = const()[name = string("op_412_begin_0"), val = tensor<int32, [4]>([1, 0, 0, 0])];
            tensor<int32, [4]> var_412_end_0 = const()[name = string("op_412_end_0"), val = tensor<int32, [4]>([3, 1, 2, 96])];
            tensor<bool, [4]> var_412_end_mask_0 = const()[name = string("op_412_end_mask_0"), val = tensor<bool, [4]>([true, true, true, true])];
            tensor<fp16, [2, 1, 2, 96]> var_412_cast_fp16 = slice_by_index(begin = var_412_begin_0, end = var_412_end_0, end_mask = var_412_end_mask_0, x = buf_3_cast_fp16)[name = string("op_412_cast_fp16")];
            bool buf_next_3_interleave_0 = const()[name = string("buf_next_3_interleave_0"), val = bool(false)];
            tensor<fp16, [1, 1, 2, 96]> transpose_5_cast_fp16 = transpose(perm = transpose_5_perm_0, x = feat_spec_cast_fp16)[name = string("transpose_25")];
            tensor<fp16, [3, 1, 2, 96]> buf_next_3_cast_fp16 = concat(axis = var_51, interleave = buf_next_3_interleave_0, values = (var_412_cast_fp16, transpose_5_cast_fp16))[name = string("buf_next_3_cast_fp16")];
            tensor<int32, [4]> var_416 = const()[name = string("op_416"), val = tensor<int32, [4]>([1, 2, 0, 3])];
            tensor<int32, [1]> var_418 = const()[name = string("op_418"), val = tensor<int32, [1]>([-1])];
            tensor<fp16, [576]> df_conv0_state_out_cast_fp16 = reshape(shape = var_418, x = buf_next_3_cast_fp16)[name = string("df_conv0_state_out_cast_fp16")];
            tensor<int32, [2]> var_430_split_sizes_0 = const()[name = string("op_430_split_sizes_0"), val = tensor<int32, [2]>([1, 1])];
            int32 var_430_axis_0 = const()[name = string("op_430_axis_0"), val = int32(1)];
            tensor<fp16, [1, 2, 3, 96]> x_21_cast_fp16 = transpose(perm = var_416, x = buf_next_3_cast_fp16)[name = string("transpose_24")];
            tensor<fp16, [1, 1, 3, 96]> var_430_cast_fp16_0, tensor<fp16, [1, 1, 3, 96]> var_430_cast_fp16_1 = split(axis = var_430_axis_0, split_sizes = var_430_split_sizes_0, x = x_21_cast_fp16)[name = string("op_430_cast_fp16")];
            string var_437_pad_type_0 = const()[name = string("op_437_pad_type_0"), val = string("custom")];
            tensor<int32, [4]> var_437_pad_0 = const()[name = string("op_437_pad_0"), val = tensor<int32, [4]>([0, 0, 1, 1])];
            tensor<int32, [2]> var_437_strides_0 = const()[name = string("op_437_strides_0"), val = tensor<int32, [2]>([1, 1])];
            tensor<int32, [2]> var_437_dilations_0 = const()[name = string("op_437_dilations_0"), val = tensor<int32, [2]>([1, 1])];
            int32 var_437_groups_0 = const()[name = string("op_437_groups_0"), val = int32(1)];
            tensor<fp16, [32, 1, 3, 3]> net_enc_df_conv0_1_convs_0_weight_to_fp16 = const()[name = string("net_enc_df_conv0_1_convs_0_weight_to_fp16"), val = tensor<fp16, [32, 1, 3, 3]>(BLOBFILE(path = string("@model_path/weights/weight.bin"), offset = uint64(116288)))];
            tensor<fp16, [1, 32, 1, 96]> var_437_cast_fp16 = conv(dilations = var_437_dilations_0, groups = var_437_groups_0, pad = var_437_pad_0, pad_type = var_437_pad_type_0, strides = var_437_strides_0, weight = net_enc_df_conv0_1_convs_0_weight_to_fp16, x = var_430_cast_fp16_0)[name = string("op_437_cast_fp16")];
            string var_443_pad_type_0 = const()[name = string("op_443_pad_type_0"), val = string("custom")];
            tensor<int32, [4]> var_443_pad_0 = const()[name = string("op_443_pad_0"), val = tensor<int32, [4]>([0, 0, 1, 1])];
            tensor<int32, [2]> var_443_strides_0 = const()[name = string("op_443_strides_0"), val = tensor<int32, [2]>([1, 1])];
            tensor<int32, [2]> var_443_dilations_0 = const()[name = string("op_443_dilations_0"), val = tensor<int32, [2]>([1, 1])];
            int32 var_443_groups_0 = const()[name = string("op_443_groups_0"), val = int32(1)];
            tensor<fp16, [32, 1, 3, 3]> net_enc_df_conv0_1_convs_1_weight_to_fp16 = const()[name = string("net_enc_df_conv0_1_convs_1_weight_to_fp16"), val = tensor<fp16, [32, 1, 3, 3]>(BLOBFILE(path = string("@model_path/weights/weight.bin"), offset = uint64(116928)))];
            tensor<fp16, [1, 32, 1, 96]> var_443_cast_fp16 = conv(dilations = var_443_dilations_0, groups = var_443_groups_0, pad = var_443_pad_0, pad_type = var_443_pad_type_0, strides = var_443_strides_0, weight = net_enc_df_conv0_1_convs_1_weight_to_fp16, x = var_430_cast_fp16_1)[name = string("op_443_cast_fp16")];
            bool input_51_interleave_0 = const()[name = string("input_51_interleave_0"), val = bool(false)];
            tensor<fp16, [1, 64, 1, 96]> input_51_cast_fp16 = concat(axis = var_52, interleave = input_51_interleave_0, values = (var_437_cast_fp16, var_443_cast_fp16))[name = string("input_51_cast_fp16")];
            string input_53_pad_type_0 = const()[name = string("input_53_pad_type_0"), val = string("valid")];
            tensor<int32, [2]> input_53_strides_0 = const()[name = string("input_53_strides_0"), val = tensor<int32, [2]>([1, 1])];
            tensor<int32, [4]> input_53_pad_0 = const()[name = string("input_53_pad_0"), val = tensor<int32, [4]>([0, 0, 0, 0])];
            tensor<int32, [2]> input_53_dilations_0 = const()[name = string("input_53_dilations_0"), val = tensor<int32, [2]>([1, 1])];
            int32 input_53_groups_0 = const()[name = string("input_53_groups_0"), val = int32(1)];
            tensor<fp16, [64, 64, 1, 1]> const_28_to_fp16_palettized = constexpr_lut_to_dense(indices = tensor<uint4, [64, 64, 1, 1]>(BLOBFILE(path = string("@model_path/weights/weight.bin"), offset = uint64(117568))), lut = tensor<fp16, [1, 1, 1, 1, 16, 1]>(BLOBFILE(path = string("@model_path/weights/weight.bin"), offset = uint64(119680))))[name = string("const_28_to_fp16_palettized")];
            tensor<fp16, [64]> const_29_to_fp16 = const()[name = string("const_29_to_fp16"), val = tensor<fp16, [64]>(BLOBFILE(path = string("@model_path/weights/weight.bin"), offset = uint64(119808)))];
            tensor<fp16, [1, 64, 1, 96]> input_55_cast_fp16 = conv(bias = const_29_to_fp16, dilations = input_53_dilations_0, groups = input_53_groups_0, pad = input_53_pad_0, pad_type = input_53_pad_type_0, strides = input_53_strides_0, weight = const_28_to_fp16_palettized, x = input_51_cast_fp16)[name = string("input_55_cast_fp16")];
            tensor<fp16, [1, 64, 1, 96]> input_57_cast_fp16 = relu(x = input_55_cast_fp16)[name = string("input_57_cast_fp16")];
            string input_59_pad_type_0 = const()[name = string("input_59_pad_type_0"), val = string("custom")];
            tensor<int32, [4]> input_59_pad_0 = const()[name = string("input_59_pad_0"), val = tensor<int32, [4]>([0, 0, 1, 1])];
            tensor<int32, [2]> input_59_strides_0 = const()[name = string("input_59_strides_0"), val = tensor<int32, [2]>([1, 2])];
            int32 input_59_groups_0 = const()[name = string("input_59_groups_0"), val = int32(64)];
            tensor<int32, [2]> input_59_dilations_0 = const()[name = string("input_59_dilations_0"), val = tensor<int32, [2]>([1, 1])];
            tensor<fp16, [64, 1, 1, 3]> net_enc_df_conv1_0_weight_to_fp16 = const()[name = string("net_enc_df_conv1_0_weight_to_fp16"), val = tensor<fp16, [64, 1, 1, 3]>(BLOBFILE(path = string("@model_path/weights/weight.bin"), offset = uint64(120000)))];
            tensor<fp16, [1, 64, 1, 48]> input_59_cast_fp16 = conv(dilations = input_59_dilations_0, groups = input_59_groups_0, pad = input_59_pad_0, pad_type = input_59_pad_type_0, strides = input_59_strides_0, weight = net_enc_df_conv1_0_weight_to_fp16, x = input_57_cast_fp16)[name = string("input_59_cast_fp16")];
            string input_61_pad_type_0 = const()[name = string("input_61_pad_type_0"), val = string("valid")];
            tensor<int32, [2]> input_61_strides_0 = const()[name = string("input_61_strides_0"), val = tensor<int32, [2]>([1, 1])];
            tensor<int32, [4]> input_61_pad_0 = const()[name = string("input_61_pad_0"), val = tensor<int32, [4]>([0, 0, 0, 0])];
            tensor<int32, [2]> input_61_dilations_0 = const()[name = string("input_61_dilations_0"), val = tensor<int32, [2]>([1, 1])];
            int32 input_61_groups_0 = const()[name = string("input_61_groups_0"), val = int32(1)];
            tensor<fp16, [64, 64, 1, 1]> const_30_to_fp16_palettized = constexpr_lut_to_dense(indices = tensor<uint4, [64, 64, 1, 1]>(BLOBFILE(path = string("@model_path/weights/weight.bin"), offset = uint64(120448))), lut = tensor<fp16, [1, 1, 1, 1, 16, 1]>(BLOBFILE(path = string("@model_path/weights/weight.bin"), offset = uint64(122560))))[name = string("const_30_to_fp16_palettized")];
            tensor<fp16, [64]> const_31_to_fp16 = const()[name = string("const_31_to_fp16"), val = tensor<fp16, [64]>(BLOBFILE(path = string("@model_path/weights/weight.bin"), offset = uint64(122688)))];
            tensor<fp16, [1, 64, 1, 48]> input_63_cast_fp16 = conv(bias = const_31_to_fp16, dilations = input_61_dilations_0, groups = input_61_groups_0, pad = input_61_pad_0, pad_type = input_61_pad_type_0, strides = input_61_strides_0, weight = const_30_to_fp16_palettized, x = input_59_cast_fp16)[name = string("input_63_cast_fp16")];
            tensor<fp16, [1, 64, 1, 48]> inputs_5_cast_fp16 = relu(x = input_63_cast_fp16)[name = string("inputs_5_cast_fp16")];
            tensor<int32, [1]> var_489_axes_0 = const()[name = string("op_489_axes_0"), val = tensor<int32, [1]>([2])];
            tensor<fp16, [1, 64, 48]> var_489_cast_fp16 = squeeze(axes = var_489_axes_0, x = inputs_5_cast_fp16)[name = string("op_489_cast_fp16")];
            tensor<int32, [3]> transpose_8_perm_0 = const()[name = string("transpose_8_perm_0"), val = tensor<int32, [3]>([2, 0, 1])];
            tensor<int32, [1]> slice_by_index_13 = const()[name = string("slice_by_index_13"), val = tensor<int32, [1]>([48])];
            tensor<fp32, [49, 1, 64]> concat_9_palettized = constexpr_lut_to_dense(indices = tensor<uint4, [49, 1, 64]>(BLOBFILE(path = string("@model_path/weights/weight.bin"), offset = uint64(122880))), lut = tensor<fp32, [1, 1, 1, 16, 1]>(BLOBFILE(path = string("@model_path/weights/weight.bin"), offset = uint64(124544))))[name = string("concat_9_palettized")];
            tensor<int32, [1]> while_loop_4_loop_vars0_0 = const()[name = string("while_loop_4_loop_vars0_0"), val = tensor<int32, [1]>([0])];
            tensor<fp16, [48, 1, 64]> transpose_8_cast_fp16 = transpose(perm = transpose_8_perm_0, x = var_489_cast_fp16)[name = string("transpose_23")];
            tensor<int32, [1]> while_loop_4_0, tensor<fp32, [49, 1, 64]> while_loop_4_1 = while_loop(loop_vars = (while_loop_4_loop_vars0_0, concat_9_palettized))[name = string("while_loop_4")]
                (tensor<int32, [1]> while_loop_4_loop_vars0_0_x0_1_1_1, tensor<fp32, [49, 1, 64]> concat_9_x0_1_1_1) {
                    tensor<bool, [1]> less_9 = less(x = while_loop_4_loop_vars0_0_x0_1_1_1, y = slice_by_index_13)[name = string("less_9")];
                } -> (less_9)
                (tensor<int32, [1]> while_loop_4_loop_vars0_0_x0_1_1_1_1, tensor<fp32, [49, 1, 64]> concat_9_x0_1_1_1_1) {
                    int32 gather_18_axis_0 = const()[name = string("gather_18_axis_0"), val = int32(0)];
                    int32 gather_18_batch_dims_0 = const()[name = string("gather_18_batch_dims_0"), val = int32(0)];
                    bool gather_18_validate_indices_0 = const()[name = string("gather_18_validate_indices_0"), val = bool(false)];
                    string while_loop_4_loop_vars0_0_x0_1_to_uint16_dtype_0 = const()[name = string("while_loop_4_loop_vars0_0_x0_1_to_uint16_dtype_0"), val = string("uint16")];
                    tensor<uint16, [1]> while_loop_4_loop_vars0_0_x0_1_to_uint16 = cast(dtype = while_loop_4_loop_vars0_0_x0_1_to_uint16_dtype_0, x = while_loop_4_loop_vars0_0_x0_1_1_1_1)[name = string("cast_16")];
                    tensor<fp16, [1, 1, 64]> gather_18_cast_fp16_cast_uint16 = gather(axis = gather_18_axis_0, batch_dims = gather_18_batch_dims_0, indices = while_loop_4_loop_vars0_0_x0_1_to_uint16, validate_indices = gather_18_validate_indices_0, x = transpose_8_cast_fp16)[name = string("gather_18_cast_fp16_cast_uint16")];
                    int32 gather_19_axis_0 = const()[name = string("gather_19_axis_0"), val = int32(0)];
                    int32 gather_19_batch_dims_0 = const()[name = string("gather_19_batch_dims_0"), val = int32(0)];
                    bool gather_19_validate_indices_0 = const()[name = string("gather_19_validate_indices_0"), val = bool(false)];
                    string concat_9_x0_1_to_fp16_dtype_0 = const()[name = string("concat_9_x0_1_to_fp16_dtype_0"), val = string("fp16")];
                    tensor<fp16, [49, 1, 64]> concat_9_x0_1_to_fp16 = cast(dtype = concat_9_x0_1_to_fp16_dtype_0, x = concat_9_x0_1_1_1_1)[name = string("cast_15")];
                    tensor<fp16, [1, 1, 64]> gather_19_cast_fp16_cast_uint16 = gather(axis = gather_19_axis_0, batch_dims = gather_19_batch_dims_0, indices = while_loop_4_loop_vars0_0_x0_1_to_uint16, validate_indices = gather_19_validate_indices_0, x = concat_9_x0_1_to_fp16)[name = string("gather_19_cast_fp16_cast_uint16")];
                    tensor<int32, [1]> squeeze_18_axes_0 = const()[name = string("squeeze_18_axes_0"), val = tensor<int32, [1]>([0])];
                    tensor<fp16, [1, 64]> squeeze_18_cast_fp16 = squeeze(axes = squeeze_18_axes_0, x = gather_18_cast_fp16_cast_uint16)[name = string("squeeze_18_cast_fp16")];
                    tensor<int32, [1]> squeeze_19_axes_0 = const()[name = string("squeeze_19_axes_0"), val = tensor<int32, [1]>([0])];
                    tensor<fp16, [1, 64]> squeeze_19_cast_fp16 = squeeze(axes = squeeze_19_axes_0, x = gather_19_cast_fp16_cast_uint16)[name = string("squeeze_19_cast_fp16")];
                    tensor<fp16, [64, 64]> linear_62_weight_0_to_fp16_palettized = constexpr_lut_to_dense(indices = tensor<uint4, [64, 64]>(BLOBFILE(path = string("@model_path/weights/weight.bin"), offset = uint64(124672))), lut = tensor<fp16, [1, 1, 16, 1]>(BLOBFILE(path = string("@model_path/weights/weight.bin"), offset = uint64(126784))))[name = string("linear_62_weight_0_to_fp16_palettized")];
                    tensor<fp16, [64]> linear_62_bias_0_to_fp16 = const()[name = string("linear_62_bias_0_to_fp16"), val = tensor<fp16, [64]>(BLOBFILE(path = string("@model_path/weights/weight.bin"), offset = uint64(126912)))];
                    tensor<fp16, [1, 64]> linear_62_cast_fp16 = linear(bias = linear_62_bias_0_to_fp16, weight = linear_62_weight_0_to_fp16_palettized, x = squeeze_18_cast_fp16)[name = string("linear_62_cast_fp16")];
                    tensor<fp16, [64, 64]> linear_63_weight_0_to_fp16_palettized = constexpr_lut_to_dense(indices = tensor<uint4, [64, 64]>(BLOBFILE(path = string("@model_path/weights/weight.bin"), offset = uint64(127104))), lut = tensor<fp16, [1, 1, 16, 1]>(BLOBFILE(path = string("@model_path/weights/weight.bin"), offset = uint64(129216))))[name = string("linear_63_weight_0_to_fp16_palettized")];
                    tensor<fp16, [64]> linear_63_bias_0_to_fp16 = const()[name = string("linear_63_bias_0_to_fp16"), val = tensor<fp16, [64]>(BLOBFILE(path = string("@model_path/weights/weight.bin"), offset = uint64(129344)))];
                    tensor<fp16, [1, 64]> linear_63_cast_fp16 = linear(bias = linear_63_bias_0_to_fp16, weight = linear_63_weight_0_to_fp16_palettized, x = squeeze_19_cast_fp16)[name = string("linear_63_cast_fp16")];
                    tensor<fp16, [1, 64]> add_45_cast_fp16 = add(x = linear_62_cast_fp16, y = linear_63_cast_fp16)[name = string("add_45_cast_fp16")];
                    tensor<fp16, [1, 64]> sigmoid_18_cast_fp16 = sigmoid(x = add_45_cast_fp16)[name = string("sigmoid_18_cast_fp16")];
                    tensor<fp16, [64, 64]> linear_64_weight_0_to_fp16_palettized = constexpr_lut_to_dense(indices = tensor<uint4, [64, 64]>(BLOBFILE(path = string("@model_path/weights/weight.bin"), offset = uint64(129536))), lut = tensor<fp16, [1, 1, 16, 1]>(BLOBFILE(path = string("@model_path/weights/weight.bin"), offset = uint64(131648))))[name = string("linear_64_weight_0_to_fp16_palettized")];
                    tensor<fp16, [64]> linear_64_bias_0_to_fp16 = const()[name = string("linear_64_bias_0_to_fp16"), val = tensor<fp16, [64]>(BLOBFILE(path = string("@model_path/weights/weight.bin"), offset = uint64(131776)))];
                    tensor<fp16, [1, 64]> linear_64_cast_fp16 = linear(bias = linear_64_bias_0_to_fp16, weight = linear_64_weight_0_to_fp16_palettized, x = squeeze_18_cast_fp16)[name = string("linear_64_cast_fp16")];
                    tensor<fp16, [64, 64]> linear_65_weight_0_to_fp16_palettized = constexpr_lut_to_dense(indices = tensor<uint4, [64, 64]>(BLOBFILE(path = string("@model_path/weights/weight.bin"), offset = uint64(131968))), lut = tensor<fp16, [1, 1, 16, 1]>(BLOBFILE(path = string("@model_path/weights/weight.bin"), offset = uint64(134080))))[name = string("linear_65_weight_0_to_fp16_palettized")];
                    tensor<fp16, [64]> linear_65_bias_0_to_fp16 = const()[name = string("linear_65_bias_0_to_fp16"), val = tensor<fp16, [64]>(BLOBFILE(path = string("@model_path/weights/weight.bin"), offset = uint64(134208)))];
                    tensor<fp16, [1, 64]> linear_65_cast_fp16 = linear(bias = linear_65_bias_0_to_fp16, weight = linear_65_weight_0_to_fp16_palettized, x = squeeze_19_cast_fp16)[name = string("linear_65_cast_fp16")];
                    tensor<fp16, [1, 64]> add_46_cast_fp16 = add(x = linear_64_cast_fp16, y = linear_65_cast_fp16)[name = string("add_46_cast_fp16")];
                    tensor<fp16, [1, 64]> sigmoid_19_cast_fp16 = sigmoid(x = add_46_cast_fp16)[name = string("sigmoid_19_cast_fp16")];
                    tensor<fp16, [64, 64]> linear_66_weight_0_to_fp16_palettized = constexpr_lut_to_dense(indices = tensor<uint4, [64, 64]>(BLOBFILE(path = string("@model_path/weights/weight.bin"), offset = uint64(134400))), lut = tensor<fp16, [1, 1, 16, 1]>(BLOBFILE(path = string("@model_path/weights/weight.bin"), offset = uint64(136512))))[name = string("linear_66_weight_0_to_fp16_palettized")];
                    tensor<fp16, [64]> linear_66_bias_0_to_fp16 = const()[name = string("linear_66_bias_0_to_fp16"), val = tensor<fp16, [64]>(BLOBFILE(path = string("@model_path/weights/weight.bin"), offset = uint64(136640)))];
                    tensor<fp16, [1, 64]> linear_66_cast_fp16 = linear(bias = linear_66_bias_0_to_fp16, weight = linear_66_weight_0_to_fp16_palettized, x = squeeze_18_cast_fp16)[name = string("linear_66_cast_fp16")];
                    tensor<fp16, [64, 64]> linear_67_weight_0_to_fp16_palettized = constexpr_lut_to_dense(indices = tensor<uint4, [64, 64]>(BLOBFILE(path = string("@model_path/weights/weight.bin"), offset = uint64(136832))), lut = tensor<fp16, [1, 1, 16, 1]>(BLOBFILE(path = string("@model_path/weights/weight.bin"), offset = uint64(138944))))[name = string("linear_67_weight_0_to_fp16_palettized")];
                    tensor<fp16, [64]> linear_67_bias_0_to_fp16 = const()[name = string("linear_67_bias_0_to_fp16"), val = tensor<fp16, [64]>(BLOBFILE(path = string("@model_path/weights/weight.bin"), offset = uint64(139072)))];
                    tensor<fp16, [1, 64]> linear_67_cast_fp16 = linear(bias = linear_67_bias_0_to_fp16, weight = linear_67_weight_0_to_fp16_palettized, x = squeeze_19_cast_fp16)[name = string("linear_67_cast_fp16")];
                    tensor<fp16, [1, 64]> mul_28_cast_fp16 = mul(x = sigmoid_18_cast_fp16, y = linear_67_cast_fp16)[name = string("mul_28_cast_fp16")];
                    tensor<fp16, [1, 64]> add_47_cast_fp16 = add(x = linear_66_cast_fp16, y = mul_28_cast_fp16)[name = string("add_47_cast_fp16")];
                    tensor<fp16, [1, 64]> tanh_9_cast_fp16 = tanh(x = add_47_cast_fp16)[name = string("tanh_9_cast_fp16")];
                    fp16 sub_9_x_0_to_fp16 = const()[name = string("sub_9_x_0_to_fp16"), val = fp16(0x1p+0)];
                    tensor<fp16, [1, 64]> sub_9_cast_fp16 = sub(x = sub_9_x_0_to_fp16, y = sigmoid_19_cast_fp16)[name = string("sub_9_cast_fp16")];
                    tensor<fp16, [1, 64]> mul_29_cast_fp16 = mul(x = sub_9_cast_fp16, y = tanh_9_cast_fp16)[name = string("mul_29_cast_fp16")];
                    tensor<fp16, [1, 64]> mul_30_cast_fp16 = mul(x = sigmoid_19_cast_fp16, y = squeeze_19_cast_fp16)[name = string("mul_30_cast_fp16")];
                    tensor<fp16, [1, 64]> add_48_cast_fp16 = add(x = mul_29_cast_fp16, y = mul_30_cast_fp16)[name = string("add_48_cast_fp16")];
                    int32 add_49_y_0 = const()[name = string("add_49_y_0"), val = int32(1)];
                    tensor<int32, [1]> add_49 = add(x = while_loop_4_loop_vars0_0_x0_1_1_1_1, y = add_49_y_0)[name = string("add_49")];
                    tensor<int32, [1]> expand_dims_9_axes_0 = const()[name = string("expand_dims_9_axes_0"), val = tensor<int32, [1]>([0])];
                    tensor<fp16, [1, 1, 64]> expand_dims_9_cast_fp16 = expand_dims(axes = expand_dims_9_axes_0, x = add_48_cast_fp16)[name = string("expand_dims_9_cast_fp16")];
                    int32 scatter_9_axis_0 = const()[name = string("scatter_9_axis_0"), val = int32(0)];
                    string scatter_9_mode_0 = const()[name = string("scatter_9_mode_0"), val = string("add")];
                    bool scatter_9_validate_indices_0 = const()[name = string("scatter_9_validate_indices_0"), val = bool(false)];
                    tensor<fp16, [49, 1, 64]> scatter_9_cast_fp16 = scatter(axis = scatter_9_axis_0, data = concat_9_x0_1_to_fp16, indices = add_49, mode = scatter_9_mode_0, updates = expand_dims_9_cast_fp16, validate_indices = scatter_9_validate_indices_0)[name = string("scatter_9_cast_fp16")];
                    string scatter_9_cast_fp16_to_fp32_dtype_0 = const()[name = string("scatter_9_cast_fp16_to_fp32_dtype_0"), val = string("fp32")];
                    tensor<fp32, [49, 1, 64]> scatter_9_cast_fp16_to_fp32 = cast(dtype = scatter_9_cast_fp16_to_fp32_dtype_0, x = scatter_9_cast_fp16)[name = string("cast_14")];
                } -> (add_49, scatter_9_cast_fp16_to_fp32);
            tensor<int32, [3]> input_67_tmp_forward_begin_0 = const()[name = string("input_67_tmp_forward_begin_0"), val = tensor<int32, [3]>([1, 0, 0])];
            tensor<int32, [3]> input_67_tmp_forward_end_0 = const()[name = string("input_67_tmp_forward_end_0"), val = tensor<int32, [3]>([0, 0, 0])];
            tensor<bool, [3]> input_67_tmp_forward_begin_mask_0 = const()[name = string("input_67_tmp_forward_begin_mask_0"), val = tensor<bool, [3]>([false, true, true])];
            tensor<bool, [3]> input_67_tmp_forward_end_mask_0 = const()[name = string("input_67_tmp_forward_end_mask_0"), val = tensor<bool, [3]>([true, true, true])];
            string while_loop_4_1_to_fp16_dtype_0 = const()[name = string("while_loop_4_1_to_fp16_dtype_0"), val = string("fp16")];
            tensor<fp16, [49, 1, 64]> while_loop_4_1_to_fp16 = cast(dtype = while_loop_4_1_to_fp16_dtype_0, x = while_loop_4_1)[name = string("cast_13")];
            tensor<fp16, [48, 1, 64]> input_67_tmp_forward_cast_fp16 = slice_by_index(begin = input_67_tmp_forward_begin_0, begin_mask = input_67_tmp_forward_begin_mask_0, end = input_67_tmp_forward_end_0, end_mask = input_67_tmp_forward_end_mask_0, x = while_loop_4_1_to_fp16)[name = string("input_67_tmp_forward_cast_fp16")];
            tensor<int32, [1]> reverse_2_axes_0 = const()[name = string("reverse_2_axes_0"), val = tensor<int32, [1]>([0])];
            tensor<fp16, [48, 1, 64]> reverse_2_cast_fp16 = reverse(axes = reverse_2_axes_0, x = transpose_8_cast_fp16)[name = string("reverse_2_cast_fp16")];
            tensor<int32, [1]> slice_by_index_16 = const()[name = string("slice_by_index_16"), val = tensor<int32, [1]>([48])];
            tensor<int32, [1]> while_loop_5_loop_vars0_0 = const()[name = string("while_loop_5_loop_vars0_0"), val = tensor<int32, [1]>([0])];
            tensor<int32, [1]> while_loop_5_0, tensor<fp32, [49, 1, 64]> while_loop_5_1 = while_loop(loop_vars = (while_loop_5_loop_vars0_0, concat_9_palettized))[name = string("while_loop_5")]
                (tensor<int32, [1]> while_loop_5_loop_vars0_0_x0_1_1_1, tensor<fp32, [49, 1, 64]> concat_11_x0_1_1_1) {
                    tensor<bool, [1]> less_11 = less(x = while_loop_5_loop_vars0_0_x0_1_1_1, y = slice_by_index_16)[name = string("less_11")];
                } -> (less_11)
                (tensor<int32, [1]> while_loop_5_loop_vars0_0_x0_1_1_1_1, tensor<fp32, [49, 1, 64]> concat_11_x0_1_1_1_1) {
                    int32 gather_22_axis_0 = const()[name = string("gather_22_axis_0"), val = int32(0)];
                    int32 gather_22_batch_dims_0 = const()[name = string("gather_22_batch_dims_0"), val = int32(0)];
                    bool gather_22_validate_indices_0 = const()[name = string("gather_22_validate_indices_0"), val = bool(false)];
                    string while_loop_5_loop_vars0_0_x0_1_to_uint16_dtype_0 = const()[name = string("while_loop_5_loop_vars0_0_x0_1_to_uint16_dtype_0"), val = string("uint16")];
                    tensor<uint16, [1]> while_loop_5_loop_vars0_0_x0_1_to_uint16 = cast(dtype = while_loop_5_loop_vars0_0_x0_1_to_uint16_dtype_0, x = while_loop_5_loop_vars0_0_x0_1_1_1_1)[name = string("cast_12")];
                    tensor<fp16, [1, 1, 64]> gather_22_cast_fp16_cast_uint16 = gather(axis = gather_22_axis_0, batch_dims = gather_22_batch_dims_0, indices = while_loop_5_loop_vars0_0_x0_1_to_uint16, validate_indices = gather_22_validate_indices_0, x = reverse_2_cast_fp16)[name = string("gather_22_cast_fp16_cast_uint16")];
                    int32 gather_23_axis_0 = const()[name = string("gather_23_axis_0"), val = int32(0)];
                    int32 gather_23_batch_dims_0 = const()[name = string("gather_23_batch_dims_0"), val = int32(0)];
                    bool gather_23_validate_indices_0 = const()[name = string("gather_23_validate_indices_0"), val = bool(false)];
                    string concat_11_x0_1_to_fp16_dtype_0 = const()[name = string("concat_11_x0_1_to_fp16_dtype_0"), val = string("fp16")];
                    tensor<fp16, [49, 1, 64]> concat_11_x0_1_to_fp16 = cast(dtype = concat_11_x0_1_to_fp16_dtype_0, x = concat_11_x0_1_1_1_1)[name = string("cast_11")];
                    tensor<fp16, [1, 1, 64]> gather_23_cast_fp16_cast_uint16 = gather(axis = gather_23_axis_0, batch_dims = gather_23_batch_dims_0, indices = while_loop_5_loop_vars0_0_x0_1_to_uint16, validate_indices = gather_23_validate_indices_0, x = concat_11_x0_1_to_fp16)[name = string("gather_23_cast_fp16_cast_uint16")];
                    tensor<int32, [1]> squeeze_22_axes_0 = const()[name = string("squeeze_22_axes_0"), val = tensor<int32, [1]>([0])];
                    tensor<fp16, [1, 64]> squeeze_22_cast_fp16 = squeeze(axes = squeeze_22_axes_0, x = gather_22_cast_fp16_cast_uint16)[name = string("squeeze_22_cast_fp16")];
                    tensor<int32, [1]> squeeze_23_axes_0 = const()[name = string("squeeze_23_axes_0"), val = tensor<int32, [1]>([0])];
                    tensor<fp16, [1, 64]> squeeze_23_cast_fp16 = squeeze(axes = squeeze_23_axes_0, x = gather_23_cast_fp16_cast_uint16)[name = string("squeeze_23_cast_fp16")];
                    tensor<fp16, [64, 64]> linear_74_weight_0_to_fp16_palettized = constexpr_lut_to_dense(indices = tensor<uint4, [64, 64]>(BLOBFILE(path = string("@model_path/weights/weight.bin"), offset = uint64(139264))), lut = tensor<fp16, [1, 1, 16, 1]>(BLOBFILE(path = string("@model_path/weights/weight.bin"), offset = uint64(141376))))[name = string("linear_74_weight_0_to_fp16_palettized")];
                    tensor<fp16, [64]> linear_74_bias_0_to_fp16 = const()[name = string("linear_74_bias_0_to_fp16"), val = tensor<fp16, [64]>(BLOBFILE(path = string("@model_path/weights/weight.bin"), offset = uint64(141504)))];
                    tensor<fp16, [1, 64]> linear_74_cast_fp16 = linear(bias = linear_74_bias_0_to_fp16, weight = linear_74_weight_0_to_fp16_palettized, x = squeeze_22_cast_fp16)[name = string("linear_74_cast_fp16")];
                    tensor<fp16, [64, 64]> linear_75_weight_0_to_fp16_palettized = constexpr_lut_to_dense(indices = tensor<uint4, [64, 64]>(BLOBFILE(path = string("@model_path/weights/weight.bin"), offset = uint64(141696))), lut = tensor<fp16, [1, 1, 16, 1]>(BLOBFILE(path = string("@model_path/weights/weight.bin"), offset = uint64(143808))))[name = string("linear_75_weight_0_to_fp16_palettized")];
                    tensor<fp16, [64]> linear_75_bias_0_to_fp16 = const()[name = string("linear_75_bias_0_to_fp16"), val = tensor<fp16, [64]>(BLOBFILE(path = string("@model_path/weights/weight.bin"), offset = uint64(143936)))];
                    tensor<fp16, [1, 64]> linear_75_cast_fp16 = linear(bias = linear_75_bias_0_to_fp16, weight = linear_75_weight_0_to_fp16_palettized, x = squeeze_23_cast_fp16)[name = string("linear_75_cast_fp16")];
                    tensor<fp16, [1, 64]> add_55_cast_fp16 = add(x = linear_74_cast_fp16, y = linear_75_cast_fp16)[name = string("add_55_cast_fp16")];
                    tensor<fp16, [1, 64]> sigmoid_22_cast_fp16 = sigmoid(x = add_55_cast_fp16)[name = string("sigmoid_22_cast_fp16")];
                    tensor<fp16, [64, 64]> linear_76_weight_0_to_fp16_palettized = constexpr_lut_to_dense(indices = tensor<uint4, [64, 64]>(BLOBFILE(path = string("@model_path/weights/weight.bin"), offset = uint64(144128))), lut = tensor<fp16, [1, 1, 16, 1]>(BLOBFILE(path = string("@model_path/weights/weight.bin"), offset = uint64(146240))))[name = string("linear_76_weight_0_to_fp16_palettized")];
                    tensor<fp16, [64]> linear_76_bias_0_to_fp16 = const()[name = string("linear_76_bias_0_to_fp16"), val = tensor<fp16, [64]>(BLOBFILE(path = string("@model_path/weights/weight.bin"), offset = uint64(146368)))];
                    tensor<fp16, [1, 64]> linear_76_cast_fp16 = linear(bias = linear_76_bias_0_to_fp16, weight = linear_76_weight_0_to_fp16_palettized, x = squeeze_22_cast_fp16)[name = string("linear_76_cast_fp16")];
                    tensor<fp16, [64, 64]> linear_77_weight_0_to_fp16_palettized = constexpr_lut_to_dense(indices = tensor<uint4, [64, 64]>(BLOBFILE(path = string("@model_path/weights/weight.bin"), offset = uint64(146560))), lut = tensor<fp16, [1, 1, 16, 1]>(BLOBFILE(path = string("@model_path/weights/weight.bin"), offset = uint64(148672))))[name = string("linear_77_weight_0_to_fp16_palettized")];
                    tensor<fp16, [64]> linear_77_bias_0_to_fp16 = const()[name = string("linear_77_bias_0_to_fp16"), val = tensor<fp16, [64]>(BLOBFILE(path = string("@model_path/weights/weight.bin"), offset = uint64(148800)))];
                    tensor<fp16, [1, 64]> linear_77_cast_fp16 = linear(bias = linear_77_bias_0_to_fp16, weight = linear_77_weight_0_to_fp16_palettized, x = squeeze_23_cast_fp16)[name = string("linear_77_cast_fp16")];
                    tensor<fp16, [1, 64]> add_56_cast_fp16 = add(x = linear_76_cast_fp16, y = linear_77_cast_fp16)[name = string("add_56_cast_fp16")];
                    tensor<fp16, [1, 64]> sigmoid_23_cast_fp16 = sigmoid(x = add_56_cast_fp16)[name = string("sigmoid_23_cast_fp16")];
                    tensor<fp16, [64, 64]> linear_78_weight_0_to_fp16_palettized = constexpr_lut_to_dense(indices = tensor<uint4, [64, 64]>(BLOBFILE(path = string("@model_path/weights/weight.bin"), offset = uint64(148992))), lut = tensor<fp16, [1, 1, 16, 1]>(BLOBFILE(path = string("@model_path/weights/weight.bin"), offset = uint64(151104))))[name = string("linear_78_weight_0_to_fp16_palettized")];
                    tensor<fp16, [64]> linear_78_bias_0_to_fp16 = const()[name = string("linear_78_bias_0_to_fp16"), val = tensor<fp16, [64]>(BLOBFILE(path = string("@model_path/weights/weight.bin"), offset = uint64(151232)))];
                    tensor<fp16, [1, 64]> linear_78_cast_fp16 = linear(bias = linear_78_bias_0_to_fp16, weight = linear_78_weight_0_to_fp16_palettized, x = squeeze_22_cast_fp16)[name = string("linear_78_cast_fp16")];
                    tensor<fp16, [64, 64]> linear_79_weight_0_to_fp16_palettized = constexpr_lut_to_dense(indices = tensor<uint4, [64, 64]>(BLOBFILE(path = string("@model_path/weights/weight.bin"), offset = uint64(151424))), lut = tensor<fp16, [1, 1, 16, 1]>(BLOBFILE(path = string("@model_path/weights/weight.bin"), offset = uint64(153536))))[name = string("linear_79_weight_0_to_fp16_palettized")];
                    tensor<fp16, [64]> linear_79_bias_0_to_fp16 = const()[name = string("linear_79_bias_0_to_fp16"), val = tensor<fp16, [64]>(BLOBFILE(path = string("@model_path/weights/weight.bin"), offset = uint64(153664)))];
                    tensor<fp16, [1, 64]> linear_79_cast_fp16 = linear(bias = linear_79_bias_0_to_fp16, weight = linear_79_weight_0_to_fp16_palettized, x = squeeze_23_cast_fp16)[name = string("linear_79_cast_fp16")];
                    tensor<fp16, [1, 64]> mul_34_cast_fp16 = mul(x = sigmoid_22_cast_fp16, y = linear_79_cast_fp16)[name = string("mul_34_cast_fp16")];
                    tensor<fp16, [1, 64]> add_57_cast_fp16 = add(x = linear_78_cast_fp16, y = mul_34_cast_fp16)[name = string("add_57_cast_fp16")];
                    tensor<fp16, [1, 64]> tanh_11_cast_fp16 = tanh(x = add_57_cast_fp16)[name = string("tanh_11_cast_fp16")];
                    fp16 sub_11_x_0_to_fp16 = const()[name = string("sub_11_x_0_to_fp16"), val = fp16(0x1p+0)];
                    tensor<fp16, [1, 64]> sub_11_cast_fp16 = sub(x = sub_11_x_0_to_fp16, y = sigmoid_23_cast_fp16)[name = string("sub_11_cast_fp16")];
                    tensor<fp16, [1, 64]> mul_35_cast_fp16 = mul(x = sub_11_cast_fp16, y = tanh_11_cast_fp16)[name = string("mul_35_cast_fp16")];
                    tensor<fp16, [1, 64]> mul_36_cast_fp16 = mul(x = sigmoid_23_cast_fp16, y = squeeze_23_cast_fp16)[name = string("mul_36_cast_fp16")];
                    tensor<fp16, [1, 64]> add_58_cast_fp16 = add(x = mul_35_cast_fp16, y = mul_36_cast_fp16)[name = string("add_58_cast_fp16")];
                    int32 add_59_y_0 = const()[name = string("add_59_y_0"), val = int32(1)];
                    tensor<int32, [1]> add_59 = add(x = while_loop_5_loop_vars0_0_x0_1_1_1_1, y = add_59_y_0)[name = string("add_59")];
                    tensor<int32, [1]> expand_dims_11_axes_0 = const()[name = string("expand_dims_11_axes_0"), val = tensor<int32, [1]>([0])];
                    tensor<fp16, [1, 1, 64]> expand_dims_11_cast_fp16 = expand_dims(axes = expand_dims_11_axes_0, x = add_58_cast_fp16)[name = string("expand_dims_11_cast_fp16")];
                    int32 scatter_11_axis_0 = const()[name = string("scatter_11_axis_0"), val = int32(0)];
                    string scatter_11_mode_0 = const()[name = string("scatter_11_mode_0"), val = string("add")];
                    bool scatter_11_validate_indices_0 = const()[name = string("scatter_11_validate_indices_0"), val = bool(false)];
                    tensor<fp16, [49, 1, 64]> scatter_11_cast_fp16 = scatter(axis = scatter_11_axis_0, data = concat_11_x0_1_to_fp16, indices = add_59, mode = scatter_11_mode_0, updates = expand_dims_11_cast_fp16, validate_indices = scatter_11_validate_indices_0)[name = string("scatter_11_cast_fp16")];
                    string scatter_11_cast_fp16_to_fp32_dtype_0 = const()[name = string("scatter_11_cast_fp16_to_fp32_dtype_0"), val = string("fp32")];
                    tensor<fp32, [49, 1, 64]> scatter_11_cast_fp16_to_fp32 = cast(dtype = scatter_11_cast_fp16_to_fp32_dtype_0, x = scatter_11_cast_fp16)[name = string("cast_10")];
                } -> (add_59, scatter_11_cast_fp16_to_fp32);
            tensor<int32, [3]> input_67_tmp_backward_reverse_begin_0 = const()[name = string("input_67_tmp_backward_reverse_begin_0"), val = tensor<int32, [3]>([1, 0, 0])];
            tensor<int32, [3]> input_67_tmp_backward_reverse_end_0 = const()[name = string("input_67_tmp_backward_reverse_end_0"), val = tensor<int32, [3]>([0, 0, 0])];
            tensor<bool, [3]> input_67_tmp_backward_reverse_begin_mask_0 = const()[name = string("input_67_tmp_backward_reverse_begin_mask_0"), val = tensor<bool, [3]>([false, true, true])];
            tensor<bool, [3]> input_67_tmp_backward_reverse_end_mask_0 = const()[name = string("input_67_tmp_backward_reverse_end_mask_0"), val = tensor<bool, [3]>([true, true, true])];
            string while_loop_5_1_to_fp16_dtype_0 = const()[name = string("while_loop_5_1_to_fp16_dtype_0"), val = string("fp16")];
            tensor<fp16, [49, 1, 64]> while_loop_5_1_to_fp16 = cast(dtype = while_loop_5_1_to_fp16_dtype_0, x = while_loop_5_1)[name = string("cast_9")];
            tensor<fp16, [48, 1, 64]> input_67_tmp_backward_reverse_cast_fp16 = slice_by_index(begin = input_67_tmp_backward_reverse_begin_0, begin_mask = input_67_tmp_backward_reverse_begin_mask_0, end = input_67_tmp_backward_reverse_end_0, end_mask = input_67_tmp_backward_reverse_end_mask_0, x = while_loop_5_1_to_fp16)[name = string("input_67_tmp_backward_reverse_cast_fp16")];
            tensor<int32, [1]> input_67_tmp_backward_axes_0 = const()[name = string("input_67_tmp_backward_axes_0"), val = tensor<int32, [1]>([0])];
            tensor<fp16, [48, 1, 64]> input_67_tmp_backward_cast_fp16 = reverse(axes = input_67_tmp_backward_axes_0, x = input_67_tmp_backward_reverse_cast_fp16)[name = string("input_67_tmp_backward_cast_fp16")];
            int32 input_67_tmp_axis_0 = const()[name = string("input_67_tmp_axis_0"), val = int32(2)];
            bool input_67_tmp_interleave_0 = const()[name = string("input_67_tmp_interleave_0"), val = bool(false)];
            tensor<fp16, [48, 1, 128]> input_67_tmp_cast_fp16 = concat(axis = input_67_tmp_axis_0, interleave = input_67_tmp_interleave_0, values = (input_67_tmp_forward_cast_fp16, input_67_tmp_backward_cast_fp16))[name = string("input_67_tmp_cast_fp16")];
            tensor<int32, [3]> input_67_perm_0 = const()[name = string("input_67_perm_0"), val = tensor<int32, [3]>([1, 0, 2])];
            tensor<fp16, [64, 128]> net_enc_dprnn_df_blocks_0_fc_intra_weight_to_fp16_palettized = constexpr_lut_to_dense(indices = tensor<uint4, [64, 128]>(BLOBFILE(path = string("@model_path/weights/weight.bin"), offset = uint64(153856))), lut = tensor<fp16, [1, 1, 16, 1]>(BLOBFILE(path = string("@model_path/weights/weight.bin"), offset = uint64(158016))))[name = string("net_enc_dprnn_df_blocks_0_fc_intra_weight_to_fp16_palettized")];
            tensor<fp16, [64]> net_enc_dprnn_df_blocks_0_fc_intra_bias_to_fp16 = const()[name = string("net_enc_dprnn_df_blocks_0_fc_intra_bias_to_fp16"), val = tensor<fp16, [64]>(BLOBFILE(path = string("@model_path/weights/weight.bin"), offset = uint64(158144)))];
            tensor<fp16, [1, 48, 128]> input_67_cast_fp16 = transpose(perm = input_67_perm_0, x = input_67_tmp_cast_fp16)[name = string("transpose_22")];
            tensor<fp16, [1, 48, 64]> linear_80_cast_fp16 = linear(bias = net_enc_dprnn_df_blocks_0_fc_intra_bias_to_fp16, weight = net_enc_dprnn_df_blocks_0_fc_intra_weight_to_fp16_palettized, x = input_67_cast_fp16)[name = string("linear_80_cast_fp16")];
            tensor<int32, [1]> x_intra_9_axes_0 = const()[name = string("x_intra_9_axes_0"), val = tensor<int32, [1]>([-1])];
            tensor<fp16, [64]> net_enc_dprnn_df_blocks_0_ln_intra_weight_to_fp16 = const()[name = string("net_enc_dprnn_df_blocks_0_ln_intra_weight_to_fp16"), val = tensor<fp16, [64]>(BLOBFILE(path = string("@model_path/weights/weight.bin"), offset = uint64(158336)))];
            tensor<fp16, [64]> net_enc_dprnn_df_blocks_0_ln_intra_bias_to_fp16 = const()[name = string("net_enc_dprnn_df_blocks_0_ln_intra_bias_to_fp16"), val = tensor<fp16, [64]>(BLOBFILE(path = string("@model_path/weights/weight.bin"), offset = uint64(158528)))];
            tensor<fp16, [1, 48, 64]> x_intra_9_cast_fp16 = layer_norm(axes = x_intra_9_axes_0, beta = net_enc_dprnn_df_blocks_0_ln_intra_bias_to_fp16, epsilon = var_27_to_fp16, gamma = net_enc_dprnn_df_blocks_0_ln_intra_weight_to_fp16, x = linear_80_cast_fp16)[name = string("x_intra_9_cast_fp16")];
            tensor<int32, [3]> var_513 = const()[name = string("op_513"), val = tensor<int32, [3]>([0, 2, 1])];
            tensor<int32, [1]> x_intra_11_axes_0 = const()[name = string("x_intra_11_axes_0"), val = tensor<int32, [1]>([2])];
            tensor<fp16, [1, 64, 48]> var_514_cast_fp16 = transpose(perm = var_513, x = x_intra_9_cast_fp16)[name = string("transpose_21")];
…
            tensor<fp16, [256]> h_flat_15_cast_fp16 = slice_by_index(begin = h_flat_15_begin_0, end = h_flat_15_end_0, end_mask = h_flat_15_end_mask_0, x = read_state_0)[name = string("h_flat_15_cast_fp16")];
            tensor<int32, [2]> var_1094 = const()[name = string("op_1094"), val = tensor<int32, [2]>([1, 256])];
            tensor<fp16, [1, 256]> h_15_cast_fp16 = reshape(shape = var_1094, x = h_flat_15_cast_fp16)[name = string("h_15_cast_fp16")];
            tensor<fp16, [768, 256]> net_df_dec_df_gru_gru_0_grucell_weight_ih_to_fp16_palettized = constexpr_lut_to_dense(indices = tensor<uint4, [768, 256]>(BLOBFILE(path = string("@model_path/weights/weight.bin"), offset = uint64(897024))), lut = tensor<fp16, [1, 1, 16, 1]>(BLOBFILE(path = string("@model_path/weights/weight.bin"), offset = uint64(995392))))[name = string("net_df_dec_df_gru_gru_0_grucell_weight_ih_to_fp16_palettized")];
            tensor<fp16, [768]> net_df_dec_df_gru_gru_0_grucell_bias_ih_to_fp16 = const()[name = string("net_df_dec_df_gru_gru_0_grucell_bias_ih_to_fp16"), val = tensor<fp16, [768]>(BLOBFILE(path = string("@model_path/weights/weight.bin"), offset = uint64(995520)))];
            tensor<fp16, [1, 768]> linear_118_cast_fp16 = linear(bias = net_df_dec_df_gru_gru_0_grucell_bias_ih_to_fp16, weight = net_df_dec_df_gru_gru_0_grucell_weight_ih_to_fp16_palettized, x = x_75_cast_fp16)[name = string("linear_118_cast_fp16")];
            tensor<fp16, [768, 256]> net_df_dec_df_gru_gru_0_grucell_weight_hh_to_fp16_palettized = constexpr_lut_to_dense(indices = tensor<uint4, [768, 256]>(BLOBFILE(path = string("@model_path/weights/weight.bin"), offset = uint64(997120))), lut = tensor<fp16, [1, 1, 16, 1]>(BLOBFILE(path = string("@model_path/weights/weight.bin"), offset = uint64(1095488))))[name = string("net_df_dec_df_gru_gru_0_grucell_weight_hh_to_fp16_palettized")];
            tensor<fp16, [768]> net_df_dec_df_gru_gru_0_grucell_bias_hh_to_fp16 = const()[name = string("net_df_dec_df_gru_gru_0_grucell_bias_hh_to_fp16"), val = tensor<fp16, [768]>(BLOBFILE(path = string("@model_path/weights/weight.bin"), offset = uint64(1095616)))];
            tensor<fp16, [1, 768]> linear_119_cast_fp16 = linear(bias = net_df_dec_df_gru_gru_0_grucell_bias_hh_to_fp16, weight = net_df_dec_df_gru_gru_0_grucell_weight_hh_to_fp16_palettized, x = h_15_cast_fp16)[name = string("linear_119_cast_fp16")];
            tensor<int32, [2]> var_1098_begin_0 = const()[name = string("op_1098_begin_0"), val = tensor<int32, [2]>([0, 0])];
            tensor<int32, [2]> var_1098_end_0 = const()[name = string("op_1098_end_0"), val = tensor<int32, [2]>([1, 256])];
            tensor<fp16, [1, 256]> var_1098_cast_fp16 = slice_by_index(begin = var_1098_begin_0, end = var_1098_end_0, x = linear_118_cast_fp16)[name = string("op_1098_cast_fp16")];
            tensor<int32, [2]> var_1099_begin_0 = const()[name = string("op_1099_begin_0"), val = tensor<int32, [2]>([0, 0])];
            tensor<int32, [2]> var_1099_end_0 = const()[name = string("op_1099_end_0"), val = tensor<int32, [2]>([1, 256])];
            tensor<fp16, [1, 256]> var_1099_cast_fp16 = slice_by_index(begin = var_1099_begin_0, end = var_1099_end_0, x = linear_119_cast_fp16)[name = string("op_1099_cast_fp16")];
            tensor<fp16, [1, 256]> var_1100_cast_fp16 = add(x = var_1098_cast_fp16, y = var_1099_cast_fp16)[name = string("op_1100_cast_fp16")];
            tensor<fp16, [1, 256]> r_15_cast_fp16 = sigmoid(x = var_1100_cast_fp16)[name = string("r_15_cast_fp16")];
            tensor<int32, [2]> var_1102_begin_0 = const()[name = string("op_1102_begin_0"), val = tensor<int32, [2]>([0, 256])];
            tensor<int32, [2]> var_1102_end_0 = const()[name = string("op_1102_end_0"), val = tensor<int32, [2]>([1, 512])];
            tensor<fp16, [1, 256]> var_1102_cast_fp16 = slice_by_index(begin = var_1102_begin_0, end = var_1102_end_0, x = linear_118_cast_fp16)[name = string("op_1102_cast_fp16")];
            tensor<int32, [2]> var_1103_begin_0 = const()[name = string("op_1103_begin_0"), val = tensor<int32, [2]>([0, 256])];
            tensor<int32, [2]> var_1103_end_0 = const()[name = string("op_1103_end_0"), val = tensor<int32, [2]>([1, 512])];
            tensor<fp16, [1, 256]> var_1103_cast_fp16 = slice_by_index(begin = var_1103_begin_0, end = var_1103_end_0, x = linear_119_cast_fp16)[name = string("op_1103_cast_fp16")];
            tensor<fp16, [1, 256]> var_1104_cast_fp16 = add(x = var_1102_cast_fp16, y = var_1103_cast_fp16)[name = string("op_1104_cast_fp16")];
            tensor<fp16, [1, 256]> z_15_cast_fp16 = sigmoid(x = var_1104_cast_fp16)[name = string("z_15_cast_fp16")];
            tensor<int32, [2]> var_1106_begin_0 = const()[name = string("op_1106_begin_0"), val = tensor<int32, [2]>([0, 512])];
            tensor<int32, [2]> var_1106_end_0 = const()[name = string("op_1106_end_0"), val = tensor<int32, [2]>([1, 768])];
            tensor<fp16, [1, 256]> var_1106_cast_fp16 = slice_by_index(begin = var_1106_begin_0, end = var_1106_end_0, x = linear_118_cast_fp16)[name = string("op_1106_cast_fp16")];
            tensor<int32, [2]> var_1107_begin_0 = const()[name = string("op_1107_begin_0"), val = tensor<int32, [2]>([0, 512])];
            tensor<int32, [2]> var_1107_end_0 = const()[name = string("op_1107_end_0"), val = tensor<int32, [2]>([1, 768])];
            tensor<fp16, [1, 256]> var_1107_cast_fp16 = slice_by_index(begin = var_1107_begin_0, end = var_1107_end_0, x = linear_119_cast_fp16)[name = string("op_1107_cast_fp16")];
            tensor<fp16, [1, 256]> var_1108_cast_fp16 = mul(x = r_15_cast_fp16, y = var_1107_cast_fp16)[name = string("op_1108_cast_fp16")];
            tensor<fp16, [1, 256]> var_1109_cast_fp16 = add(x = var_1106_cast_fp16, y = var_1108_cast_fp16)[name = string("op_1109_cast_fp16")];
            tensor<fp16, [1, 256]> n_15_cast_fp16 = tanh(x = var_1109_cast_fp16)[name = string("n_15_cast_fp16")];
            tensor<fp16, [1, 256]> var_1111_cast_fp16 = sub(x = var_34_to_fp16, y = z_15_cast_fp16)[name = string("op_1111_cast_fp16")];
            tensor<fp16, [1, 256]> var_1112_cast_fp16 = mul(x = var_1111_cast_fp16, y = n_15_cast_fp16)[name = string("op_1112_cast_fp16")];
            tensor<fp16, [1, 256]> var_1113_cast_fp16 = mul(x = z_15_cast_fp16, y = h_15_cast_fp16)[name = string("op_1113_cast_fp16")];
            tensor<fp16, [1, 256]> y_15_cast_fp16 = add(x = var_1112_cast_fp16, y = var_1113_cast_fp16)[name = string("y_15_cast_fp16")];
            tensor<int32, [1]> var_1115 = const()[name = string("op_1115"), val = tensor<int32, [1]>([-1])];
            tensor<fp16, [256]> var_1116_cast_fp16 = reshape(shape = var_1115, x = y_15_cast_fp16)[name = string("op_1116_cast_fp16")];
            tensor<int32, [1]> h_flat_begin_0 = const()[name = string("h_flat_begin_0"), val = tensor<int32, [1]>([8992])];
            tensor<int32, [1]> h_flat_end_0 = const()[name = string("h_flat_end_0"), val = tensor<int32, [1]>([9248])];
            tensor<bool, [1]> h_flat_end_mask_0 = const()[name = string("h_flat_end_mask_0"), val = tensor<bool, [1]>([false])];
            tensor<fp16, [256]> h_flat_cast_fp16 = slice_by_index(begin = h_flat_begin_0, end = h_flat_end_0, end_mask = h_flat_end_mask_0, x = read_state_0)[name = string("h_flat_cast_fp16")];
            tensor<int32, [2]> var_1129 = const()[name = string("op_1129"), val = tensor<int32, [2]>([1, 256])];
            tensor<fp16, [1, 256]> h_cast_fp16 = reshape(shape = var_1129, x = h_flat_cast_fp16)[name = string("h_cast_fp16")];
            tensor<fp16, [768, 256]> net_df_dec_df_gru_gru_1_grucell_weight_ih_to_fp16_palettized = constexpr_lut_to_dense(indices = tensor<uint4, [768, 256]>(BLOBFILE(path = string("@model_path/weights/weight.bin"), offset = uint64(1097216))), lut = tensor<fp16, [1, 1, 16, 1]>(BLOBFILE(path = string("@model_path/weights/weight.bin"), offset = uint64(1195584))))[name = string("net_df_dec_df_gru_gru_1_grucell_weight_ih_to_fp16_palettized")];
            tensor<fp16, [768]> net_df_dec_df_gru_gru_1_grucell_bias_ih_to_fp16 = const()[name = string("net_df_dec_df_gru_gru_1_grucell_bias_ih_to_fp16"), val = tensor<fp16, [768]>(BLOBFILE(path = string("@model_path/weights/weight.bin"), offset = uint64(1195712)))];
            tensor<fp16, [1, 768]> linear_120_cast_fp16 = linear(bias = net_df_dec_df_gru_gru_1_grucell_bias_ih_to_fp16, weight = net_df_dec_df_gru_gru_1_grucell_weight_ih_to_fp16_palettized, x = y_15_cast_fp16)[name = string("linear_120_cast_fp16")];
            tensor<fp16, [768, 256]> net_df_dec_df_gru_gru_1_grucell_weight_hh_to_fp16_palettized = constexpr_lut_to_dense(indices = tensor<uint4, [768, 256]>(BLOBFILE(path = string("@model_path/weights/weight.bin"), offset = uint64(1197312))), lut = tensor<fp16, [1, 1, 16, 1]>(BLOBFILE(path = string("@model_path/weights/weight.bin"), offset = uint64(1295680))))[name = string("net_df_dec_df_gru_gru_1_grucell_weight_hh_to_fp16_palettized")];
            tensor<fp16, [768]> net_df_dec_df_gru_gru_1_grucell_bias_hh_to_fp16 = const()[name = string("net_df_dec_df_gru_gru_1_grucell_bias_hh_to_fp16"), val = tensor<fp16, [768]>(BLOBFILE(path = string("@model_path/weights/weight.bin"), offset = uint64(1295808)))];
            tensor<fp16, [1, 768]> linear_121_cast_fp16 = linear(bias = net_df_dec_df_gru_gru_1_grucell_bias_hh_to_fp16, weight = net_df_dec_df_gru_gru_1_grucell_weight_hh_to_fp16_palettized, x = h_cast_fp16)[name = string("linear_121_cast_fp16")];
            tensor<int32, [2]> var_1133_begin_0 = const()[name = string("op_1133_begin_0"), val = tensor<int32, [2]>([0, 0])];
            tensor<int32, [2]> var_1133_end_0 = const()[name = string("op_1133_end_0"), val = tensor<int32, [2]>([1, 256])];
            tensor<fp16, [1, 256]> var_1133_cast_fp16 = slice_by_index(begin = var_1133_begin_0, end = var_1133_end_0, x = linear_120_cast_fp16)[name = string("op_1133_cast_fp16")];
            tensor<int32, [2]> var_1134_begin_0 = const()[name = string("op_1134_begin_0"), val = tensor<int32, [2]>([0, 0])];
            tensor<int32, [2]> var_1134_end_0 = const()[name = string("op_1134_end_0"), val = tensor<int32, [2]>([1, 256])];
            tensor<fp16, [1, 256]> var_1134_cast_fp16 = slice_by_index(begin = var_1134_begin_0, end = var_1134_end_0, x = linear_121_cast_fp16)[name = string("op_1134_cast_fp16")];
            tensor<fp16, [1, 256]> var_1135_cast_fp16 = add(x = var_1133_cast_fp16, y = var_1134_cast_fp16)[name = string("op_1135_cast_fp16")];
            tensor<fp16, [1, 256]> r_cast_fp16 = sigmoid(x = var_1135_cast_fp16)[name = string("r_cast_fp16")];
            tensor<int32, [2]> var_1137_begin_0 = const()[name = string("op_1137_begin_0"), val = tensor<int32, [2]>([0, 256])];
            tensor<int32, [2]> var_1137_end_0 = const()[name = string("op_1137_end_0"), val = tensor<int32, [2]>([1, 512])];
            tensor<fp16, [1, 256]> var_1137_cast_fp16 = slice_by_index(begin = var_1137_begin_0, end = var_1137_end_0, x = linear_120_cast_fp16)[name = string("op_1137_cast_fp16")];
            tensor<int32, [2]> var_1138_begin_0 = const()[name = string("op_1138_begin_0"), val = tensor<int32, [2]>([0, 256])];
            tensor<int32, [2]> var_1138_end_0 = const()[name = string("op_1138_end_0"), val = tensor<int32, [2]>([1, 512])];
            tensor<fp16, [1, 256]> var_1138_cast_fp16 = slice_by_index(begin = var_1138_begin_0, end = var_1138_end_0, x = linear_121_cast_fp16)[name = string("op_1138_cast_fp16")];
            tensor<fp16, [1, 256]> var_1139_cast_fp16 = add(x = var_1137_cast_fp16, y = var_1138_cast_fp16)[name = string("op_1139_cast_fp16")];
            tensor<fp16, [1, 256]> z_cast_fp16 = sigmoid(x = var_1139_cast_fp16)[name = string("z_cast_fp16")];
            tensor<int32, [2]> var_1141_begin_0 = const()[name = string("op_1141_begin_0"), val = tensor<int32, [2]>([0, 512])];
            tensor<int32, [2]> var_1141_end_0 = const()[name = string("op_1141_end_0"), val = tensor<int32, [2]>([1, 768])];
            tensor<fp16, [1, 256]> var_1141_cast_fp16 = slice_by_index(begin = var_1141_begin_0, end = var_1141_end_0, x = linear_120_cast_fp16)[name = string("op_1141_cast_fp16")];
            tensor<int32, [2]> var_1142_begin_0 = const()[name = string("op_1142_begin_0"), val = tensor<int32, [2]>([0, 512])];
            tensor<int32, [2]> var_1142_end_0 = const()[name = string("op_1142_end_0"), val = tensor<int32, [2]>([1, 768])];
            tensor<fp16, [1, 256]> var_1142_cast_fp16 = slice_by_index(begin = var_1142_begin_0, end = var_1142_end_0, x = linear_121_cast_fp16)[name = string("op_1142_cast_fp16")];
            tensor<fp16, [1, 256]> var_1143_cast_fp16 = mul(x = r_cast_fp16, y = var_1142_cast_fp16)[name = string("op_1143_cast_fp16")];
            tensor<fp16, [1, 256]> var_1144_cast_fp16 = add(x = var_1141_cast_fp16, y = var_1143_cast_fp16)[name = string("op_1144_cast_fp16")];
            tensor<fp16, [1, 256]> n_cast_fp16 = tanh(x = var_1144_cast_fp16)[name = string("n_cast_fp16")];
            tensor<fp16, [1, 256]> var_1146_cast_fp16 = sub(x = var_34_to_fp16, y = z_cast_fp16)[name = string("op_1146_cast_fp16")];
            tensor<fp16, [1, 256]> var_1147_cast_fp16 = mul(x = var_1146_cast_fp16, y = n_cast_fp16)[name = string("op_1147_cast_fp16")];
            tensor<fp16, [1, 256]> var_1148_cast_fp16 = mul(x = z_cast_fp16, y = h_cast_fp16)[name = string("op_1148_cast_fp16")];
            tensor<fp16, [1, 256]> y_cast_fp16 = add(x = var_1147_cast_fp16, y = var_1148_cast_fp16)[name = string("y_cast_fp16")];
            tensor<int32, [1]> var_1150 = const()[name = string("op_1150"), val = tensor<int32, [1]>([-1])];
            tensor<fp16, [256]> gru_state_out_cast_fp16 = reshape(shape = var_1150, x = y_cast_fp16)[name = string("gru_state_out_cast_fp16")];
            bool df_gru_state_out_interleave_0 = const()[name = string("df_gru_state_out_interleave_0"), val = bool(false)];
            tensor<fp16, [512]> df_gru_state_out_cast_fp16 = concat(axis = var_51, interleave = df_gru_state_out_interleave_0, values = (var_1116_cast_fp16, gru_state_out_cast_fp16))[name = string("df_gru_state_out_cast_fp16")];
            bool var_1166_transpose_x_0 = const()[name = string("op_1166_transpose_x_0"), val = bool(false)];
            bool var_1166_transpose_y_0 = const()[name = string("op_1166_transpose_y_0"), val = bool(false)];
            tensor<fp16, [16, 32, 16]> net_df_dec_df_skip_weight_to_fp16_palettized = constexpr_lut_to_dense(indices = tensor<uint4, [16, 32, 16]>(BLOBFILE(path = string("@model_path/weights/weight.bin"), offset = uint64(1297408))), lut = tensor<fp16, [1, 1, 1, 16, 1]>(BLOBFILE(path = string("@model_path/weights/weight.bin"), offset = uint64(1301568))))[name = string("net_df_dec_df_skip_weight_to_fp16_palettized")];
            tensor<fp16, [1, 16, 1, 16]> var_1166_cast_fp16 = matmul(transpose_x = var_1166_transpose_x_0, transpose_y = var_1166_transpose_y_0, x = var_789_cast_fp16, y = net_df_dec_df_skip_weight_to_fp16_palettized)[name = string("op_1166_cast_fp16")];
            tensor<int32, [1]> x_79_axes_0 = const()[name = string("x_79_axes_0"), val = tensor<int32, [1]>([-2])];
            tensor<fp16, [1, 16, 16]> x_79_cast_fp16 = squeeze(axes = x_79_axes_0, x = var_1166_cast_fp16)[name = string("x_79_cast_fp16")];
            tensor<int32, [2]> var_1168 = const()[name = string("op_1168"), val = tensor<int32, [2]>([1, 256])];
            tensor<fp16, [1, 256]> x_81_cast_fp16 = reshape(shape = var_1168, x = x_79_cast_fp16)[name = string("x_81_cast_fp16")];
            tensor<fp16, [256]> net_df_dec_df_skip_bias_to_fp16 = const()[name = string("net_df_dec_df_skip_bias_to_fp16"), val = tensor<fp16, [256]>(BLOBFILE(path = string("@model_path/weights/weight.bin"), offset = uint64(1301696)))];
            tensor<fp16, [1, 256]> var_1170_cast_fp16 = add(x = x_81_cast_fp16, y = net_df_dec_df_skip_bias_to_fp16)[name = string("op_1170_cast_fp16")];
            tensor<fp16, [1, 256]> x_85_cast_fp16 = add(x = y_cast_fp16, y = var_1170_cast_fp16)[name = string("x_85_cast_fp16")];
            tensor<int32, [4]> var_1172 = const()[name = string("op_1172"), val = tensor<int32, [4]>([2, 0, 1, 3])];
            tensor<int32, [1]> buf_flat_5_begin_0 = const()[name = string("buf_flat_5_begin_0"), val = tensor<int32, [1]>([9248])];
            tensor<int32, [1]> buf_flat_5_end_0 = const()[name = string("buf_flat_5_end_0"), val = tensor<int32, [1]>([39968])];
            tensor<bool, [1]> buf_flat_5_end_mask_0 = const()[name = string("buf_flat_5_end_mask_0"), val = tensor<bool, [1]>([false])];
            tensor<fp16, [30720]> buf_flat_5_cast_fp16 = slice_by_index(begin = buf_flat_5_begin_0, end = buf_flat_5_end_0, end_mask = buf_flat_5_end_mask_0, x = read_state_0)[name = string("buf_flat_5_cast_fp16")];
            tensor<int32, [4]> var_1175 = const()[name = string("op_1175"), val = tensor<int32, [4]>([5, 1, 64, 96])];
            tensor<fp16, [5, 1, 64, 96]> buf_5_cast_fp16 = reshape(shape = var_1175, x = buf_flat_5_cast_fp16)[name = string("buf_5_cast_fp16")];
            tensor<int32, [4]> var_1177_begin_0 = const()[name = string("op_1177_begin_0"), val = tensor<int32, [4]>([1, 0, 0, 0])];
            tensor<int32, [4]> var_1177_end_0 = const()[name = string("op_1177_end_0"), val = tensor<int32, [4]>([5, 1, 64, 96])];
            tensor<bool, [4]> var_1177_end_mask_0 = const()[name = string("op_1177_end_mask_0"), val = tensor<bool, [4]>([true, true, true, true])];
            tensor<fp16, [4, 1, 64, 96]> var_1177_cast_fp16 = slice_by_index(begin = var_1177_begin_0, end = var_1177_end_0, end_mask = var_1177_end_mask_0, x = buf_5_cast_fp16)[name = string("op_1177_cast_fp16")];
            bool buf_next_5_interleave_0 = const()[name = string("buf_next_5_interleave_0"), val = bool(false)];
            tensor<fp16, [1, 1, 64, 96]> x_tf_5_cast_fp16 = transpose(perm = var_1172, x = input_57_cast_fp16)[name = string("transpose_8")];
            tensor<fp16, [5, 1, 64, 96]> buf_next_5_cast_fp16 = concat(axis = var_51, interleave = buf_next_5_interleave_0, values = (var_1177_cast_fp16, x_tf_5_cast_fp16))[name = string("buf_next_5_cast_fp16")];
            tensor<int32, [4]> var_1181 = const()[name = string("op_1181"), val = tensor<int32, [4]>([1, 2, 0, 3])];
            tensor<int32, [1]> var_1183 = const()[name = string("op_1183"), val = tensor<int32, [1]>([-1])];
            tensor<fp16, [30720]> df_convp_state_out_cast_fp16 = reshape(shape = var_1183, x = buf_next_5_cast_fp16)[name = string("df_convp_state_out_cast_fp16")];
            tensor<int32, [2]> var_1195_split_sizes_0 = const()[name = string("op_1195_split_sizes_0"), val = tensor<int32, [2]>([32, 32])];
            int32 var_1195_axis_0 = const()[name = string("op_1195_axis_0"), val = int32(1)];
            tensor<fp16, [1, 64, 5, 96]> x_83_cast_fp16 = transpose(perm = var_1181, x = buf_next_5_cast_fp16)[name = string("transpose_7")];
            tensor<fp16, [1, 32, 5, 96]> var_1195_cast_fp16_0, tensor<fp16, [1, 32, 5, 96]> var_1195_cast_fp16_1 = split(axis = var_1195_axis_0, split_sizes = var_1195_split_sizes_0, x = x_83_cast_fp16)[name = string("op_1195_cast_fp16")];
            string var_1202_pad_type_0 = const()[name = string("op_1202_pad_type_0"), val = string("valid")];
            tensor<int32, [2]> var_1202_strides_0 = const()[name = string("op_1202_strides_0"), val = tensor<int32, [2]>([1, 1])];
            tensor<int32, [4]> var_1202_pad_0 = const()[name = string("op_1202_pad_0"), val = tensor<int32, [4]>([0, 0, 0, 0])];
            tensor<int32, [2]> var_1202_dilations_0 = const()[name = string("op_1202_dilations_0"), val = tensor<int32, [2]>([1, 1])];
            int32 var_1202_groups_0 = const()[name = string("op_1202_groups_0"), val = int32(1)];
            tensor<fp16, [5, 32, 5, 1]> net_df_dec_df_convp_1_convs_0_weight_to_fp16 = const()[name = string("net_df_dec_df_convp_1_convs_0_weight_to_fp16"), val = tensor<fp16, [5, 32, 5, 1]>(BLOBFILE(path = string("@model_path/weights/weight.bin"), offset = uint64(1302272)))];
            tensor<fp16, [1, 5, 1, 96]> var_1202_cast_fp16 = conv(dilations = var_1202_dilations_0, groups = var_1202_groups_0, pad = var_1202_pad_0, pad_type = var_1202_pad_type_0, strides = var_1202_strides_0, weight = net_df_dec_df_convp_1_convs_0_weight_to_fp16, x = var_1195_cast_fp16_0)[name = string("op_1202_cast_fp16")];
            string var_1208_pad_type_0 = const()[name = string("op_1208_pad_type_0"), val = string("valid")];
            tensor<int32, [2]> var_1208_strides_0 = const()[name = string("op_1208_strides_0"), val = tensor<int32, [2]>([1, 1])];
            tensor<int32, [4]> var_1208_pad_0 = const()[name = string("op_1208_pad_0"), val = tensor<int32, [4]>([0, 0, 0, 0])];
            tensor<int32, [2]> var_1208_dilations_0 = const()[name = string("op_1208_dilations_0"), val = tensor<int32, [2]>([1, 1])];
            int32 var_1208_groups_0 = const()[name = string("op_1208_groups_0"), val = int32(1)];
            tensor<fp16, [5, 32, 5, 1]> net_df_dec_df_convp_1_convs_1_weight_to_fp16 = const()[name = string("net_df_dec_df_convp_1_convs_1_weight_to_fp16"), val = tensor<fp16, [5, 32, 5, 1]>(BLOBFILE(path = string("@model_path/weights/weight.bin"), offset = uint64(1303936)))];
            tensor<fp16, [1, 5, 1, 96]> var_1208_cast_fp16 = conv(dilations = var_1208_dilations_0, groups = var_1208_groups_0, pad = var_1208_pad_0, pad_type = var_1208_pad_type_0, strides = var_1208_strides_0, weight = net_df_dec_df_convp_1_convs_1_weight_to_fp16, x = var_1195_cast_fp16_1)[name = string("op_1208_cast_fp16")];
            bool input_147_interleave_0 = const()[name = string("input_147_interleave_0"), val = bool(false)];
            tensor<fp16, [1, 10, 1, 96]> input_147_cast_fp16 = concat(axis = var_52, interleave = input_147_interleave_0, values = (var_1202_cast_fp16, var_1208_cast_fp16))[name = string("input_147_cast_fp16")];
            string input_149_pad_type_0 = const()[name = string("input_149_pad_type_0"), val = string("valid")];
            tensor<int32, [2]> input_149_strides_0 = const()[name = string("input_149_strides_0"), val = tensor<int32, [2]>([1, 1])];
            tensor<int32, [4]> input_149_pad_0 = const()[name = string("input_149_pad_0"), val = tensor<int32, [4]>([0, 0, 0, 0])];
            tensor<int32, [2]> input_149_dilations_0 = const()[name = string("input_149_dilations_0"), val = tensor<int32, [2]>([1, 1])];
            int32 input_149_groups_0 = const()[name = string("input_149_groups_0"), val = int32(1)];
            tensor<fp16, [10, 10, 1, 1]> const_48_to_fp16 = const()[name = string("const_48_to_fp16"), val = tensor<fp16, [10, 10, 1, 1]>(BLOBFILE(path = string("@model_path/weights/weight.bin"), offset = uint64(1305600)))];
            tensor<fp16, [10]> const_49_to_fp16 = const()[name = string("const_49_to_fp16"), val = tensor<fp16, [10]>(BLOBFILE(path = string("@model_path/weights/weight.bin"), offset = uint64(1305920)))];
            tensor<fp16, [1, 10, 1, 96]> input_151_cast_fp16 = conv(bias = const_49_to_fp16, dilations = input_149_dilations_0, groups = input_149_groups_0, pad = input_149_pad_0, pad_type = input_149_pad_type_0, strides = input_149_strides_0, weight = const_48_to_fp16, x = input_147_cast_fp16)[name = string("input_151_cast_fp16")];
            tensor<fp16, [1, 10, 1, 96]> var_1222_cast_fp16 = relu(x = input_151_cast_fp16)[name = string("op_1222_cast_fp16")];
            tensor<int32, [4]> var_1223 = const()[name = string("op_1223"), val = tensor<int32, [4]>([0, 2, 3, 1])];
            tensor<int32, [3]> var_1230 = const()[name = string("op_1230"), val = tensor<int32, [3]>([-1, 16, 16])];
            tensor<fp16, [1, 16, 16]> x_87_cast_fp16 = reshape(shape = var_1230, x = x_85_cast_fp16)[name = string("x_87_cast_fp16")];
            tensor<int32, [1]> var_1232_axes_0 = const()[name = string("op_1232_axes_0"), val = tensor<int32, [1]>([-2])];
            tensor<fp16, [1, 16, 1, 16]> var_1232_cast_fp16 = expand_dims(axes = var_1232_axes_0, x = x_87_cast_fp16)[name = string("op_1232_cast_fp16")];
            bool var_1233_transpose_x_0 = const()[name = string("op_1233_transpose_x_0"), val = bool(false)];
            bool var_1233_transpose_y_0 = const()[name = string("op_1233_transpose_y_0"), val = bool(false)];
            tensor<fp16, [16, 16, 60]> net_df_dec_df_out_0_weight_to_fp16_palettized = constexpr_lut_to_dense(indices = tensor<uint4, [16, 16, 60]>(BLOBFILE(path = string("@model_path/weights/weight.bin"), offset = uint64(1306048))), lut = tensor<fp16, [1, 1, 1, 16, 1]>(BLOBFILE(path = string("@model_path/weights/weight.bin"), offset = uint64(1313792))))[name = string("net_df_dec_df_out_0_weight_to_fp16_palettized")];
            tensor<fp16, [1, 16, 1, 60]> var_1233_cast_fp16 = matmul(transpose_x = var_1233_transpose_x_0, transpose_y = var_1233_transpose_y_0, x = var_1232_cast_fp16, y = net_df_dec_df_out_0_weight_to_fp16_palettized)[name = string("op_1233_cast_fp16")];
            tensor<int32, [1]> x_89_axes_0 = const()[name = string("x_89_axes_0"), val = tensor<int32, [1]>([-2])];
            tensor<fp16, [1, 16, 60]> x_89_cast_fp16 = squeeze(axes = x_89_axes_0, x = var_1233_cast_fp16)[name = string("x_89_cast_fp16")];
            tensor<int32, [2]> var_1235 = const()[name = string("op_1235"), val = tensor<int32, [2]>([1, 960])];
            tensor<fp16, [1, 960]> x_91_cast_fp16 = reshape(shape = var_1235, x = x_89_cast_fp16)[name = string("x_91_cast_fp16")];
            tensor<fp16, [960]> net_df_dec_df_out_0_bias_to_fp16 = const()[name = string("net_df_dec_df_out_0_bias_to_fp16"), val = tensor<fp16, [960]>(BLOBFILE(path = string("@model_path/weights/weight.bin"), offset = uint64(1313920)))];
            tensor<fp16, [1, 960]> input_cast_fp16 = add(x = x_91_cast_fp16, y = net_df_dec_df_out_0_bias_to_fp16)[name = string("input_cast_fp16")];
            tensor<fp16, [1, 960]> c_1_cast_fp16 = tanh(x = input_cast_fp16)[name = string("c_1_cast_fp16")];
            tensor<int32, [1]> c_axes_0 = const()[name = string("c_axes_0"), val = tensor<int32, [1]>([1])];
            tensor<fp16, [1, 1, 960]> c_cast_fp16 = expand_dims(axes = c_axes_0, x = c_1_cast_fp16)[name = string("c_cast_fp16")];
            tensor<int32, [4]> var_1240 = const()[name = string("op_1240"), val = tensor<int32, [4]>([1, 1, 96, 10])];
            tensor<fp16, [1, 1, 96, 10]> var_1241_cast_fp16 = reshape(shape = var_1240, x = c_cast_fp16)[name = string("op_1241_cast_fp16")];
            tensor<fp16, [1, 1, 96, 10]> c0_cast_fp16 = transpose(perm = var_1223, x = var_1222_cast_fp16)[name = string("transpose_6")];
            tensor<fp16, [1, 1, 96, 10]> coefs_1_cast_fp16 = add(x = var_1241_cast_fp16, y = c0_cast_fp16)[name = string("coefs_1_cast_fp16")];
            bool df_dec_state_out_interleave_0 = const()[name = string("df_dec_state_out_interleave_0"), val = bool(false)];
            tensor<fp16, [31232]> df_dec_state_out_cast_fp16 = concat(axis = var_51, interleave = df_dec_state_out_interleave_0, values = (df_gru_state_out_cast_fp16, df_convp_state_out_cast_fp16))[name = string("df_dec_state_out_cast_fp16")];
            tensor<int32, [5]> var_1251 = const()[name = string("op_1251"), val = tensor<int32, [5]>([1, 1, 96, -1, 2])];
            tensor<fp16, [1, 1, 96, 5, 2]> coefs_3_cast_fp16 = reshape(shape = var_1251, x = coefs_1_cast_fp16)[name = string("coefs_3_cast_fp16")];
            tensor<int32, [5]> transpose_10_perm_0 = const()[name = string("transpose_10_perm_0"), val = tensor<int32, [5]>([1, 0, 3, 2, 4])];
            bool mask_3_transpose_x_0 = const()[name = string("mask_3_transpose_x_0"), val = bool(false)];
            bool mask_3_transpose_y_0 = const()[name = string("mask_3_transpose_y_0"), val = bool(false)];
            tensor<fp16, [32, 161]> net_erb_inv_fb_to_fp16_palettized = constexpr_lut_to_dense(indices = tensor<uint4, [32, 161]>(BLOBFILE(path = string("@model_path/weights/weight.bin"), offset = uint64(1315904))), lut = tensor<fp16, [1, 1, 16, 1]>(BLOBFILE(path = string("@model_path/weights/weight.bin"), offset = uint64(1318592))))[name = string("net_erb_inv_fb_to_fp16_palettized")];
            tensor<fp16, [1, 1, 1, 161]> mask_3_cast_fp16 = matmul(transpose_x = mask_3_transpose_x_0, transpose_y = mask_3_transpose_y_0, x = mask_1_cast_fp16, y = net_erb_inv_fb_to_fp16_palettized)[name = string("mask_3_cast_fp16")];
            tensor<int32, [1]> mask_5_axes_0 = const()[name = string("mask_5_axes_0"), val = tensor<int32, [1]>([4])];
            tensor<fp16, [1, 1, 1, 161, 1]> mask_5_cast_fp16 = expand_dims(axes = mask_5_axes_0, x = mask_3_cast_fp16)[name = string("mask_5_cast_fp16")];
            tensor<int32, [5]> var_1257 = const()[name = string("op_1257"), val = tensor<int32, [5]>([2, 0, 1, 3, 4])];
            tensor<int32, [1]> buf_flat_7_begin_0 = const()[name = string("buf_flat_7_begin_0"), val = tensor<int32, [1]>([39968])];
            tensor<int32, [1]> buf_flat_7_end_0 = const()[name = string("buf_flat_7_end_0"), val = tensor<int32, [1]>([40934])];
            tensor<bool, [1]> buf_flat_7_end_mask_0 = const()[name = string("buf_flat_7_end_mask_0"), val = tensor<bool, [1]>([false])];
            tensor<fp16, [966]> buf_flat_7_cast_fp16 = slice_by_index(begin = buf_flat_7_begin_0, end = buf_flat_7_end_0, end_mask = buf_flat_7_end_mask_0, x = read_state_0)[name = string("buf_flat_7_cast_fp16")];
            tensor<int32, [5]> var_1260 = const()[name = string("op_1260"), val = tensor<int32, [5]>([3, 1, 1, 161, 2])];
            tensor<fp16, [3, 1, 1, 161, 2]> buf_7_cast_fp16 = reshape(shape = var_1260, x = buf_flat_7_cast_fp16)[name = string("buf_7_cast_fp16")];
            tensor<int32, [5]> var_1262_begin_0 = const()[name = string("op_1262_begin_0"), val = tensor<int32, [5]>([1, 0, 0, 0, 0])];
            tensor<int32, [5]> var_1262_end_0 = const()[name = string("op_1262_end_0"), val = tensor<int32, [5]>([3, 1, 1, 161, 2])];
            tensor<bool, [5]> var_1262_end_mask_0 = const()[name = string("op_1262_end_mask_0"), val = tensor<bool, [5]>([true, true, true, true, true])];
            tensor<fp16, [2, 1, 1, 161, 2]> var_1262_cast_fp16 = slice_by_index(begin = var_1262_begin_0, end = var_1262_end_0, end_mask = var_1262_end_mask_0, x = buf_7_cast_fp16)[name = string("op_1262_cast_fp16")];
            bool buf_next_7_interleave_0 = const()[name = string("buf_next_7_interleave_0"), val = bool(false)];
            tensor<fp16, [1, 1, 1, 161, 2]> x_tf_7_cast_fp16 = transpose(perm = var_1257, x = x_93_cast_fp16)[name = string("transpose_5")];
            tensor<fp16, [3, 1, 1, 161, 2]> buf_next_7_cast_fp16 = concat(axis = var_51, interleave = buf_next_7_interleave_0, values = (var_1262_cast_fp16, x_tf_7_cast_fp16))[name = string("buf_next_7_cast_fp16")];
            tensor<int32, [5]> out_tf_7_begin_0 = const()[name = string("out_tf_7_begin_0"), val = tensor<int32, [5]>([0, 0, 0, 0, 0])];
            tensor<int32, [5]> out_tf_7_end_0 = const()[name = string("out_tf_7_end_0"), val = tensor<int32, [5]>([1, 1, 1, 161, 2])];
            tensor<bool, [5]> out_tf_7_end_mask_0 = const()[name = string("out_tf_7_end_mask_0"), val = tensor<bool, [5]>([false, true, true, true, true])];
            tensor<fp16, [1, 1, 1, 161, 2]> out_tf_7_cast_fp16 = slice_by_index(begin = out_tf_7_begin_0, end = out_tf_7_end_0, end_mask = out_tf_7_end_mask_0, x = buf_next_7_cast_fp16)[name = string("out_tf_7_cast_fp16")];
            tensor<int32, [5]> var_1266 = const()[name = string("op_1266"), val = tensor<int32, [5]>([1, 2, 0, 3, 4])];
            tensor<int32, [1]> var_1268 = const()[name = string("op_1268"), val = tensor<int32, [1]>([-1])];
            tensor<fp16, [966]> mask_state_out_cast_fp16 = reshape(shape = var_1268, x = buf_next_7_cast_fp16)[name = string("mask_state_out_cast_fp16")];
            tensor<fp16, [1, 1, 1, 161, 2]> buffered_spec_cast_fp16 = transpose(perm = var_1266, x = out_tf_7_cast_fp16)[name = string("transpose_4")];
            tensor<fp16, [1, 1, 1, 161, 2]> spec_3_cast_fp16 = mul(x = buffered_spec_cast_fp16, y = mask_5_cast_fp16)[name = string("spec_3_cast_fp16")];
            tensor<int32, [1]> buf_flat_9_begin_0 = const()[name = string("buf_flat_9_begin_0"), val = tensor<int32, [1]>([40934])];
            tensor<int32, [1]> buf_flat_9_end_0 = const()[name = string("buf_flat_9_end_0"), val = tensor<int32, [1]>([43814])];
            tensor<bool, [1]> buf_flat_9_end_mask_0 = const()[name = string("buf_flat_9_end_mask_0"), val = tensor<bool, [1]>([false])];
            tensor<fp16, [2880]> buf_flat_9_cast_fp16 = slice_by_index(begin = buf_flat_9_begin_0, end = buf_flat_9_end_0, end_mask = buf_flat_9_end_mask_0, x = read_state_0)[name = string("buf_flat_9_cast_fp16")];
            tensor<int32, [5]> var_1281 = const()[name = string("op_1281"), val = tensor<int32, [5]>([3, 1, 5, 96, 2])];
            tensor<fp16, [3, 1, 5, 96, 2]> buf_9_cast_fp16 = reshape(shape = var_1281, x = buf_flat_9_cast_fp16)[name = string("buf_9_cast_fp16")];
            tensor<int32, [5]> var_1283_begin_0 = const()[name = string("op_1283_begin_0"), val = tensor<int32, [5]>([1, 0, 0, 0, 0])];
            tensor<int32, [5]> var_1283_end_0 = const()[name = string("op_1283_end_0"), val = tensor<int32, [5]>([3, 1, 5, 96, 2])];
            tensor<bool, [5]> var_1283_end_mask_0 = const()[name = string("op_1283_end_mask_0"), val = tensor<bool, [5]>([true, true, true, true, true])];
            tensor<fp16, [2, 1, 5, 96, 2]> var_1283_cast_fp16 = slice_by_index(begin = var_1283_begin_0, end = var_1283_end_0, end_mask = var_1283_end_mask_0, x = buf_9_cast_fp16)[name = string("op_1283_cast_fp16")];
            bool buf_next_9_interleave_0 = const()[name = string("buf_next_9_interleave_0"), val = bool(false)];
            tensor<fp16, [1, 1, 5, 96, 2]> transpose_10_cast_fp16 = transpose(perm = transpose_10_perm_0, x = coefs_3_cast_fp16)[name = string("transpose_3")];
            tensor<fp16, [3, 1, 5, 96, 2]> buf_next_9_cast_fp16 = concat(axis = var_51, interleave = buf_next_9_interleave_0, values = (var_1283_cast_fp16, transpose_10_cast_fp16))[name = string("buf_next_9_cast_fp16")];
            tensor<int32, [5]> out_tf_9_begin_0 = const()[name = string("out_tf_9_begin_0"), val = tensor<int32, [5]>([0, 0, 0, 0, 0])];
            tensor<int32, [5]> out_tf_9_end_0 = const()[name = string("out_tf_9_end_0"), val = tensor<int32, [5]>([1, 1, 5, 96, 2])];
            tensor<bool, [5]> out_tf_9_end_mask_0 = const()[name = string("out_tf_9_end_mask_0"), val = tensor<bool, [5]>([false, true, true, true, true])];
            tensor<fp16, [1, 1, 5, 96, 2]> out_tf_9_cast_fp16 = slice_by_index(begin = out_tf_9_begin_0, end = out_tf_9_end_0, end_mask = out_tf_9_end_mask_0, x = buf_next_9_cast_fp16)[name = string("out_tf_9_cast_fp16")];
            tensor<int32, [5]> transpose_11_perm_0 = const()[name = string("transpose_11_perm_0"), val = tensor<int32, [5]>([1, 0, 2, 3, 4])];
            tensor<int32, [1]> var_1289 = const()[name = string("op_1289"), val = tensor<int32, [1]>([-1])];
            tensor<fp16, [2880]> coefs_state_out_cast_fp16 = reshape(shape = var_1289, x = buf_next_9_cast_fp16)[name = string("coefs_state_out_cast_fp16")];
            tensor<int32, [5]> var_1296 = const()[name = string("op_1296"), val = tensor<int32, [5]>([2, 0, 1, 3, 4])];
            tensor<int32, [1]> buf_flat_begin_0 = const()[name = string("buf_flat_begin_0"), val = tensor<int32, [1]>([43814])];
            tensor<int32, [1]> buf_flat_end_0 = const()[name = string("buf_flat_end_0"), val = tensor<int32, [1]>([1])];
            tensor<bool, [1]> buf_flat_end_mask_0 = const()[name = string("buf_flat_end_mask_0"), val = tensor<bool, [1]>([true])];
            tensor<fp16, [1610]> buf_flat_cast_fp16 = slice_by_index(begin = buf_flat_begin_0, end = buf_flat_end_0, end_mask = buf_flat_end_mask_0, x = read_state_0)[name = string("buf_flat_cast_fp16")];
            tensor<int32, [5]> var_1299 = const()[name = string("op_1299"), val = tensor<int32, [5]>([5, 1, 1, 161, 2])];
            tensor<fp16, [5, 1, 1, 161, 2]> buf_cast_fp16 = reshape(shape = var_1299, x = buf_flat_cast_fp16)[name = string("buf_cast_fp16")];
            tensor<int32, [5]> var_1301_begin_0 = const()[name = string("op_1301_begin_0"), val = tensor<int32, [5]>([1, 0, 0, 0, 0])];
            tensor<int32, [5]> var_1301_end_0 = const()[name = string("op_1301_end_0"), val = tensor<int32, [5]>([5, 1, 1, 161, 2])];
            tensor<bool, [5]> var_1301_end_mask_0 = const()[name = string("op_1301_end_mask_0"), val = tensor<bool, [5]>([true, true, true, true, true])];
            tensor<fp16, [4, 1, 1, 161, 2]> var_1301_cast_fp16 = slice_by_index(begin = var_1301_begin_0, end = var_1301_end_0, end_mask = var_1301_end_mask_0, x = buf_cast_fp16)[name = string("op_1301_cast_fp16")];
            bool buf_next_interleave_0 = const()[name = string("buf_next_interleave_0"), val = bool(false)];
            tensor<fp16, [1, 1, 1, 161, 2]> x_tf_cast_fp16 = transpose(perm = var_1296, x = spec_3_cast_fp16)[name = string("transpose_2")];
            tensor<fp16, [5, 1, 1, 161, 2]> buf_next_cast_fp16 = concat(axis = var_51, interleave = buf_next_interleave_0, values = (var_1301_cast_fp16, x_tf_cast_fp16))[name = string("buf_next_cast_fp16")];
            tensor<int32, [5]> var_1305 = const()[name = string("op_1305"), val = tensor<int32, [5]>([1, 2, 0, 3, 4])];
            tensor<int32, [1]> var_1307 = const()[name = string("op_1307"), val = tensor<int32, [1]>([-1])];
            tensor<fp16, [1610]> spec_state_out_cast_fp16 = reshape(shape = var_1307, x = buf_next_cast_fp16)[name = string("spec_state_out_cast_fp16")];
            tensor<int32, [5]> var_1312_begin_0 = const()[name = string("op_1312_begin_0"), val = tensor<int32, [5]>([0, 0, 0, 0, 0])];
            tensor<int32, [5]> var_1312_end_0 = const()[name = string("op_1312_end_0"), val = tensor<int32, [5]>([1, 1, 5, 96, 2])];
            tensor<bool, [5]> var_1312_end_mask_0 = const()[name = string("op_1312_end_mask_0"), val = tensor<bool, [5]>([true, true, true, false, true])];
            tensor<fp16, [1, 1, 5, 161, 2]> full_spec_buffered_cast_fp16 = transpose(perm = var_1305, x = buf_next_cast_fp16)[name = string("transpose_1")];
            tensor<fp16, [1, 1, 5, 96, 2]> var_1312_cast_fp16 = slice_by_index(begin = var_1312_begin_0, end = var_1312_end_0, end_mask = var_1312_end_mask_0, x = full_spec_buffered_cast_fp16)[name = string("op_1312_cast_fp16")];
            tensor<int32, [5]> full_spec_frame_begin_0 = const()[name = string("full_spec_frame_begin_0"), val = tensor<int32, [5]>([0, 0, 2, 0, 0])];
            tensor<int32, [5]> full_spec_frame_end_0 = const()[name = string("full_spec_frame_end_0"), val = tensor<int32, [5]>([1, 1, 3, 161, 2])];
            tensor<bool, [5]> full_spec_frame_end_mask_0 = const()[name = string("full_spec_frame_end_mask_0"), val = tensor<bool, [5]>([true, true, false, true, true])];
            tensor<fp16, [1, 1, 1, 161, 2]> full_spec_frame_cast_fp16 = slice_by_index(begin = full_spec_frame_begin_0, end = full_spec_frame_end_0, end_mask = full_spec_frame_end_mask_0, x = full_spec_buffered_cast_fp16)[name = string("full_spec_frame_cast_fp16")];
            tensor<int32, [5]> var_1317_begin_0 = const()[name = string("op_1317_begin_0"), val = tensor<int32, [5]>([0, 0, 0, 0, 0])];
            tensor<int32, [5]> var_1317_end_0 = const()[name = string("op_1317_end_0"), val = tensor<int32, [5]>([1, 1, 5, 96, 1])];
            tensor<bool, [5]> var_1317_end_mask_0 = const()[name = string("op_1317_end_mask_0"), val = tensor<bool, [5]>([true, true, true, true, false])];
            tensor<bool, [5]> var_1317_squeeze_mask_0 = const()[name = string("op_1317_squeeze_mask_0"), val = tensor<bool, [5]>([false, false, false, false, true])];
            tensor<fp16, [1, 1, 5, 96]> var_1317_cast_fp16 = slice_by_index(begin = var_1317_begin_0, end = var_1317_end_0, end_mask = var_1317_end_mask_0, squeeze_mask = var_1317_squeeze_mask_0, x = var_1312_cast_fp16)[name = string("op_1317_cast_fp16")];
            tensor<int32, [5]> var_1318_begin_0 = const()[name = string("op_1318_begin_0"), val = tensor<int32, [5]>([0, 0, 0, 0, 0])];
            tensor<int32, [5]> var_1318_end_0 = const()[name = string("op_1318_end_0"), val = tensor<int32, [5]>([1, 1, 5, 96, 1])];
            tensor<bool, [5]> var_1318_end_mask_0 = const()[name = string("op_1318_end_mask_0"), val = tensor<bool, [5]>([true, true, true, true, false])];
            tensor<bool, [5]> var_1318_squeeze_mask_0 = const()[name = string("op_1318_squeeze_mask_0"), val = tensor<bool, [5]>([false, false, false, false, true])];
            tensor<fp16, [1, 1, 5, 96, 2]> transpose_11_cast_fp16 = transpose(perm = transpose_11_perm_0, x = out_tf_9_cast_fp16)[name = string("transpose_0")];
            tensor<fp16, [1, 1, 5, 96]> var_1318_cast_fp16 = slice_by_index(begin = var_1318_begin_0, end = var_1318_end_0, end_mask = var_1318_end_mask_0, squeeze_mask = var_1318_squeeze_mask_0, x = transpose_11_cast_fp16)[name = string("op_1318_cast_fp16")];
            tensor<fp16, [1, 1, 5, 96]> var_1319_cast_fp16 = mul(x = var_1317_cast_fp16, y = var_1318_cast_fp16)[name = string("op_1319_cast_fp16")];
            tensor<int32, [1]> var_1321_axes_0 = const()[name = string("op_1321_axes_0"), val = tensor<int32, [1]>([2])];
            bool var_1321_keep_dims_0 = const()[name = string("op_1321_keep_dims_0"), val = bool(false)];
            tensor<fp16, [1, 1, 96]> var_1321_cast_fp16 = reduce_sum(axes = var_1321_axes_0, keep_dims = var_1321_keep_dims_0, x = var_1319_cast_fp16)[name = string("op_1321_cast_fp16")];
            tensor<int32, [5]> var_1322_begin_0 = const()[name = string("op_1322_begin_0"), val = tensor<int32, [5]>([0, 0, 0, 0, 1])];
            tensor<int32, [5]> var_1322_end_0 = const()[name = string("op_1322_end_0"), val = tensor<int32, [5]>([1, 1, 5, 96, 2])];
            tensor<bool, [5]> var_1322_end_mask_0 = const()[name = string("op_1322_end_mask_0"), val = tensor<bool, [5]>([true, true, true, true, false])];
            tensor<bool, [5]> var_1322_squeeze_mask_0 = const()[name = string("op_1322_squeeze_mask_0"), val = tensor<bool, [5]>([false, false, false, false, true])];
            tensor<fp16, [1, 1, 5, 96]> var_1322_cast_fp16 = slice_by_index(begin = var_1322_begin_0, end = var_1322_end_0, end_mask = var_1322_end_mask_0, squeeze_mask = var_1322_squeeze_mask_0, x = var_1312_cast_fp16)[name = string("op_1322_cast_fp16")];
            tensor<int32, [5]> var_1323_begin_0 = const()[name = string("op_1323_begin_0"), val = tensor<int32, [5]>([0, 0, 0, 0, 1])];
            tensor<int32, [5]> var_1323_end_0 = const()[name = string("op_1323_end_0"), val = tensor<int32, [5]>([1, 1, 5, 96, 2])];
            tensor<bool, [5]> var_1323_end_mask_0 = const()[name = string("op_1323_end_mask_0"), val = tensor<bool, [5]>([true, true, true, true, false])];
            tensor<bool, [5]> var_1323_squeeze_mask_0 = const()[name = string("op_1323_squeeze_mask_0"), val = tensor<bool, [5]>([false, false, false, false, true])];
            tensor<fp16, [1, 1, 5, 96]> var_1323_cast_fp16 = slice_by_index(begin = var_1323_begin_0, end = var_1323_end_0, end_mask = var_1323_end_mask_0, squeeze_mask = var_1323_squeeze_mask_0, x = transpose_11_cast_fp16)[name = string("op_1323_cast_fp16")];
            tensor<fp16, [1, 1, 5, 96]> var_1324_cast_fp16 = mul(x = var_1322_cast_fp16, y = var_1323_cast_fp16)[name = string("op_1324_cast_fp16")];
            tensor<int32, [1]> var_1326_axes_0 = const()[name = string("op_1326_axes_0"), val = tensor<int32, [1]>([2])];
            bool var_1326_keep_dims_0 = const()[name = string("op_1326_keep_dims_0"), val = bool(false)];
            tensor<fp16, [1, 1, 96]> var_1326_cast_fp16 = reduce_sum(axes = var_1326_axes_0, keep_dims = var_1326_keep_dims_0, x = var_1324_cast_fp16)[name = string("op_1326_cast_fp16")];
            tensor<fp16, [1, 1, 96]> real_part_cast_fp16 = sub(x = var_1321_cast_fp16, y = var_1326_cast_fp16)[name = string("real_part_cast_fp16")];
            tensor<fp16, [1, 1, 5, 96]> var_1330_cast_fp16 = mul(x = var_1317_cast_fp16, y = var_1323_cast_fp16)[name = string("op_1330_cast_fp16")];
            tensor<int32, [1]> var_1332_axes_0 = const()[name = string("op_1332_axes_0"), val = tensor<int32, [1]>([2])];
            bool var_1332_keep_dims_0 = const()[name = string("op_1332_keep_dims_0"), val = bool(false)];
            tensor<fp16, [1, 1, 96]> var_1332_cast_fp16 = reduce_sum(axes = var_1332_axes_0, keep_dims = var_1332_keep_dims_0, x = var_1330_cast_fp16)[name = string("op_1332_cast_fp16")];
            tensor<fp16, [1, 1, 5, 96]> var_1335_cast_fp16 = mul(x = var_1322_cast_fp16, y = var_1318_cast_fp16)[name = string("op_1335_cast_fp16")];
            tensor<int32, [1]> var_1337_axes_0 = const()[name = string("op_1337_axes_0"), val = tensor<int32, [1]>([2])];
            bool var_1337_keep_dims_0 = const()[name = string("op_1337_keep_dims_0"), val = bool(false)];
            tensor<fp16, [1, 1, 96]> var_1337_cast_fp16 = reduce_sum(axes = var_1337_axes_0, keep_dims = var_1337_keep_dims_0, x = var_1335_cast_fp16)[name = string("op_1337_cast_fp16")];
            tensor<fp16, [1, 1, 96]> imag_part_cast_fp16 = add(x = var_1332_cast_fp16, y = var_1337_cast_fp16)[name = string("imag_part_cast_fp16")];
            int32 spec_df_1_axis_0 = const()[name = string("spec_df_1_axis_0"), val = int32(-1)];
            tensor<fp16, [1, 1, 96, 2]> spec_df_1_cast_fp16 = stack(axis = spec_df_1_axis_0, values = (real_part_cast_fp16, imag_part_cast_fp16))[name = string("spec_df_1_cast_fp16")];
            tensor<int32, [1]> spec_df_axes_0 = const()[name = string("spec_df_axes_0"), val = tensor<int32, [1]>([1])];
            tensor<fp16, [1, 1, 1, 96, 2]> spec_df_cast_fp16 = expand_dims(axes = spec_df_axes_0, x = spec_df_1_cast_fp16)[name = string("spec_df_cast_fp16")];
            tensor<int32, [5]> var_1345_begin_0 = const()[name = string("op_1345_begin_0"), val = tensor<int32, [5]>([0, 0, 0, 96, 0])];
            tensor<int32, [5]> var_1345_end_0 = const()[name = string("op_1345_end_0"), val = tensor<int32, [5]>([1, 1, 1, 161, 2])];
            tensor<bool, [5]> var_1345_end_mask_0 = const()[name = string("op_1345_end_mask_0"), val = tensor<bool, [5]>([true, true, true, true, true])];
            tensor<fp16, [1, 1, 1, 65, 2]> var_1345_cast_fp16 = slice_by_index(begin = var_1345_begin_0, end = var_1345_end_0, end_mask = var_1345_end_mask_0, x = full_spec_frame_cast_fp16)[name = string("op_1345_cast_fp16")];
            bool spec_e_1_interleave_0 = const()[name = string("spec_e_1_interleave_0"), val = bool(false)];
            tensor<fp16, [1, 1, 1, 161, 2]> spec_e_1_cast_fp16 = concat(axis = var_49, interleave = spec_e_1_interleave_0, values = (spec_df_cast_fp16, var_1345_cast_fp16))[name = string("spec_e_1_cast_fp16")];
            bool df_state_out_interleave_0 = const()[name = string("df_state_out_interleave_0"), val = bool(false)];
            tensor<fp16, [4490]> df_state_out_cast_fp16 = concat(axis = var_51, interleave = df_state_out_interleave_0, values = (coefs_state_out_cast_fp16, spec_state_out_cast_fp16))[name = string("df_state_out_cast_fp16")];
            tensor<int32, [1]> spec_e_axes_0 = const()[name = string("spec_e_axes_0"), val = tensor<int32, [1]>([1])];
            tensor<fp16, [1, 1, 161, 2]> spec_e_cast_fp16 = squeeze(axes = spec_e_axes_0, x = spec_e_1_cast_fp16)[name = string("spec_e_cast_fp16")];
            bool new_state_interleave_0 = const()[name = string("new_state_interleave_0"), val = bool(false)];
            tensor<fp16, [45424]> new_state_cast_fp16 = concat(axis = var_51, interleave = new_state_interleave_0, values = (erb_norm_state_out_cast_fp16, spec_norm_state_out_cast_fp16, enc_state_out_cast_fp16, erb_dec_state_out_cast_fp16, df_dec_state_out_cast_fp16, mask_state_out_cast_fp16, df_state_out_cast_fp16))[name = string("new_state_cast_fp16")];
            tensor<int32, [1]> concat_22 = const()[name = string("concat_22"), val = tensor<int32, [1]>([0])];
            tensor<int32, [1]> concat_23 = const()[name = string("concat_23"), val = tensor<int32, [1]>([0])];
            tensor<int32, [1]> gru_state_internal_tensor_assign_1_stride_0 = const()[name = string("gru_state_internal_tensor_assign_1_stride_0"), val = tensor<int32, [1]>([1])];
            tensor<bool, [1]> gru_state_internal_tensor_assign_1_begin_mask_0 = const()[name = string("gru_state_internal_tensor_assign_1_begin_mask_0"), val = tensor<bool, [1]>([false])];
            tensor<bool, [1]> gru_state_internal_tensor_assign_1_end_mask_0 = const()[name = string("gru_state_internal_tensor_assign_1_end_mask_0"), val = tensor<bool, [1]>([true])];
            tensor<bool, [1]> gru_state_internal_tensor_assign_1_squeeze_mask_0 = const()[name = string("gru_state_internal_tensor_assign_1_squeeze_mask_0"), val = tensor<bool, [1]>([false])];
            tensor<fp16, [45424]> gru_state_internal_tensor_assign_1_cast_fp16 = slice_update(begin = concat_22, begin_mask = gru_state_internal_tensor_assign_1_begin_mask_0, end = concat_23, end_mask = gru_state_internal_tensor_assign_1_end_mask_0, squeeze_mask = gru_state_internal_tensor_assign_1_squeeze_mask_0, stride = gru_state_internal_tensor_assign_1_stride_0, update = new_state_cast_fp16, x = read_state_0)[name = string("gru_state_internal_tensor_assign_1_cast_fp16")];
            write_state(data = gru_state_internal_tensor_assign_1_cast_fp16, input = gru_state)[name = string("coreml_update_state_1_write_state")];
            fp16 inv_wnorm_to_fp16 = const()[name = string("inv_wnorm_to_fp16"), val = fp16(0x1.4p+8)];
            tensor<fp16, [1, 1, 161, 2]> var_1371_cast_fp16 = mul(x = spec_e_cast_fp16, y = inv_wnorm_to_fp16)[name = string("op_1371_cast_fp16")];
            string var_1371_cast_fp16_to_fp32_dtype_0 = const()[name = string("op_1371_cast_fp16_to_fp32_dtype_0"), val = string("fp32")];
            tensor<fp32, [1, 1, 161, 2]> spec_e = cast(dtype = var_1371_cast_fp16_to_fp32_dtype_0, x = var_1371_cast_fp16)[name = string("cast_0")];
        } -> (spec_e);
}