program(1.3)
[buildInfo = dict<string, string>({{"coremlc-component-MIL", "3510.2.1"}, {"coremlc-version", "3500.32.1"}, {"coremltools-component-torch", "2.11.0"}, {"coremltools-source-dialect", "TorchScript"}, {"coremltools-version", "9.0"}})]
{
    func main<ios18>(tensor<fp32, [1, 1, 481, 2]> spec, tensor<fp32, [56436]> state_in) {
            fp32 initializers_onnx_initializer_306 = const()[name = string("initializers_onnx_initializer_306"), val = fp32(0x1.ep+9)];
            tensor<fp32, [960]> initializers_onnx_initializer_248 = const()[name = string("initializers_onnx_initializer_248"), val = tensor<fp32, [960]>(BLOBFILE(path = string("@model_path/weights/weight.bin"), offset = uint64(64)))];
            tensor<fp32, [16, 16, 60]> initializers_onnx_initializer_245 = const()[name = string("initializers_onnx_initializer_245"), val = tensor<fp32, [16, 16, 60]>(BLOBFILE(path = string("@model_path/weights/weight.bin"), offset = uint64(3968)))];
            tensor<fp32, [256]> initializers_onnx_initializer_223 = const()[name = string("initializers_onnx_initializer_223"), val = tensor<fp32, [256]>(BLOBFILE(path = string("@model_path/weights/weight.bin"), offset = uint64(65472)))];
            tensor<fp32, [16, 32, 16]> initializers_onnx_initializer_220 = const()[name = string("initializers_onnx_initializer_220"), val = tensor<fp32, [16, 32, 16]>(BLOBFILE(path = string("@model_path/weights/weight.bin"), offset = uint64(66560)))];
            tensor<fp32, [256]> initializers_onnx_initializer_203 = const()[name = string("initializers_onnx_initializer_203"), val = tensor<fp32, [256]>(BLOBFILE(path = string("@model_path/weights/weight.bin"), offset = uint64(99392)))];
            tensor<fp32, [8, 64, 32]> initializers_onnx_initializer_200 = const()[name = string("initializers_onnx_initializer_200"), val = tensor<fp32, [8, 64, 32]>(BLOBFILE(path = string("@model_path/weights/weight.bin"), offset = uint64(100480)))];
            tensor<fp32, [2560]> initializers_onnx_initializer_190 = const()[name = string("initializers_onnx_initializer_190"), val = tensor<fp32, [2560]>(BLOBFILE(path = string("@model_path/weights/weight.bin"), offset = uint64(166080)))];
            tensor<fp32, [32, 16, 80]> initializers_onnx_initializer_187 = const()[name = string("initializers_onnx_initializer_187"), val = tensor<fp32, [32, 16, 80]>(BLOBFILE(path = string("@model_path/weights/weight.bin"), offset = uint64(176384)))];
            tensor<fp32, [512]> initializers_onnx_initializer_185 = const()[name = string("initializers_onnx_initializer_185"), val = tensor<fp32, [512]>(BLOBFILE(path = string("@model_path/weights/weight.bin"), offset = uint64(340288)))];
            tensor<fp32, [16, 16, 32]> initializers_onnx_initializer_182 = const()[name = string("initializers_onnx_initializer_182"), val = tensor<fp32, [16, 16, 32]>(BLOBFILE(path = string("@model_path/weights/weight.bin"), offset = uint64(342400)))];
            tensor<fp32, [256]> initializers_onnx_initializer_164 = const()[name = string("initializers_onnx_initializer_164"), val = tensor<fp32, [256]>(BLOBFILE(path = string("@model_path/weights/weight.bin"), offset = uint64(375232)))];
            tensor<fp32, [16, 32, 16]> initializers_onnx_initializer_161 = const()[name = string("initializers_onnx_initializer_161"), val = tensor<fp32, [16, 32, 16]>(BLOBFILE(path = string("@model_path/weights/weight.bin"), offset = uint64(376320)))];
            tensor<fp32, [512]> initializers_onnx_initializer_159 = const()[name = string("initializers_onnx_initializer_159"), val = tensor<fp32, [512]>(BLOBFILE(path = string("@model_path/weights/weight.bin"), offset = uint64(409152)))];
            tensor<fp32, [16, 16, 32]> initializers_onnx_initializer_156 = const()[name = string("initializers_onnx_initializer_156"), val = tensor<fp32, [16, 16, 32]>(BLOBFILE(path = string("@model_path/weights/weight.bin"), offset = uint64(411264)))];
            tensor<fp32, [256]> initializers_onnx_initializer_146 = const()[name = string("initializers_onnx_initializer_146"), val = tensor<fp32, [256]>(BLOBFILE(path = string("@model_path/weights/weight.bin"), offset = uint64(444096)))];
            tensor<fp32, [16, 64, 16]> initializers_onnx_initializer_143 = const()[name = string("initializers_onnx_initializer_143"), val = tensor<fp32, [16, 64, 16]>(BLOBFILE(path = string("@model_path/weights/weight.bin"), offset = uint64(445184)))];
            tensor<fp32, [512]> initializers_onnx_initializer_141 = const()[name = string("initializers_onnx_initializer_141"), val = tensor<fp32, [512]>(BLOBFILE(path = string("@model_path/weights/weight.bin"), offset = uint64(510784)))];
            tensor<fp32, [32, 80, 16]> initializers_onnx_initializer_138 = const()[name = string("initializers_onnx_initializer_138"), val = tensor<fp32, [32, 80, 16]>(BLOBFILE(path = string("@model_path/weights/weight.bin"), offset = uint64(512896)))];
            tensor<fp32, [512]> initializers_onnx_initializer_136 = const()[name = string("initializers_onnx_initializer_136"), val = tensor<fp32, [512]>(BLOBFILE(path = string("@model_path/weights/weight.bin"), offset = uint64(676800)))];
            tensor<fp32, [32, 96, 16]> initializers_onnx_initializer_133 = const()[name = string("initializers_onnx_initializer_133"), val = tensor<fp32, [32, 96, 16]>(BLOBFILE(path = string("@model_path/weights/weight.bin"), offset = uint64(678912)))];
            fp32 initializers_onnx_initializer_26 = const()[name = string("initializers_onnx_initializer_26"), val = fp32(0x1.197998p-40)];
            fp32 initializers_onnx_initializer_25 = const()[name = string("initializers_onnx_initializer_25"), val = fp32(0x1.47ae14p-6)];
            fp32 initializers_onnx_initializer_24 = const()[name = string("initializers_onnx_initializer_24"), val = fp32(0x1.f5c29p-1)];
            fp32 initializers_onnx_initializer_18 = const()[name = string("initializers_onnx_initializer_18"), val = fp32(0x1p+1)];
            fp32 initializers_onnx_initializer_15 = const()[name = string("initializers_onnx_initializer_15"), val = fp32(0x1.47ae14p-6)];
            fp32 initializers_onnx_initializer_14 = const()[name = string("initializers_onnx_initializer_14"), val = fp32(0x1.f5c29p-1)];
            fp32 initializers_onnx_initializer_4 = const()[name = string("initializers_onnx_initializer_4"), val = fp32(0x1.4p+3)];
            fp32 initializers_onnx_initializer_2 = const()[name = string("initializers_onnx_initializer_2"), val = fp32(0x1.b7cdfep-34)];
            fp32 initializers_onnx_initializer_1 = const()[name = string("initializers_onnx_initializer_1"), val = fp32(0x1p+1)];
            fp32 initializers_onnx_initializer_0 = const()[name = string("initializers_onnx_initializer_0"), val = fp32(0x1.111112p-10)];
            tensor<fp32, [64]> model_enc_erb_conv0_erb_conv0_1_Conv_bias = const()[name = string("model_enc_erb_conv0_erb_conv0_1_Conv_bias"), val = tensor<fp32, [64]>(BLOBFILE(path = string("@model_path/weights/weight.bin"), offset = uint64(875584)))];
            tensor<fp32, [64, 1, 3, 3]> model_enc_erb_conv0_erb_conv0_1_Conv_weight = const()[name = string("model_enc_erb_conv0_erb_conv0_1_Conv_weight"), val = tensor<fp32, [64, 1, 3, 3]>(BLOBFILE(path = string("@model_path/weights/weight.bin"), offset = uint64(875904)))];
            tensor<fp32, [64, 1, 1, 3]> model_enc_erb_conv1_erb_conv1_0_Conv_weight = const()[name = string("model_enc_erb_conv1_erb_conv1_0_Conv_weight"), val = tensor<fp32, [64, 1, 1, 3]>(BLOBFILE(path = string("@model_path/weights/weight.bin"), offset = uint64(878272)))];
            tensor<fp32, [64]> model_enc_erb_conv1_erb_conv1_1_Conv_bias = const()[name = string("model_enc_erb_conv1_erb_conv1_1_Conv_bias"), val = tensor<fp32, [64]>(BLOBFILE(path = string("@model_path/weights/weight.bin"), offset = uint64(879104)))];
            tensor<fp32, [64, 64, 1, 1]> model_enc_erb_conv1_erb_conv1_1_Conv_weight = const()[name = string("model_enc_erb_conv1_erb_conv1_1_Conv_weight"), val = tensor<fp32, [64, 64, 1, 1]>(BLOBFILE(path = string("@model_path/weights/weight.bin"), offset = uint64(879424)))];
            tensor<fp32, [64, 1, 1, 3]> model_enc_erb_conv2_erb_conv2_0_Conv_weight = const()[name = string("model_enc_erb_conv2_erb_conv2_0_Conv_weight"), val = tensor<fp32, [64, 1, 1, 3]>(BLOBFILE(path = string("@model_path/weights/weight.bin"), offset = uint64(895872)))];
            tensor<fp32, [64]> model_enc_erb_conv2_erb_conv2_1_Conv_bias = const()[name = string("model_enc_erb_conv2_erb_conv2_1_Conv_bias"), val = tensor<fp32, [64]>(BLOBFILE(path = string("@model_path/weights/weight.bin"), offset = uint64(896704)))];
            tensor<fp32, [64, 64, 1, 1]> model_enc_erb_conv2_erb_conv2_1_Conv_weight = const()[name = string("model_enc_erb_conv2_erb_conv2_1_Conv_weight"), val = tensor<fp32, [64, 64, 1, 1]>(BLOBFILE(path = string("@model_path/weights/weight.bin"), offset = uint64(897024)))];
            tensor<fp32, [64, 1, 1, 3]> model_enc_erb_conv3_erb_conv3_0_Conv_weight = const()[name = string("model_enc_erb_conv3_erb_conv3_0_Conv_weight"), val = tensor<fp32, [64, 1, 1, 3]>(BLOBFILE(path = string("@model_path/weights/weight.bin"), offset = uint64(913472)))];
            tensor<fp32, [64]> model_enc_erb_conv3_erb_conv3_1_Conv_bias = const()[name = string("model_enc_erb_conv3_erb_conv3_1_Conv_bias"), val = tensor<fp32, [64]>(BLOBFILE(path = string("@model_path/weights/weight.bin"), offset = uint64(914304)))];
            tensor<fp32, [64, 64, 1, 1]> model_enc_erb_conv3_erb_conv3_1_Conv_weight = const()[name = string("model_enc_erb_conv3_erb_conv3_1_Conv_weight"), val = tensor<fp32, [64, 64, 1, 1]>(BLOBFILE(path = string("@model_path/weights/weight.bin"), offset = uint64(914624)))];
            tensor<fp32, [64]> model_enc_dprnn_erb_blocks_0_ln_intra_LayerNormalization_bias = const()[name = string("model_enc_dprnn_erb_blocks_0_ln_intra_LayerNormalization_bias"), val = tensor<fp32, [64]>(BLOBFILE(path = string("@model_path/weights/weight.bin"), offset = uint64(931072)))];
            tensor<fp32, [64]> model_enc_dprnn_erb_blocks_0_ln_intra_LayerNormalization_weight = const()[name = string("model_enc_dprnn_erb_blocks_0_ln_intra_LayerNormalization_weight"), val = tensor<fp32, [64]>(BLOBFILE(path = string("@model_path/weights/weight.bin"), offset = uint64(931392)))];
            tensor<fp32, [192]> model_enc_dprnn_erb_blocks_0_inter_gru_grucell_Gemm_bias = const()[name = string("model_enc_dprnn_erb_blocks_0_inter_gru_grucell_Gemm_bias"), val = tensor<fp32, [192]>(BLOBFILE(path = string("@model_path/weights/weight.bin"), offset = uint64(931712)))];
            tensor<fp32, [192, 64]> model_enc_dprnn_erb_blocks_0_inter_gru_grucell_Gemm_weight = const()[name = string("model_enc_dprnn_erb_blocks_0_inter_gru_grucell_Gemm_weight"), val = tensor<fp32, [192, 64]>(BLOBFILE(path = string("@model_path/weights/weight.bin"), offset = uint64(932544)))];
            tensor<fp32, [192]> model_enc_dprnn_erb_blocks_0_inter_gru_grucell_Gemm_1_bias = const()[name = string("model_enc_dprnn_erb_blocks_0_inter_gru_grucell_Gemm_1_bias"), val = tensor<fp32, [192]>(BLOBFILE(path = string("@model_path/weights/weight.bin"), offset = uint64(981760)))];
            tensor<fp32, [192, 64]> model_enc_dprnn_erb_blocks_0_inter_gru_grucell_Gemm_1_weight = const()[name = string("model_enc_dprnn_erb_blocks_0_inter_gru_grucell_Gemm_1_weight"), val = tensor<fp32, [192, 64]>(BLOBFILE(path = string("@model_path/weights/weight.bin"), offset = uint64(982592)))];
            tensor<fp32, [64]> model_enc_dprnn_erb_blocks_0_fc_inter_Gemm_bias = const()[name = string("model_enc_dprnn_erb_blocks_0_fc_inter_Gemm_bias"), val = tensor<fp32, [64]>(BLOBFILE(path = string("@model_path/weights/weight.bin"), offset = uint64(1031808)))];
            tensor<fp32, [64, 64]> model_enc_dprnn_erb_blocks_0_fc_inter_Gemm_weight = const()[name = string("model_enc_dprnn_erb_blocks_0_fc_inter_Gemm_weight"), val = tensor<fp32, [64, 64]>(BLOBFILE(path = string("@model_path/weights/weight.bin"), offset = uint64(1032128)))];
            tensor<fp32, [64]> model_enc_dprnn_erb_blocks_0_ln_inter_LayerNormalization_bias = const()[name = string("model_enc_dprnn_erb_blocks_0_ln_inter_LayerNormalization_bias"), val = tensor<fp32, [64]>(BLOBFILE(path = string("@model_path/weights/weight.bin"), offset = uint64(1048576)))];
            tensor<fp32, [64]> model_enc_dprnn_erb_blocks_0_ln_inter_LayerNormalization_weight = const()[name = string("model_enc_dprnn_erb_blocks_0_ln_inter_LayerNormalization_weight"), val = tensor<fp32, [64]>(BLOBFILE(path = string("@model_path/weights/weight.bin"), offset = uint64(1048896)))];
            tensor<fp32, [64]> model_enc_dprnn_erb_blocks_1_ln_intra_LayerNormalization_bias = const()[name = string("model_enc_dprnn_erb_blocks_1_ln_intra_LayerNormalization_bias"), val = tensor<fp32, [64]>(BLOBFILE(path = string("@model_path/weights/weight.bin"), offset = uint64(1049216)))];
            tensor<fp32, [64]> model_enc_dprnn_erb_blocks_1_ln_intra_LayerNormalization_weight = const()[name = string("model_enc_dprnn_erb_blocks_1_ln_intra_LayerNormalization_weight"), val = tensor<fp32, [64]>(BLOBFILE(path = string("@model_path/weights/weight.bin"), offset = uint64(1049536)))];
            tensor<fp32, [192]> model_enc_dprnn_erb_blocks_1_inter_gru_grucell_Gemm_bias = const()[name = string("model_enc_dprnn_erb_blocks_1_inter_gru_grucell_Gemm_bias"), val = tensor<fp32, [192]>(BLOBFILE(path = string("@model_path/weights/weight.bin"), offset = uint64(1049856)))];
            tensor<fp32, [192, 64]> model_enc_dprnn_erb_blocks_1_inter_gru_grucell_Gemm_weight = const()[name = string("model_enc_dprnn_erb_blocks_1_inter_gru_grucell_Gemm_weight"), val = tensor<fp32, [192, 64]>(BLOBFILE(path = string("@model_path/weights/weight.bin"), offset = uint64(1050688)))];
            tensor<fp32, [192]> model_enc_dprnn_erb_blocks_1_inter_gru_grucell_Gemm_1_bias = const()[name = string("model_enc_dprnn_erb_blocks_1_inter_gru_grucell_Gemm_1_bias"), val = tensor<fp32, [192]>(BLOBFILE(path = string("@model_path/weights/weight.bin"), offset = uint64(1099904)))];
            tensor<fp32, [192, 64]> model_enc_dprnn_erb_blocks_1_inter_gru_grucell_Gemm_1_weight = const()[name = string("model_enc_dprnn_erb_blocks_1_inter_gru_grucell_Gemm_1_weight"), val = tensor<fp32, [192, 64]>(BLOBFILE(path = string("@model_path/weights/weight.bin"), offset = uint64(1100736)))];
            tensor<fp32, [64]> model_enc_dprnn_erb_blocks_1_fc_inter_Gemm_bias = const()[name = string("model_enc_dprnn_erb_blocks_1_fc_inter_Gemm_bias"), val = tensor<fp32, [64]>(BLOBFILE(path = string("@model_path/weights/weight.bin"), offset = uint64(1149952)))];
            tensor<fp32, [64, 64]> model_enc_dprnn_erb_blocks_1_fc_inter_Gemm_weight = const()[name = string("model_enc_dprnn_erb_blocks_1_fc_inter_Gemm_weight"), val = tensor<fp32, [64, 64]>(BLOBFILE(path = string("@model_path/weights/weight.bin"), offset = uint64(1150272)))];
            tensor<fp32, [64]> model_enc_dprnn_erb_blocks_1_ln_inter_LayerNormalization_bias = const()[name = string("model_enc_dprnn_erb_blocks_1_ln_inter_LayerNormalization_bias"), val = tensor<fp32, [64]>(BLOBFILE(path = string("@model_path/weights/weight.bin"), offset = uint64(1166720)))];
            tensor<fp32, [64]> model_enc_dprnn_erb_blocks_1_ln_inter_LayerNormalization_weight = const()[name = string("model_enc_dprnn_erb_blocks_1_ln_inter_LayerNormalization_weight"), val = tensor<fp32, [64]>(BLOBFILE(path = string("@model_path/weights/weight.bin"), offset = uint64(1167040)))];
            tensor<fp32, [32, 1, 3, 3]> model_enc_df_conv0_df_conv0_1_convs_0_Conv_weight = const()[name = string("model_enc_df_conv0_df_conv0_1_convs_0_Conv_weight"), val = tensor<fp32, [32, 1, 3, 3]>(BLOBFILE(path = string("@model_path/weights/weight.bin"), offset = uint64(1167360)))];
            tensor<fp32, [32, 1, 3, 3]> model_enc_df_conv0_df_conv0_1_convs_1_Conv_weight = const()[name = string("model_enc_df_conv0_df_conv0_1_convs_1_Conv_weight"), val = tensor<fp32, [32, 1, 3, 3]>(BLOBFILE(path = string("@model_path/weights/weight.bin"), offset = uint64(1168576)))];
            tensor<fp32, [64]> model_enc_df_conv0_df_conv0_2_Conv_bias = const()[name = string("model_enc_df_conv0_df_conv0_2_Conv_bias"), val = tensor<fp32, [64]>(BLOBFILE(path = string("@model_path/weights/weight.bin"), offset = uint64(1169792)))];
            tensor<fp32, [64, 64, 1, 1]> model_enc_df_conv0_df_conv0_2_Conv_weight = const()[name = string("model_enc_df_conv0_df_conv0_2_Conv_weight"), val = tensor<fp32, [64, 64, 1, 1]>(BLOBFILE(path = string("@model_path/weights/weight.bin"), offset = uint64(1170112)))];
            tensor<fp32, [64, 1, 1, 3]> model_enc_df_conv1_df_conv1_0_Conv_weight = const()[name = string("model_enc_df_conv1_df_conv1_0_Conv_weight"), val = tensor<fp32, [64, 1, 1, 3]>(BLOBFILE(path = string("@model_path/weights/weight.bin"), offset = uint64(1186560)))];
            tensor<fp32, [64]> model_enc_df_conv1_df_conv1_1_Conv_bias = const()[name = string("model_enc_df_conv1_df_conv1_1_Conv_bias"), val = tensor<fp32, [64]>(BLOBFILE(path = string("@model_path/weights/weight.bin"), offset = uint64(1187392)))];
            tensor<fp32, [64, 64, 1, 1]> model_enc_df_conv1_df_conv1_1_Conv_weight = const()[name = string("model_enc_df_conv1_df_conv1_1_Conv_weight"), val = tensor<fp32, [64, 64, 1, 1]>(BLOBFILE(path = string("@model_path/weights/weight.bin"), offset = uint64(1187712)))];
            tensor<fp32, [64]> model_enc_dprnn_df_blocks_0_ln_intra_LayerNormalization_bias = const()[name = string("model_enc_dprnn_df_blocks_0_ln_intra_LayerNormalization_bias"), val = tensor<fp32, [64]>(BLOBFILE(path = string("@model_path/weights/weight.bin"), offset = uint64(1204160)))];
            tensor<fp32, [64]> model_enc_dprnn_df_blocks_0_ln_intra_LayerNormalization_weight = const()[name = string("model_enc_dprnn_df_blocks_0_ln_intra_LayerNormalization_weight"), val = tensor<fp32, [64]>(BLOBFILE(path = string("@model_path/weights/weight.bin"), offset = uint64(1204480)))];
            tensor<fp32, [192]> model_enc_dprnn_df_blocks_0_inter_gru_grucell_Gemm_bias = const()[name = string("model_enc_dprnn_df_blocks_0_inter_gru_grucell_Gemm_bias"), val = tensor<fp32, [192]>(BLOBFILE(path = string("@model_path/weights/weight.bin"), offset = uint64(1204800)))];
            tensor<fp32, [192, 64]> model_enc_dprnn_df_blocks_0_inter_gru_grucell_Gemm_weight = const()[name = string("model_enc_dprnn_df_blocks_0_inter_gru_grucell_Gemm_weight"), val = tensor<fp32, [192, 64]>(BLOBFILE(path = string("@model_path/weights/weight.bin"), offset = uint64(1205632)))];
            tensor<fp32, [192]> model_enc_dprnn_df_blocks_0_inter_gru_grucell_Gemm_1_bias = const()[name = string("model_enc_dprnn_df_blocks_0_inter_gru_grucell_Gemm_1_bias"), val = tensor<fp32, [192]>(BLOBFILE(path = string("@model_path/weights/weight.bin"), offset = uint64(1254848)))];
            tensor<fp32, [192, 64]> model_enc_dprnn_df_blocks_0_inter_gru_grucell_Gemm_1_weight = const()[name = string("model_enc_dprnn_df_blocks_0_inter_gru_grucell_Gemm_1_weight"), val = tensor<fp32, [192, 64]>(BLOBFILE(path = string("@model_path/weights/weight.bin"), offset = uint64(1255680)))];
            tensor<fp32, [64]> model_enc_dprnn_df_blocks_0_fc_inter_Gemm_bias = const()[name = string("model_enc_dprnn_df_blocks_0_fc_inter_Gemm_bias"), val = tensor<fp32, [64]>(BLOBFILE(path = string("@model_path/weights/weight.bin"), offset = uint64(1304896)))];
            tensor<fp32, [64, 64]> model_enc_dprnn_df_blocks_0_fc_inter_Gemm_weight = const()[name = string("model_enc_dprnn_df_blocks_0_fc_inter_Gemm_weight"), val = tensor<fp32, [64, 64]>(BLOBFILE(path = string("@model_path/weights/weight.bin"), offset = uint64(1305216)))];
            tensor<fp32, [64]> model_enc_dprnn_df_blocks_0_ln_inter_LayerNormalization_bias = const()[name = string("model_enc_dprnn_df_blocks_0_ln_inter_LayerNormalization_bias"), val = tensor<fp32, [64]>(BLOBFILE(path = string("@model_path/weights/weight.bin"), offset = uint64(1321664)))];
            tensor<fp32, [64]> model_enc_dprnn_df_blocks_0_ln_inter_LayerNormalization_weight = const()[name = string("model_enc_dprnn_df_blocks_0_ln_inter_LayerNormalization_weight"), val = tensor<fp32, [64]>(BLOBFILE(path = string("@model_path/weights/weight.bin"), offset = uint64(1321984)))];
            tensor<fp32, [64]> model_enc_dprnn_df_blocks_1_ln_intra_LayerNormalization_bias = const()[name = string("model_enc_dprnn_df_blocks_1_ln_intra_LayerNormalization_bias"), val = tensor<fp32, [64]>(BLOBFILE(path = string("@model_path/weights/weight.bin"), offset = uint64(1322304)))];
            tensor<fp32, [64]> model_enc_dprnn_df_blocks_1_ln_intra_LayerNormalization_weight = const()[name = string("model_enc_dprnn_df_blocks_1_ln_intra_LayerNormalization_weight"), val = tensor<fp32, [64]>(BLOBFILE(path = string("@model_path/weights/weight.bin"), offset = uint64(1322624)))];
            tensor<fp32, [192]> model_enc_dprnn_df_blocks_1_inter_gru_grucell_Gemm_bias = const()[name = string("model_enc_dprnn_df_blocks_1_inter_gru_grucell_Gemm_bias"), val = tensor<fp32, [192]>(BLOBFILE(path = string("@model_path/weights/weight.bin"), offset = uint64(1322944)))];
            tensor<fp32, [192, 64]> model_enc_dprnn_df_blocks_1_inter_gru_grucell_Gemm_weight = const()[name = string("model_enc_dprnn_df_blocks_1_inter_gru_grucell_Gemm_weight"), val = tensor<fp32, [192, 64]>(BLOBFILE(path = string("@model_path/weights/weight.bin"), offset = uint64(1323776)))];
            tensor<fp32, [192]> model_enc_dprnn_df_blocks_1_inter_gru_grucell_Gemm_1_bias = const()[name = string("model_enc_dprnn_df_blocks_1_inter_gru_grucell_Gemm_1_bias"), val = tensor<fp32, [192]>(BLOBFILE(path = string("@model_path/weights/weight.bin"), offset = uint64(1372992)))];
            tensor<fp32, [192, 64]> model_enc_dprnn_df_blocks_1_inter_gru_grucell_Gemm_1_weight = const()[name = string("model_enc_dprnn_df_blocks_1_inter_gru_grucell_Gemm_1_weight"), val = tensor<fp32, [192, 64]>(BLOBFILE(path = string("@model_path/weights/weight.bin"), offset = uint64(1373824)))];
            tensor<fp32, [64]> model_enc_dprnn_df_blocks_1_fc_inter_Gemm_bias = const()[name = string("model_enc_dprnn_df_blocks_1_fc_inter_Gemm_bias"), val = tensor<fp32, [64]>(BLOBFILE(path = string("@model_path/weights/weight.bin"), offset = uint64(1423040)))];
            tensor<fp32, [64, 64]> model_enc_dprnn_df_blocks_1_fc_inter_Gemm_weight = const()[name = string("model_enc_dprnn_df_blocks_1_fc_inter_Gemm_weight"), val = tensor<fp32, [64, 64]>(BLOBFILE(path = string("@model_path/weights/weight.bin"), offset = uint64(1423360)))];
            tensor<fp32, [64]> model_enc_dprnn_df_blocks_1_ln_inter_LayerNormalization_bias = const()[name = string("model_enc_dprnn_df_blocks_1_ln_inter_LayerNormalization_bias"), val = tensor<fp32, [64]>(BLOBFILE(path = string("@model_path/weights/weight.bin"), offset = uint64(1439808)))];
            tensor<fp32, [64]> model_enc_dprnn_df_blocks_1_ln_inter_LayerNormalization_weight = const()[name = string("model_enc_dprnn_df_blocks_1_ln_inter_LayerNormalization_weight"), val = tensor<fp32, [64]>(BLOBFILE(path = string("@model_path/weights/weight.bin"), offset = uint64(1440128)))];
            tensor<fp32, [768]> model_enc_emb_gru_gru_0_grucell_Gemm_bias = const()[name = string("model_enc_emb_gru_gru_0_grucell_Gemm_bias"), val = tensor<fp32, [768]>(BLOBFILE(path = string("@model_path/weights/weight.bin"), offset = uint64(1440448)))];
            tensor<fp32, [768, 256]> model_enc_emb_gru_gru_0_grucell_Gemm_weight = const()[name = string("model_enc_emb_gru_gru_0_grucell_Gemm_weight"), val = tensor<fp32, [768, 256]>(BLOBFILE(path = string("@model_path/weights/weight.bin"), offset = uint64(1443584)))];
            tensor<fp32, [768]> model_enc_emb_gru_gru_0_grucell_Gemm_1_bias = const()[name = string("model_enc_emb_gru_gru_0_grucell_Gemm_1_bias"), val = tensor<fp32, [768]>(BLOBFILE(path = string("@model_path/weights/weight.bin"), offset = uint64(2230080)))];
            tensor<fp32, [768, 256]> model_enc_emb_gru_gru_0_grucell_Gemm_1_weight = const()[name = string("model_enc_emb_gru_gru_0_grucell_Gemm_1_weight"), val = tensor<fp32, [768, 256]>(BLOBFILE(path = string("@model_path/weights/weight.bin"), offset = uint64(2233216)))];
            tensor<fp32, [768]> model_erb_dec_emb_gru_gru_0_grucell_Gemm_bias = const()[name = string("model_erb_dec_emb_gru_gru_0_grucell_Gemm_bias"), val = tensor<fp32, [768]>(BLOBFILE(path = string("@model_path/weights/weight.bin"), offset = uint64(3019712)))];
            tensor<fp32, [768, 256]> model_erb_dec_emb_gru_gru_0_grucell_Gemm_weight = const()[name = string("model_erb_dec_emb_gru_gru_0_grucell_Gemm_weight"), val = tensor<fp32, [768, 256]>(BLOBFILE(path = string("@model_path/weights/weight.bin"), offset = uint64(3022848)))];
            tensor<fp32, [768]> model_erb_dec_emb_gru_gru_0_grucell_Gemm_1_bias = const()[name = string("model_erb_dec_emb_gru_gru_0_grucell_Gemm_1_bias"), val = tensor<fp32, [768]>(BLOBFILE(path = string("@model_path/weights/weight.bin"), offset = uint64(3809344)))];
            tensor<fp32, [768, 256]> model_erb_dec_emb_gru_gru_0_grucell_Gemm_1_weight = const()[name = string("model_erb_dec_emb_gru_gru_0_grucell_Gemm_1_weight"), val = tensor<fp32, [768, 256]>(BLOBFILE(path = string("@model_path/weights/weight.bin"), offset = uint64(3812480)))];
            tensor<fp32, [768]> model_erb_dec_emb_gru_gru_1_grucell_Gemm_bias = const()[name = string("model_erb_dec_emb_gru_gru_1_grucell_Gemm_bias"), val = tensor<fp32, [768]>(BLOBFILE(path = string("@model_path/weights/weight.bin"), offset = uint64(4598976)))];
            tensor<fp32, [768, 256]> model_erb_dec_emb_gru_gru_1_grucell_Gemm_weight = const()[name = string("model_erb_dec_emb_gru_gru_1_grucell_Gemm_weight"), val = tensor<fp32, [768, 256]>(BLOBFILE(path = string("@model_path/weights/weight.bin"), offset = uint64(4602112)))];
            tensor<fp32, [768]> model_erb_dec_emb_gru_gru_1_grucell_Gemm_1_bias = const()[name = string("model_erb_dec_emb_gru_gru_1_grucell_Gemm_1_bias"), val = tensor<fp32, [768]>(BLOBFILE(path = string("@model_path/weights/weight.bin"), offset = uint64(5388608)))];
            tensor<fp32, [768, 256]> model_erb_dec_emb_gru_gru_1_grucell_Gemm_1_weight = const()[name = string("model_erb_dec_emb_gru_gru_1_grucell_Gemm_1_weight"), val = tensor<fp32, [768, 256]>(BLOBFILE(path = string("@model_path/weights/weight.bin"), offset = uint64(5391744)))];
            tensor<fp32, [64]> model_erb_dec_conv3p_conv3p_0_Conv_bias = const()[name = string("model_erb_dec_conv3p_conv3p_0_Conv_bias"), val = tensor<fp32, [64]>(BLOBFILE(path = string("@model_path/weights/weight.bin"), offset = uint64(6178240)))];
            tensor<fp32, [64, 1, 1, 1]> model_erb_dec_conv3p_conv3p_0_Conv_weight = const()[name = string("model_erb_dec_conv3p_conv3p_0_Conv_weight"), val = tensor<fp32, [64, 1, 1, 1]>(BLOBFILE(path = string("@model_path/weights/weight.bin"), offset = uint64(6178560)))];
            tensor<fp32, [64, 1, 1, 3]> model_erb_dec_convt3_convt3_0_convs_0_Conv_weight = const()[name = string("model_erb_dec_convt3_convt3_0_convs_0_Conv_weight"), val = tensor<fp32, [64, 1, 1, 3]>(BLOBFILE(path = string("@model_path/weights/weight.bin"), offset = uint64(6178880)))];
            tensor<fp32, [64, 1, 1, 3]> model_erb_dec_convt3_convt3_0_convs_1_Conv_weight = const()[name = string("model_erb_dec_convt3_convt3_0_convs_1_Conv_weight"), val = tensor<fp32, [64, 1, 1, 3]>(BLOBFILE(path = string("@model_path/weights/weight.bin"), offset = uint64(6179712)))];
            tensor<fp32, [64]> model_erb_dec_convt3_convt3_1_Conv_bias = const()[name = string("model_erb_dec_convt3_convt3_1_Conv_bias"), val = tensor<fp32, [64]>(BLOBFILE(path = string("@model_path/weights/weight.bin"), offset = uint64(6180544)))];
            tensor<fp32, [64, 64, 1, 1]> model_erb_dec_convt3_convt3_1_Conv_weight = const()[name = string("model_erb_dec_convt3_convt3_1_Conv_weight"), val = tensor<fp32, [64, 64, 1, 1]>(BLOBFILE(path = string("@model_path/weights/weight.bin"), offset = uint64(6180864)))];
            tensor<fp32, [64]> model_erb_dec_conv2p_conv2p_0_Conv_bias = const()[name = string("model_erb_dec_conv2p_conv2p_0_Conv_bias"), val = tensor<fp32, [64]>(BLOBFILE(path = string("@model_path/weights/weight.bin"), offset = uint64(6197312)))];
            tensor<fp32, [64, 1, 1, 1]> model_erb_dec_conv2p_conv2p_0_Conv_weight = const()[name = string("model_erb_dec_conv2p_conv2p_0_Conv_weight"), val = tensor<fp32, [64, 1, 1, 1]>(BLOBFILE(path = string("@model_path/weights/weight.bin"), offset = uint64(6197632)))];
            tensor<fp32, [64, 1, 1, 3]> model_erb_dec_convt2_convt2_0_convs_0_Conv_weight = const()[name = string("model_erb_dec_convt2_convt2_0_convs_0_Conv_weight"), val = tensor<fp32, [64, 1, 1, 3]>(BLOBFILE(path = string("@model_path/weights/weight.bin"), offset = uint64(6197952)))];
            tensor<fp32, [64, 1, 1, 3]> model_erb_dec_convt2_convt2_0_convs_1_Conv_weight = const()[name = string("model_erb_dec_convt2_convt2_0_convs_1_Conv_weight"), val = tensor<fp32, [64, 1, 1, 3]>(BLOBFILE(path = string("@model_path/weights/weight.bin"), offset = uint64(6198784)))];
            tensor<fp32, [64]> model_erb_dec_convt2_convt2_1_Conv_bias = const()[name = string("model_erb_dec_convt2_convt2_1_Conv_bias"), val = tensor<fp32, [64]>(BLOBFILE(path = string("@model_path/weights/weight.bin"), offset = uint64(6199616)))];
            tensor<fp32, [64, 64, 1, 1]> model_erb_dec_convt2_convt2_1_Conv_weight = const()[name = string("model_erb_dec_convt2_convt2_1_Conv_weight"), val = tensor<fp32, [64, 64, 1, 1]>(BLOBFILE(path = string("@model_path/weights/weight.bin"), offset = uint64(6199936)))];
            tensor<fp32, [64]> model_erb_dec_conv1p_conv1p_0_Conv_bias = const()[name = string("model_erb_dec_conv1p_conv1p_0_Conv_bias"), val = tensor<fp32, [64]>(BLOBFILE(path = string("@model_path/weights/weight.bin"), offset = uint64(6216384)))];
            tensor<fp32, [64, 1, 1, 1]> model_erb_dec_conv1p_conv1p_0_Conv_weight = const()[name = string("model_erb_dec_conv1p_conv1p_0_Conv_weight"), val = tensor<fp32, [64, 1, 1, 1]>(BLOBFILE(path = string("@model_path/weights/weight.bin"), offset = uint64(6216704)))];
            tensor<fp32, [64, 1, 1, 3]> model_erb_dec_convt1_convt1_0_convs_0_Conv_weight = const()[name = string("model_erb_dec_convt1_convt1_0_convs_0_Conv_weight"), val = tensor<fp32, [64, 1, 1, 3]>(BLOBFILE(path = string("@model_path/weights/weight.bin"), offset = uint64(6217024)))];
            tensor<fp32, [64, 1, 1, 3]> model_erb_dec_convt1_convt1_0_convs_1_Conv_weight = const()[name = string("model_erb_dec_convt1_convt1_0_convs_1_Conv_weight"), val = tensor<fp32, [64, 1, 1, 3]>(BLOBFILE(path = string("@model_path/weights/weight.bin"), offset = uint64(6217856)))];
            tensor<fp32, [64, 1, 1, 3]> model_erb_dec_convt1_convt1_0_convs_2_Conv_weight = const()[name = string("model_erb_dec_convt1_convt1_0_convs_2_Conv_weight"), val = tensor<fp32, [64, 1, 1, 3]>(BLOBFILE(path = string("@model_path/weights/weight.bin"), offset = uint64(6218688)))];
            tensor<fp32, [64]> model_erb_dec_convt1_convt1_1_Conv_bias = const()[name = string("model_erb_dec_convt1_convt1_1_Conv_bias"), val = tensor<fp32, [64]>(BLOBFILE(path = string("@model_path/weights/weight.bin"), offset = uint64(6219520)))];
            tensor<fp32, [64, 64, 1, 1]> model_erb_dec_convt1_convt1_1_Conv_weight = const()[name = string("model_erb_dec_convt1_convt1_1_Conv_weight"), val = tensor<fp32, [64, 64, 1, 1]>(BLOBFILE(path = string("@model_path/weights/weight.bin"), offset = uint64(6219840)))];
            tensor<fp32, [64]> model_erb_dec_conv0p_conv0p_0_Conv_bias = const()[name = string("model_erb_dec_conv0p_conv0p_0_Conv_bias"), val = tensor<fp32, [64]>(BLOBFILE(path = string("@model_path/weights/weight.bin"), offset = uint64(6236288)))];
            tensor<fp32, [64, 1, 1, 1]> model_erb_dec_conv0p_conv0p_0_Conv_weight = const()[name = string("model_erb_dec_conv0p_conv0p_0_Conv_weight"), val = tensor<fp32, [64, 1, 1, 1]>(BLOBFILE(path = string("@model_path/weights/weight.bin"), offset = uint64(6236608)))];
            tensor<fp32, [1]> model_erb_dec_conv0_out_conv0_out_0_Conv_bias = const()[name = string("model_erb_dec_conv0_out_conv0_out_0_Conv_bias"), val = tensor<fp32, [1]>([0x1.361d84p-2])];
            tensor<fp32, [1, 64, 1, 3]> model_erb_dec_conv0_out_conv0_out_0_Conv_weight = const()[name = string("model_erb_dec_conv0_out_conv0_out_0_Conv_weight"), val = tensor<fp32, [1, 64, 1, 3]>(BLOBFILE(path = string("@model_path/weights/weight.bin"), offset = uint64(6236928)))];
            tensor<fp32, [768]> model_df_dec_df_gru_gru_0_grucell_Gemm_bias = const()[name = string("model_df_dec_df_gru_gru_0_grucell_Gemm_bias"), val = tensor<fp32, [768]>(BLOBFILE(path = string("@model_path/weights/weight.bin"), offset = uint64(6237760)))];
            tensor<fp32, [768, 256]> model_df_dec_df_gru_gru_0_grucell_Gemm_weight = const()[name = string("model_df_dec_df_gru_gru_0_grucell_Gemm_weight"), val = tensor<fp32, [768, 256]>(BLOBFILE(path = string("@model_path/weights/weight.bin"), offset = uint64(6240896)))];
            tensor<fp32, [768]> model_df_dec_df_gru_gru_0_grucell_Gemm_1_bias = const()[name = string("model_df_dec_df_gru_gru_0_grucell_Gemm_1_bias"), val = tensor<fp32, [768]>(BLOBFILE(path = string("@model_path/weights/weight.bin"), offset = uint64(7027392)))];
            tensor<fp32, [768, 256]> model_df_dec_df_gru_gru_0_grucell_Gemm_1_weight = const()[name = string("model_df_dec_df_gru_gru_0_grucell_Gemm_1_weight"), val = tensor<fp32, [768, 256]>(BLOBFILE(path = string("@model_path/weights/weight.bin"), offset = uint64(7030528)))];
            tensor<fp32, [768]> model_df_dec_df_gru_gru_1_grucell_Gemm_bias = const()[name = string("model_df_dec_df_gru_gru_1_grucell_Gemm_bias"), val = tensor<fp32, [768]>(BLOBFILE(path = string("@model_path/weights/weight.bin"), offset = uint64(7817024)))];
            tensor<fp32, [768, 256]> model_df_dec_df_gru_gru_1_grucell_Gemm_weight = const()[name = string("model_df_dec_df_gru_gru_1_grucell_Gemm_weight"), val = tensor<fp32, [768, 256]>(BLOBFILE(path = string("@model_path/weights/weight.bin"), offset = uint64(7820160)))];
            tensor<fp32, [768]> model_df_dec_df_gru_gru_1_grucell_Gemm_1_bias = const()[name = string("model_df_dec_df_gru_gru_1_grucell_Gemm_1_bias"), val = tensor<fp32, [768]>(BLOBFILE(path = string("@model_path/weights/weight.bin"), offset = uint64(8606656)))];
            tensor<fp32, [768, 256]> model_df_dec_df_gru_gru_1_grucell_Gemm_1_weight = const()[name = string("model_df_dec_df_gru_gru_1_grucell_Gemm_1_weight"), val = tensor<fp32, [768, 256]>(BLOBFILE(path = string("@model_path/weights/weight.bin"), offset = uint64(8609792)))];
            tensor<fp32, [5, 32, 5, 1]> model_df_dec_df_convp_df_convp_1_convs_0_Conv_weight = const()[name = string("model_df_dec_df_convp_df_convp_1_convs_0_Conv_weight"), val = tensor<fp32, [5, 32, 5, 1]>(BLOBFILE(path = string("@model_path/weights/weight.bin"), offset = uint64(9396288)))];
            tensor<fp32, [5, 32, 5, 1]> model_df_dec_df_convp_df_convp_1_convs_1_Conv_weight = const()[name = string("model_df_dec_df_convp_df_convp_1_convs_1_Conv_weight"), val = tensor<fp32, [5, 32, 5, 1]>(BLOBFILE(path = string("@model_path/weights/weight.bin"), offset = uint64(9399552)))];
            tensor<fp32, [10]> model_df_dec_df_convp_df_convp_2_Conv_bias = const()[name = string("model_df_dec_df_convp_df_convp_2_Conv_bias"), val = tensor<fp32, [10]>(BLOBFILE(path = string("@model_path/weights/weight.bin"), offset = uint64(9402816)))];
            tensor<fp32, [10, 10, 1, 1]> model_df_dec_df_convp_df_convp_2_Conv_weight = const()[name = string("model_df_dec_df_convp_df_convp_2_Conv_weight"), val = tensor<fp32, [10, 10, 1, 1]>(BLOBFILE(path = string("@model_path/weights/weight.bin"), offset = uint64(9402944)))];
            tensor<fp32, [1, 1, 481, 2]> input_tensor_1 = mul(x = spec, y = initializers_onnx_initializer_0)[name = string("input_tensor_1")];
            tensor<fp32, [1, 1, 481, 2]> input_tensor_3 = pow(x = input_tensor_1, y = initializers_onnx_initializer_1)[name = string("input_tensor_3")];
            tensor<int32, [1]> input_tensor_5_axes_0 = const()[name = string("input_tensor_5_axes_0"), val = tensor<int32, [1]>([-1])];
            bool input_tensor_5_keep_dims_0 = const()[name = string("input_tensor_5_keep_dims_0"), val = bool(false)];
            tensor<fp32, [1, 1, 481]> input_tensor_5 = reduce_sum(axes = input_tensor_5_axes_0, keep_dims = input_tensor_5_keep_dims_0, x = input_tensor_3)[name = string("input_tensor_5")];
            tensor<fp32, [1, 1, 481]> first_1 = sqrt(x = input_tensor_5)[name = string("first_1")];
            tensor<fp32, [1, 1, 481]> input_tensor_7 = add(x = first_1, y = initializers_onnx_initializer_2)[name = string("input_tensor_7")];
            fp32 first_3_epsilon_0 = const()[name = string("first_3_epsilon_0"), val = fp32(0x1p-149)];
            tensor<fp32, [1, 1, 481]> first_3 = log(epsilon = first_3_epsilon_0, x = input_tensor_7)[name = string("first_3")];
            tensor<fp32, [1]> _inversed_first_5_y_0 = const()[name = string("_inversed_first_5_y_0"), val = tensor<fp32, [1]>([0x1.bcb7bp-2])];
            tensor<fp32, [1, 1, 481]> _inversed_first_5 = mul(x = first_3, y = _inversed_first_5_y_0)[name = string("_inversed_first_5")];
            tensor<fp32, [1, 1, 481]> first_9 = mul(x = _inversed_first_5, y = initializers_onnx_initializer_4)[name = string("first_9")];
            tensor<int32, [4]> input_tensor_13_begin_0 = const()[name = string("input_tensor_13_begin_0"), val = tensor<int32, [4]>([0, 0, 0, 0])];
            tensor<int32, [4]> input_tensor_13_end_0 = const()[name = string("input_tensor_13_end_0"), val = tensor<int32, [4]>([1, 1, 96, 2])];
            tensor<bool, [4]> input_tensor_13_end_mask_0 = const()[name = string("input_tensor_13_end_mask_0"), val = tensor<bool, [4]>([true, true, false, true])];
            tensor<fp32, [1, 1, 96, 2]> input_tensor_13 = slice_by_index(begin = input_tensor_13_begin_0, end = input_tensor_13_end_0, end_mask = input_tensor_13_end_mask_0, x = input_tensor_1)[name = string("input_tensor_13")];
            tensor<int32, [1]> input_tensor_9_begin_0 = const()[name = string("input_tensor_9_begin_0"), val = tensor<int32, [1]>([0])];
            tensor<int32, [1]> input_tensor_9_end_0 = const()[name = string("input_tensor_9_end_0"), val = tensor<int32, [1]>([481])];
            tensor<bool, [1]> input_tensor_9_end_mask_0 = const()[name = string("input_tensor_9_end_mask_0"), val = tensor<bool, [1]>([false])];
            tensor<fp32, [481]> input_tensor_9 = slice_by_index(begin = input_tensor_9_begin_0, end = input_tensor_9_end_0, end_mask = input_tensor_9_end_mask_0, x = state_in)[name = string("input_tensor_9")];
            tensor<int32, [3]> var_546 = const()[name = string("op_546"), val = tensor<int32, [3]>([1, 1, 481])];
            tensor<fp32, [1, 1, 481]> first_7 = reshape(shape = var_546, x = input_tensor_9)[name = string("first_7")];
            tensor<fp32, [1, 1, 481]> first_11 = mul(x = first_7, y = initializers_onnx_initializer_14)[name = string("first_11")];
            tensor<fp32, [1, 1, 481]> second_13 = mul(x = first_9, y = initializers_onnx_initializer_15)[name = string("second_13")];
            tensor<fp32, [1, 1, 481]> input_tensor_11 = add(x = first_11, y = second_13)[name = string("input_tensor_11")];
            tensor<int32, [1]> var_556 = const()[name = string("op_556"), val = tensor<int32, [1]>([-1])];
            tensor<fp32, [481]> var_557 = reshape(shape = var_556, x = input_tensor_11)[name = string("op_557")];
            tensor<fp32, [1, 1, 481]> first_13 = sub(x = first_9, y = input_tensor_11)[name = string("first_13")];
            tensor<fp32, [1, 1, 481]> _inversed_input_tensor_27_y_0 = const()[name = string("_inversed_input_tensor_27_y_0"), val = tensor<fp32, [1, 1, 481]>(BLOBFILE(path = string("@model_path/weights/weight.bin"), offset = uint64(9403456)))];
            tensor<fp32, [1, 1, 481]> _inversed_input_tensor_27 = mul(x = first_13, y = _inversed_input_tensor_27_y_0)[name = string("_inversed_input_tensor_27")];
            tensor<fp32, [1, 1, 96, 2]> input_tensor_15 = pow(x = input_tensor_13, y = initializers_onnx_initializer_18)[name = string("input_tensor_15")];
            tensor<int32, [1]> input_tensor_17_axes_0 = const()[name = string("input_tensor_17_axes_0"), val = tensor<int32, [1]>([-1])];
            bool input_tensor_17_keep_dims_0 = const()[name = string("input_tensor_17_keep_dims_0"), val = bool(false)];
            tensor<fp32, [1, 1, 96]> input_tensor_17 = reduce_sum(axes = input_tensor_17_axes_0, keep_dims = input_tensor_17_keep_dims_0, x = input_tensor_15)[name = string("input_tensor_17")];
            tensor<fp32, [1, 1, 96]> first_17 = sqrt(x = input_tensor_17)[name = string("first_17")];
            tensor<int32, [1]> input_tensor_19_begin_0 = const()[name = string("input_tensor_19_begin_0"), val = tensor<int32, [1]>([481])];
            tensor<int32, [1]> input_tensor_19_end_0 = const()[name = string("input_tensor_19_end_0"), val = tensor<int32, [1]>([577])];
            tensor<bool, [1]> input_tensor_19_end_mask_0 = const()[name = string("input_tensor_19_end_mask_0"), val = tensor<bool, [1]>([false])];
            tensor<fp32, [96]> input_tensor_19 = slice_by_index(begin = input_tensor_19_begin_0, end = input_tensor_19_end_0, end_mask = input_tensor_19_end_mask_0, x = state_in)[name = string("input_tensor_19")];
            tensor<int32, [3]> var_585 = const()[name = string("op_585"), val = tensor<int32, [3]>([1, 1, 96])];
            tensor<fp32, [1, 1, 96]> first_15 = reshape(shape = var_585, x = input_tensor_19)[name = string("first_15")];
            tensor<fp32, [1, 1, 96]> first_19 = mul(x = first_15, y = initializers_onnx_initializer_24)[name = string("first_19")];
            tensor<fp32, [1, 1, 96]> second_21 = mul(x = first_17, y = initializers_onnx_initializer_25)[name = string("second_21")];
            tensor<fp32, [1, 1, 96]> first_21 = add(x = first_19, y = second_21)[name = string("first_21")];
            tensor<fp32, [1, 1, 96]> input_tensor_21 = add(x = first_21, y = initializers_onnx_initializer_26)[name = string("input_tensor_21")];
            tensor<fp32, [1, 1, 96]> second_25 = sqrt(x = input_tensor_21)[name = string("second_25")];
            tensor<int32, [4]> first_23_begin_0 = const()[name = string("first_23_begin_0"), val = tensor<int32, [4]>([0, 0, 0, 0])];
            tensor<int32, [4]> first_23_end_0 = const()[name = string("first_23_end_0"), val = tensor<int32, [4]>([1, 1, 96, 1])];
            tensor<bool, [4]> first_23_end_mask_0 = const()[name = string("first_23_end_mask_0"), val = tensor<bool, [4]>([true, true, true, false])];
            tensor<bool, [4]> first_23_squeeze_mask_0 = const()[name = string("first_23_squeeze_mask_0"), val = tensor<bool, [4]>([false, false, false, true])];
            tensor<fp32, [1, 1, 96]> first_23 = slice_by_index(begin = first_23_begin_0, end = first_23_end_0, end_mask = first_23_end_mask_0, squeeze_mask = first_23_squeeze_mask_0, x = input_tensor_13)[name = string("first_23")];
            tensor<fp32, [1, 1, 96]> input_tensor_23 = real_div(x = first_23, y = second_25)[name = string("input_tensor_23")];
            tensor<int32, [4]> first_25_begin_0 = const()[name = string("first_25_begin_0"), val = tensor<int32, [4]>([0, 0, 0, 1])];
            tensor<int32, [4]> first_25_end_0 = const()[name = string("first_25_end_0"), val = tensor<int32, [4]>([1, 1, 96, 2])];
            tensor<bool, [4]> first_25_end_mask_0 = const()[name = string("first_25_end_mask_0"), val = tensor<bool, [4]>([true, true, true, false])];
            tensor<bool, [4]> first_25_squeeze_mask_0 = const()[name = string("first_25_squeeze_mask_0"), val = tensor<bool, [4]>([false, false, false, true])];
            tensor<fp32, [1, 1, 96]> first_25 = slice_by_index(begin = first_25_begin_0, end = first_25_end_0, end_mask = first_25_end_mask_0, squeeze_mask = first_25_squeeze_mask_0, x = input_tensor_13)[name = string("first_25")];
            tensor<fp32, [1, 1, 96]> input_tensor_25 = real_div(x = first_25, y = second_25)[name = string("input_tensor_25")];
            tensor<int32, [1]> var_625_axes_0 = const()[name = string("op_625_axes_0"), val = tensor<int32, [1]>([-1])];
            tensor<fp32, [1, 1, 96, 1]> var_625 = expand_dims(axes = var_625_axes_0, x = input_tensor_23)[name = string("op_625")];
            tensor<int32, [1]> var_627_axes_0 = const()[name = string("op_627_axes_0"), val = tensor<int32, [1]>([-1])];
            tensor<fp32, [1, 1, 96, 1]> var_627 = expand_dims(axes = var_627_axes_0, x = input_tensor_25)[name = string("op_627")];
            int32 var_628 = const()[name = string("op_628"), val = int32(-1)];
            bool input_tensor_95_interleave_0 = const()[name = string("input_tensor_95_interleave_0"), val = bool(false)];
            tensor<fp32, [1, 1, 96, 2]> input_tensor_95 = concat(axis = var_628, interleave = input_tensor_95_interleave_0, values = (var_625, var_627))[name = string("input_tensor_95")];
            tensor<int32, [1]> var_635 = const()[name = string("op_635"), val = tensor<int32, [1]>([-1])];
            tensor<fp32, [96]> var_636 = reshape(shape = var_635, x = first_21)[name = string("op_636")];
            tensor<int32, [1]> input_tensor_283_axes_0 = const()[name = string("input_tensor_283_axes_0"), val = tensor<int32, [1]>([1])];
            tensor<fp32, [1, 1, 1, 481, 2]> input_tensor_283 = expand_dims(axes = input_tensor_283_axes_0, x = input_tensor_1)[name = string("input_tensor_283")];
            tensor<int32, [1]> input_tensor_29_axes_0 = const()[name = string("input_tensor_29_axes_0"), val = tensor<int32, [1]>([1])];
            tensor<fp32, [1, 1, 1, 481]> input_tensor_29 = expand_dims(axes = input_tensor_29_axes_0, x = _inversed_input_tensor_27)[name = string("input_tensor_29")];
            tensor<int32, [4]> var_645 = const()[name = string("op_645"), val = tensor<int32, [4]>([2, 0, 1, 3])];
            tensor<int32, [1]> input_tensor_31_begin_0 = const()[name = string("input_tensor_31_begin_0"), val = tensor<int32, [1]>([577])];
            tensor<int32, [1]> input_tensor_31_end_0 = const()[name = string("input_tensor_31_end_0"), val = tensor<int32, [1]>([2020])];
            tensor<bool, [1]> input_tensor_31_end_mask_0 = const()[name = string("input_tensor_31_end_mask_0"), val = tensor<bool, [1]>([false])];
            tensor<fp32, [1443]> input_tensor_31 = slice_by_index(begin = input_tensor_31_begin_0, end = input_tensor_31_end_0, end_mask = input_tensor_31_end_mask_0, x = state_in)[name = string("input_tensor_31")];
            tensor<int32, [4]> var_666 = const()[name = string("op_666"), val = tensor<int32, [4]>([3, 1, 1, 481])];
            tensor<fp32, [3, 1, 1, 481]> x_1 = reshape(shape = var_666, x = input_tensor_31)[name = string("x_1")];
            tensor<int32, [4]> var_676_begin_0 = const()[name = string("op_676_begin_0"), val = tensor<int32, [4]>([1, 0, 0, 0])];
            tensor<int32, [4]> var_676_end_0 = const()[name = string("op_676_end_0"), val = tensor<int32, [4]>([1, 1, 1, 481])];
            tensor<bool, [4]> var_676_end_mask_0 = const()[name = string("op_676_end_mask_0"), val = tensor<bool, [4]>([true, true, true, true])];
            tensor<fp32, [2, 1, 1, 481]> var_676 = slice_by_index(begin = var_676_begin_0, end = var_676_end_0, end_mask = var_676_end_mask_0, x = x_1)[name = string("op_676")];
            int32 var_677 = const()[name = string("op_677"), val = int32(0)];
            bool x_3_interleave_0 = const()[name = string("x_3_interleave_0"), val = bool(false)];
            tensor<fp32, [1, 1, 1, 481]> var_646 = transpose(perm = var_645, x = input_tensor_29)[name = string("transpose_50")];
            tensor<fp32, [3, 1, 1, 481]> x_3 = concat(axis = var_677, interleave = x_3_interleave_0, values = (var_676, var_646))[name = string("x_3")];
            tensor<int32, [4]> var_693 = const()[name = string("op_693"), val = tensor<int32, [4]>([1, 2, 0, 3])];
            tensor<int32, [1]> var_699 = const()[name = string("op_699"), val = tensor<int32, [1]>([-1])];
            tensor<fp32, [1443]> var_700 = reshape(shape = var_699, x = x_3)[name = string("op_700")];
            tensor<int32, [4]> input_1_begin_0 = const()[name = string("input_1_begin_0"), val = tensor<int32, [4]>([0, 0, 0, 0])];
            tensor<int32, [4]> input_1_end_0 = const()[name = string("input_1_end_0"), val = tensor<int32, [4]>([1, 1, 3, 480])];
            tensor<bool, [4]> input_1_end_mask_0 = const()[name = string("input_1_end_mask_0"), val = tensor<bool, [4]>([true, true, true, false])];
            tensor<fp32, [1, 1, 3, 481]> x_5 = transpose(perm = var_693, x = x_3)[name = string("transpose_49")];
            tensor<fp32, [1, 1, 3, 480]> input_1 = slice_by_index(begin = input_1_begin_0, end = input_1_end_0, end_mask = input_1_end_mask_0, x = x_5)[name = string("input_1")];
            string input_3_pad_type_0 = const()[name = string("input_3_pad_type_0"), val = string("custom")];
            tensor<int32, [4]> input_3_pad_0 = const()[name = string("input_3_pad_0"), val = tensor<int32, [4]>([0, 0, 1, 1])];
            tensor<int32, [2]> input_3_strides_0 = const()[name = string("input_3_strides_0"), val = tensor<int32, [2]>([1, 1])];
            tensor<int32, [2]> input_3_dilations_0 = const()[name = string("input_3_dilations_0"), val = tensor<int32, [2]>([1, 1])];
            int32 input_3_groups_0 = const()[name = string("input_3_groups_0"), val = int32(1)];
            tensor<fp32, [1, 64, 1, 480]> input_3 = conv(bias = model_enc_erb_conv0_erb_conv0_1_Conv_bias, dilations = input_3_dilations_0, groups = input_3_groups_0, pad = input_3_pad_0, pad_type = input_3_pad_type_0, strides = input_3_strides_0, weight = model_enc_erb_conv0_erb_conv0_1_Conv_weight, x = input_1)[name = string("input_3")];
            tensor<fp32, [1, 64, 1, 480]> input_5 = relu(x = input_3)[name = string("input_5")];
            string input_7_pad_type_0 = const()[name = string("input_7_pad_type_0"), val = string("custom")];
            tensor<int32, [4]> input_7_pad_0 = const()[name = string("input_7_pad_0"), val = tensor<int32, [4]>([0, 0, 1, 1])];
            tensor<int32, [2]> input_7_strides_0 = const()[name = string("input_7_strides_0"), val = tensor<int32, [2]>([1, 3])];
            int32 input_7_groups_0 = const()[name = string("input_7_groups_0"), val = int32(64)];
            tensor<int32, [2]> input_7_dilations_0 = const()[name = string("input_7_dilations_0"), val = tensor<int32, [2]>([1, 1])];
            tensor<fp32, [1, 64, 1, 160]> input_7 = conv(dilations = input_7_dilations_0, groups = input_7_groups_0, pad = input_7_pad_0, pad_type = input_7_pad_type_0, strides = input_7_strides_0, weight = model_enc_erb_conv1_erb_conv1_0_Conv_weight, x = input_5)[name = string("input_7")];
            string input_9_pad_type_0 = const()[name = string("input_9_pad_type_0"), val = string("valid")];
            tensor<int32, [2]> input_9_strides_0 = const()[name = string("input_9_strides_0"), val = tensor<int32, [2]>([1, 1])];
            tensor<int32, [4]> input_9_pad_0 = const()[name = string("input_9_pad_0"), val = tensor<int32, [4]>([0, 0, 0, 0])];
            tensor<int32, [2]> input_9_dilations_0 = const()[name = string("input_9_dilations_0"), val = tensor<int32, [2]>([1, 1])];
            int32 input_9_groups_0 = const()[name = string("input_9_groups_0"), val = int32(1)];
            tensor<fp32, [1, 64, 1, 160]> input_9 = conv(bias = model_enc_erb_conv1_erb_conv1_1_Conv_bias, dilations = input_9_dilations_0, groups = input_9_groups_0, pad = input_9_pad_0, pad_type = input_9_pad_type_0, strides = input_9_strides_0, weight = model_enc_erb_conv1_erb_conv1_1_Conv_weight, x = input_7)[name = string("input_9")];
            tensor<fp32, [1, 64, 1, 160]> input_11 = relu(x = input_9)[name = string("input_11")];
            string input_13_pad_type_0 = const()[name = string("input_13_pad_type_0"), val = string("custom")];
            tensor<int32, [4]> input_13_pad_0 = const()[name = string("input_13_pad_0"), val = tensor<int32, [4]>([0, 0, 1, 1])];
            tensor<int32, [2]> input_13_strides_0 = const()[name = string("input_13_strides_0"), val = tensor<int32, [2]>([1, 2])];
            int32 input_13_groups_0 = const()[name = string("input_13_groups_0"), val = int32(64)];
            tensor<int32, [2]> input_13_dilations_0 = const()[name = string("input_13_dilations_0"), val = tensor<int32, [2]>([1, 1])];
            tensor<fp32, [1, 64, 1, 80]> input_13 = conv(dilations = input_13_dilations_0, groups = input_13_groups_0, pad = input_13_pad_0, pad_type = input_13_pad_type_0, strides = input_13_strides_0, weight = model_enc_erb_conv2_erb_conv2_0_Conv_weight, x = input_11)[name = string("input_13")];
            string input_15_pad_type_0 = const()[name = string("input_15_pad_type_0"), val = string("valid")];
            tensor<int32, [2]> input_15_strides_0 = const()[name = string("input_15_strides_0"), val = tensor<int32, [2]>([1, 1])];
            tensor<int32, [4]> input_15_pad_0 = const()[name = string("input_15_pad_0"), val = tensor<int32, [4]>([0, 0, 0, 0])];
            tensor<int32, [2]> input_15_dilations_0 = const()[name = string("input_15_dilations_0"), val = tensor<int32, [2]>([1, 1])];
            int32 input_15_groups_0 = const()[name = string("input_15_groups_0"), val = int32(1)];
            tensor<fp32, [1, 64, 1, 80]> input_15 = conv(bias = model_enc_erb_conv2_erb_conv2_1_Conv_bias, dilations = input_15_dilations_0, groups = input_15_groups_0, pad = input_15_pad_0, pad_type = input_15_pad_type_0, strides = input_15_strides_0, weight = model_enc_erb_conv2_erb_conv2_1_Conv_weight, x = input_13)[name = string("input_15")];
            tensor<fp32, [1, 64, 1, 80]> input_17 = relu(x = input_15)[name = string("input_17")];
            string input_19_pad_type_0 = const()[name = string("input_19_pad_type_0"), val = string("custom")];
            tensor<int32, [4]> input_19_pad_0 = const()[name = string("input_19_pad_0"), val = tensor<int32, [4]>([0, 0, 1, 1])];
            tensor<int32, [2]> input_19_strides_0 = const()[name = string("input_19_strides_0"), val = tensor<int32, [2]>([1, 2])];
            int32 input_19_groups_0 = const()[name = string("input_19_groups_0"), val = int32(64)];
            tensor<int32, [2]> input_19_dilations_0 = const()[name = string("input_19_dilations_0"), val = tensor<int32, [2]>([1, 1])];
            tensor<fp32, [1, 64, 1, 40]> input_19 = conv(dilations = input_19_dilations_0, groups = input_19_groups_0, pad = input_19_pad_0, pad_type = input_19_pad_type_0, strides = input_19_strides_0, weight = model_enc_erb_conv3_erb_conv3_0_Conv_weight, x = input_17)[name = string("input_19")];
            string input_21_pad_type_0 = const()[name = string("input_21_pad_type_0"), val = string("valid")];
            tensor<int32, [2]> input_21_strides_0 = const()[name = string("input_21_strides_0"), val = tensor<int32, [2]>([1, 1])];
            tensor<int32, [4]> input_21_pad_0 = const()[name = string("input_21_pad_0"), val = tensor<int32, [4]>([0, 0, 0, 0])];
            tensor<int32, [2]> input_21_dilations_0 = const()[name = string("input_21_dilations_0"), val = tensor<int32, [2]>([1, 1])];
            int32 input_21_groups_0 = const()[name = string("input_21_groups_0"), val = int32(1)];
            tensor<fp32, [1, 64, 1, 40]> input_21 = conv(bias = model_enc_erb_conv3_erb_conv3_1_Conv_bias, dilations = input_21_dilations_0, groups = input_21_groups_0, pad = input_21_pad_0, pad_type = input_21_pad_type_0, strides = input_21_strides_0, weight = model_enc_erb_conv3_erb_conv3_1_Conv_weight, x = input_19)[name = string("input_21")];
            tensor<fp32, [1, 64, 1, 40]> input_tensor_35 = relu(x = input_21)[name = string("input_tensor_35")];
            tensor<int32, [4]> var_807 = const()[name = string("op_807"), val = tensor<int32, [4]>([0, 2, 3, 1])];
            tensor<int32, [3]> var_817 = const()[name = string("op_817"), val = tensor<int32, [3]>([1, 40, 64])];
            tensor<fp32, [1, 1, 40, 64]> input_tensor_37 = transpose(perm = var_807, x = input_tensor_35)[name = string("transpose_48")];
            tensor<fp32, [1, 40, 64]> input_tensor_39 = reshape(shape = var_817, x = input_tensor_37)[name = string("input_tensor_39")];
            tensor<int32, [3]> var_822 = const()[name = string("op_822"), val = tensor<int32, [3]>([1, 0, 2])];
            tensor<int32, [1]> slice_by_index_1 = const()[name = string("slice_by_index_1"), val = tensor<int32, [1]>([40])];
            tensor<fp32, [41, 1, 64]> concat_1 = const()[name = string("concat_1"), val = tensor<fp32, [41, 1, 64]>(BLOBFILE(path = string("@model_path/weights/weight.bin"), offset = uint64(9405504)))];
            tensor<int32, [1]> while_loop_0_loop_vars0_0 = const()[name = string("while_loop_0_loop_vars0_0"), val = tensor<int32, [1]>([0])];
            tensor<fp32, [40, 1, 64]> input_23 = transpose(perm = var_822, x = input_tensor_39)[name = string("transpose_47")];
            tensor<int32, [1]> while_loop_0_0, tensor<fp32, [41, 1, 64]> while_loop_0_1 = while_loop(loop_vars = (while_loop_0_loop_vars0_0, concat_1))[name = string("while_loop_0")]
                (tensor<int32, [1]> while_loop_0_loop_vars0_0_x0_1_1_1_0, tensor<fp32, [41, 1, 64]> concat_1_x0_1_1_1_0) {
                    tensor<bool, [1]> less_1 = less(x = while_loop_0_loop_vars0_0_x0_1_1_1_0, y = slice_by_index_1)[name = string("less_1")];
                } -> (less_1)
                (tensor<int32, [1]> while_loop_0_loop_vars0_0_x0_1_1_1_1, tensor<fp32, [41, 1, 64]> concat_1_x0_1_1_1_1) {
                    int32 gather_2_batch_dims_0 = const()[name = string("gather_2_batch_dims_0"), val = int32(0)];
                    bool gather_2_validate_indices_0 = const()[name = string("gather_2_validate_indices_0"), val = bool(false)];
                    int32 greater_equal_0_y_0 = const()[name = string("greater_equal_0_y_0"), val = int32(0)];
                    tensor<bool, [1]> greater_equal_0 = greater_equal(x = while_loop_0_loop_vars0_0_x0_1_1_1_1, y = greater_equal_0_y_0)[name = string("greater_equal_0")];
                    int32 slice_by_index_36 = const()[name = string("slice_by_index_36"), val = int32(40)];
                    tensor<int32, [1]> add_80 = add(x = while_loop_0_loop_vars0_0_x0_1_1_1_1, y = slice_by_index_36)[name = string("add_80")];
                    tensor<int32, [1]> select_0 = select(a = while_loop_0_loop_vars0_0_x0_1_1_1_1, b = add_80, cond = greater_equal_0)[name = string("select_0")];
                    int32 gather_2_axis_1 = const()[name = string("gather_2_axis_1"), val = int32(0)];
                    tensor<fp32, [1, 1, 64]> gather_2 = gather(axis = gather_2_axis_1, batch_dims = gather_2_batch_dims_0, indices = select_0, validate_indices = gather_2_validate_indices_0, x = input_23)[name = string("gather_2")];
                    int32 gather_3_batch_dims_0 = const()[name = string("gather_3_batch_dims_0"), val = int32(0)];
                    bool gather_3_validate_indices_0 = const()[name = string("gather_3_validate_indices_0"), val = bool(false)];
                    int32 slice_by_index_37 = const()[name = string("slice_by_index_37"), val = int32(41)];
                    tensor<int32, [1]> add_81 = add(x = while_loop_0_loop_vars0_0_x0_1_1_1_1, y = slice_by_index_37)[name = string("add_81")];
                    tensor<int32, [1]> select_1 = select(a = while_loop_0_loop_vars0_0_x0_1_1_1_1, b = add_81, cond = greater_equal_0)[name = string("select_1")];
                    int32 gather_3_axis_1 = const()[name = string("gather_3_axis_1"), val = int32(0)];
                    tensor<fp32, [1, 1, 64]> gather_3 = gather(axis = gather_3_axis_1, batch_dims = gather_3_batch_dims_0, indices = select_1, validate_indices = gather_3_validate_indices_0, x = concat_1_x0_1_1_1_1)[name = string("gather_3")];
                    tensor<int32, [1]> squeeze_32_axes_0 = const()[name = string("squeeze_32_axes_0"), val = tensor<int32, [1]>([0])];
                    tensor<fp32, [1, 64]> squeeze_32 = squeeze(axes = squeeze_32_axes_0, x = gather_2)[name = string("squeeze_32")];
                    tensor<int32, [1]> squeeze_33_axes_0 = const()[name = string("squeeze_33_axes_0"), val = tensor<int32, [1]>([0])];
                    tensor<fp32, [1, 64]> squeeze_33 = squeeze(axes = squeeze_33_axes_0, x = gather_3)[name = string("squeeze_33")];
                    tensor<fp32, [64, 64]> linear_6_weight_0 = const()[name = string("linear_6_weight_0"), val = tensor<fp32, [64, 64]>(BLOBFILE(path = string("@model_path/weights/weight.bin"), offset = uint64(9416064)))];
                    tensor<fp32, [64]> linear_6_bias_0 = const()[name = string("linear_6_bias_0"), val = tensor<fp32, [64]>(BLOBFILE(path = string("@model_path/weights/weight.bin"), offset = uint64(9432512)))];
                    tensor<fp32, [1, 64]> linear_6 = linear(bias = linear_6_bias_0, weight = linear_6_weight_0, x = squeeze_32)[name = string("linear_6")];
                    tensor<fp32, [64, 64]> linear_7_weight_0 = const()[name = string("linear_7_weight_0"), val = tensor<fp32, [64, 64]>(BLOBFILE(path = string("@model_path/weights/weight.bin"), offset = uint64(9432832)))];
                    tensor<fp32, [64]> linear_7_bias_0 = const()[name = string("linear_7_bias_0"), val = tensor<fp32, [64]>(BLOBFILE(path = string("@model_path/weights/weight.bin"), offset = uint64(9449280)))];
                    tensor<fp32, [1, 64]> linear_7 = linear(bias = linear_7_bias_0, weight = linear_7_weight_0, x = squeeze_33)[name = string("linear_7")];
                    tensor<fp32, [1, 64]> add_5 = add(x = linear_6, y = linear_7)[name = string("add_5")];
                    tensor<fp32, [1, 64]> sigmoid_2 = sigmoid(x = add_5)[name = string("sigmoid_2")];
                    tensor<fp32, [64, 64]> linear_8_weight_0 = const()[name = string("linear_8_weight_0"), val = tensor<fp32, [64, 64]>(BLOBFILE(path = string("@model_path/weights/weight.bin"), offset = uint64(9449600)))];
                    tensor<fp32, [64]> linear_8_bias_0 = const()[name = string("linear_8_bias_0"), val = tensor<fp32, [64]>(BLOBFILE(path = string("@model_path/weights/weight.bin"), offset = uint64(9466048)))];
                    tensor<fp32, [1, 64]> linear_8 = linear(bias = linear_8_bias_0, weight = linear_8_weight_0, x = squeeze_32)[name = string("linear_8")];
                    tensor<fp32, [64, 64]> linear_9_weight_0 = const()[name = string("linear_9_weight_0"), val = tensor<fp32, [64, 64]>(BLOBFILE(path = string("@model_path/weights/weight.bin"), offset = uint64(9466368)))];
                    tensor<fp32, [64]> linear_9_bias_0 = const()[name = string("linear_9_bias_0"), val = tensor<fp32, [64]>(BLOBFILE(path = string("@model_path/weights/weight.bin"), offset = uint64(9482816)))];
                    tensor<fp32, [1, 64]> linear_9 = linear(bias = linear_9_bias_0, weight = linear_9_weight_0, x = squeeze_33)[name = string("linear_9")];
                    tensor<fp32, [1, 64]> add_6 = add(x = linear_8, y = linear_9)[name = string("add_6")];
                    tensor<fp32, [1, 64]> sigmoid_3 = sigmoid(x = add_6)[name = string("sigmoid_3")];
                    tensor<fp32, [64, 64]> linear_10_weight_0 = const()[name = string("linear_10_weight_0"), val = tensor<fp32, [64, 64]>(BLOBFILE(path = string("@model_path/weights/weight.bin"), offset = uint64(9483136)))];
                    tensor<fp32, [64]> linear_10_bias_0 = const()[name = string("linear_10_bias_0"), val = tensor<fp32, [64]>(BLOBFILE(path = string("@model_path/weights/weight.bin"), offset = uint64(9499584)))];
                    tensor<fp32, [1, 64]> linear_10 = linear(bias = linear_10_bias_0, weight = linear_10_weight_0, x = squeeze_32)[name = string("linear_10")];
                    tensor<fp32, [64, 64]> linear_11_weight_0 = const()[name = string("linear_11_weight_0"), val = tensor<fp32, [64, 64]>(BLOBFILE(path = string("@model_path/weights/weight.bin"), offset = uint64(9499904)))];
                    tensor<fp32, [64]> linear_11_bias_0 = const()[name = string("linear_11_bias_0"), val = tensor<fp32, [64]>(BLOBFILE(path = string("@model_path/weights/weight.bin"), offset = uint64(9516352)))];
                    tensor<fp32, [1, 64]> linear_11 = linear(bias = linear_11_bias_0, weight = linear_11_weight_0, x = squeeze_33)[name = string("linear_11")];
                    tensor<fp32, [1, 64]> mul_3 = mul(x = sigmoid_2, y = linear_11)[name = string("mul_3")];
                    tensor<fp32, [1, 64]> add_7 = add(x = linear_10, y = mul_3)[name = string("add_7")];
                    tensor<fp32, [1, 64]> tanh_1 = tanh(x = add_7)[name = string("tanh_1")];
                    fp32 sub_1_x_0 = const()[name = string("sub_1_x_0"), val = fp32(0x1p+0)];
                    tensor<fp32, [1, 64]> sub_1 = sub(x = sub_1_x_0, y = sigmoid_3)[name = string("sub_1")];
                    tensor<fp32, [1, 64]> mul_4 = mul(x = sub_1, y = tanh_1)[name = string("mul_4")];
                    tensor<fp32, [1, 64]> mul_5 = mul(x = sigmoid_3, y = squeeze_33)[name = string("mul_5")];
                    tensor<fp32, [1, 64]> add_8 = add(x = mul_4, y = mul_5)[name = string("add_8")];
                    int32 add_9_y_0 = const()[name = string("add_9_y_0"), val = int32(1)];
                    tensor<int32, [1]> add_9 = add(x = while_loop_0_loop_vars0_0_x0_1_1_1_1, y = add_9_y_0)[name = string("add_9")];
                    tensor<int32, [1]> expand_dims_1_axes_0 = const()[name = string("expand_dims_1_axes_0"), val = tensor<int32, [1]>([0])];
                    tensor<fp32, [1, 1, 64]> expand_dims_1 = expand_dims(axes = expand_dims_1_axes_0, x = add_8)[name = string("expand_dims_1")];
                    int32 scatter_1_axis_0 = const()[name = string("scatter_1_axis_0"), val = int32(0)];
                    string scatter_1_mode_0 = const()[name = string("scatter_1_mode_0"), val = string("add")];
                    bool scatter_1_validate_indices_0 = const()[name = string("scatter_1_validate_indices_0"), val = bool(false)];
                    tensor<fp32, [41, 1, 64]> scatter_1 = scatter(axis = scatter_1_axis_0, data = concat_1_x0_1_1_1_1, indices = add_9, mode = scatter_1_mode_0, updates = expand_dims_1, validate_indices = scatter_1_validate_indices_0)[name = string("scatter_1")];
                } -> (add_9, scatter_1);
            tensor<int32, [3]> var_843_forward_begin_0 = const()[name = string("op_843_forward_begin_0"), val = tensor<int32, [3]>([1, 0, 0])];
            tensor<int32, [3]> var_843_forward_end_0 = const()[name = string("op_843_forward_end_0"), val = tensor<int32, [3]>([0, 0, 0])];
            tensor<bool, [3]> var_843_forward_begin_mask_0 = const()[name = string("op_843_forward_begin_mask_0"), val = tensor<bool, [3]>([false, true, true])];
            tensor<bool, [3]> var_843_forward_end_mask_0 = const()[name = string("op_843_forward_end_mask_0"), val = tensor<bool, [3]>([true, true, true])];
            tensor<fp32, [40, 1, 64]> var_843_forward = slice_by_index(begin = var_843_forward_begin_0, begin_mask = var_843_forward_begin_mask_0, end = var_843_forward_end_0, end_mask = var_843_forward_end_mask_0, x = while_loop_0_1)[name = string("op_843_forward")];
            tensor<int32, [1]> reverse_0_axes_0 = const()[name = string("reverse_0_axes_0"), val = tensor<int32, [1]>([0])];
            tensor<fp32, [40, 1, 64]> reverse_0 = reverse(axes = reverse_0_axes_0, x = input_23)[name = string("reverse_0")];
            tensor<int32, [1]> slice_by_index_4 = const()[name = string("slice_by_index_4"), val = tensor<int32, [1]>([40])];
            tensor<int32, [1]> while_loop_1_loop_vars0_0 = const()[name = string("while_loop_1_loop_vars0_0"), val = tensor<int32, [1]>([0])];
            tensor<int32, [1]> while_loop_1_0, tensor<fp32, [41, 1, 64]> while_loop_1_1 = while_loop(loop_vars = (while_loop_1_loop_vars0_0, concat_1))[name = string("while_loop_1")]
                (tensor<int32, [1]> while_loop_1_loop_vars0_0_x0_1_1_1_0, tensor<fp32, [41, 1, 64]> concat_3_x0_1_1_1_0) {
                    tensor<bool, [1]> less_3 = less(x = while_loop_1_loop_vars0_0_x0_1_1_1_0, y = slice_by_index_4)[name = string("less_3")];
                } -> (less_3)
                (tensor<int32, [1]> while_loop_1_loop_vars0_0_x0_1_1_1_1, tensor<fp32, [41, 1, 64]> concat_3_x0_1_1_1_1) {
                    int32 gather_6_batch_dims_0 = const()[name = string("gather_6_batch_dims_0"), val = int32(0)];
                    bool gather_6_validate_indices_0 = const()[name = string("gather_6_validate_indices_0"), val = bool(false)];
                    int32 greater_equal_2_y_0 = const()[name = string("greater_equal_2_y_0"), val = int32(0)];
                    tensor<bool, [1]> greater_equal_2 = greater_equal(x = while_loop_1_loop_vars0_0_x0_1_1_1_1, y = greater_equal_2_y_0)[name = string("greater_equal_2")];
                    int32 slice_by_index_38 = const()[name = string("slice_by_index_38"), val = int32(40)];
                    tensor<int32, [1]> add_82 = add(x = while_loop_1_loop_vars0_0_x0_1_1_1_1, y = slice_by_index_38)[name = string("add_82")];
                    tensor<int32, [1]> select_2 = select(a = while_loop_1_loop_vars0_0_x0_1_1_1_1, b = add_82, cond = greater_equal_2)[name = string("select_2")];
                    int32 gather_6_axis_1 = const()[name = string("gather_6_axis_1"), val = int32(0)];
                    tensor<fp32, [1, 1, 64]> gather_6 = gather(axis = gather_6_axis_1, batch_dims = gather_6_batch_dims_0, indices = select_2, validate_indices = gather_6_validate_indices_0, x = reverse_0)[name = string("gather_6")];
                    int32 gather_7_batch_dims_0 = const()[name = string("gather_7_batch_dims_0"), val = int32(0)];
                    bool gather_7_validate_indices_0 = const()[name = string("gather_7_validate_indices_0"), val = bool(false)];
                    int32 slice_by_index_39 = const()[name = string("slice_by_index_39"), val = int32(41)];
                    tensor<int32, [1]> add_83 = add(x = while_loop_1_loop_vars0_0_x0_1_1_1_1, y = slice_by_index_39)[name = string("add_83")];
                    tensor<int32, [1]> select_3 = select(a = while_loop_1_loop_vars0_0_x0_1_1_1_1, b = add_83, cond = greater_equal_2)[name = string("select_3")];
                    int32 gather_7_axis_1 = const()[name = string("gather_7_axis_1"), val = int32(0)];
                    tensor<fp32, [1, 1, 64]> gather_7 = gather(axis = gather_7_axis_1, batch_dims = gather_7_batch_dims_0, indices = select_3, validate_indices = gather_7_validate_indices_0, x = concat_3_x0_1_1_1_1)[name = string("gather_7")];
                    tensor<int32, [1]> squeeze_36_axes_0 = const()[name = string("squeeze_36_axes_0"), val = tensor<int32, [1]>([0])];
                    tensor<fp32, [1, 64]> squeeze_36 = squeeze(axes = squeeze_36_axes_0, x = gather_6)[name = string("squeeze_36")];
                    tensor<int32, [1]> squeeze_37_axes_0 = const()[name = string("squeeze_37_axes_0"), val = tensor<int32, [1]>([0])];
                    tensor<fp32, [1, 64]> squeeze_37 = squeeze(axes = squeeze_37_axes_0, x = gather_7)[name = string("squeeze_37")];
                    tensor<fp32, [64, 64]> linear_18_weight_0 = const()[name = string("linear_18_weight_0"), val = tensor<fp32, [64, 64]>(BLOBFILE(path = string("@model_path/weights/weight.bin"), offset = uint64(9516672)))];
                    tensor<fp32, [64]> linear_18_bias_0 = const()[name = string("linear_18_bias_0"), val = tensor<fp32, [64]>(BLOBFILE(path = string("@model_path/weights/weight.bin"), offset = uint64(9533120)))];
                    tensor<fp32, [1, 64]> linear_18 = linear(bias = linear_18_bias_0, weight = linear_18_weight_0, x = squeeze_36)[name = string("linear_18")];
                    tensor<fp32, [64, 64]> linear_19_weight_0 = const()[name = string("linear_19_weight_0"), val = tensor<fp32, [64, 64]>(BLOBFILE(path = string("@model_path/weights/weight.bin"), offset = uint64(9533440)))];
                    tensor<fp32, [64]> linear_19_bias_0 = const()[name = string("linear_19_bias_0"), val = tensor<fp32, [64]>(BLOBFILE(path = string("@model_path/weights/weight.bin"), offset = uint64(9549888)))];
                    tensor<fp32, [1, 64]> linear_19 = linear(bias = linear_19_bias_0, weight = linear_19_weight_0, x = squeeze_37)[name = string("linear_19")];
                    tensor<fp32, [1, 64]> add_15 = add(x = linear_18, y = linear_19)[name = string("add_15")];
                    tensor<fp32, [1, 64]> sigmoid_6 = sigmoid(x = add_15)[name = string("sigmoid_6")];
                    tensor<fp32, [64, 64]> linear_20_weight_0 = const()[name = string("linear_20_weight_0"), val = tensor<fp32, [64, 64]>(BLOBFILE(path = string("@model_path/weights/weight.bin"), offset = uint64(9550208)))];
                    tensor<fp32, [64]> linear_20_bias_0 = const()[name = string("linear_20_bias_0"), val = tensor<fp32, [64]>(BLOBFILE(path = string("@model_path/weights/weight.bin"), offset = uint64(9566656)))];
                    tensor<fp32, [1, 64]> linear_20 = linear(bias = linear_20_bias_0, weight = linear_20_weight_0, x = squeeze_36)[name = string("linear_20")];
                    tensor<fp32, [64, 64]> linear_21_weight_0 = const()[name = string("linear_21_weight_0"), val = tensor<fp32, [64, 64]>(BLOBFILE(path = string("@model_path/weights/weight.bin"), offset = uint64(9566976)))];
                    tensor<fp32, [64]> linear_21_bias_0 = const()[name = string("linear_21_bias_0"), val = tensor<fp32, [64]>(BLOBFILE(path = string("@model_path/weights/weight.bin"), offset = uint64(9583424)))];
                    tensor<fp32, [1, 64]> linear_21 = linear(bias = linear_21_bias_0, weight = linear_21_weight_0, x = squeeze_37)[name = string("linear_21")];
                    tensor<fp32, [1, 64]> add_16 = add(x = linear_20, y = linear_21)[name = string("add_16")];
                    tensor<fp32, [1, 64]> sigmoid_7 = sigmoid(x = add_16)[name = string("sigmoid_7")];
                    tensor<fp32, [64, 64]> linear_22_weight_0 = const()[name = string("linear_22_weight_0"), val = tensor<fp32, [64, 64]>(BLOBFILE(path = string("@model_path/weights/weight.bin"), offset = uint64(9583744)))];
                    tensor<fp32, [64]> linear_22_bias_0 = const()[name = string("linear_22_bias_0"), val = tensor<fp32, [64]>(BLOBFILE(path = string("@model_path/weights/weight.bin"), offset = uint64(9600192)))];
                    tensor<fp32, [1, 64]> linear_22 = linear(bias = linear_22_bias_0, weight = linear_22_weight_0, x = squeeze_36)[name = string("linear_22")];
                    tensor<fp32, [64, 64]> linear_23_weight_0 = const()[name = string("linear_23_weight_0"), val = tensor<fp32, [64, 64]>(BLOBFILE(path = string("@model_path/weights/weight.bin"), offset = uint64(9600512)))];
                    tensor<fp32, [64]> linear_23_bias_0 = const()[name = string("linear_23_bias_0"), val = tensor<fp32, [64]>(BLOBFILE(path = string("@model_path/weights/weight.bin"), offset = uint64(9616960)))];
                    tensor<fp32, [1, 64]> linear_23 = linear(bias = linear_23_bias_0, weight = linear_23_weight_0, x = squeeze_37)[name = string("linear_23")];
                    tensor<fp32, [1, 64]> mul_9 = mul(x = sigmoid_6, y = linear_23)[name = string("mul_9")];
                    tensor<fp32, [1, 64]> add_17 = add(x = linear_22, y = mul_9)[name = string("add_17")];
                    tensor<fp32, [1, 64]> tanh_3 = tanh(x = add_17)[name = string("tanh_3")];
                    fp32 sub_3_x_0 = const()[name = string("sub_3_x_0"), val = fp32(0x1p+0)];
                    tensor<fp32, [1, 64]> sub_3 = sub(x = sub_3_x_0, y = sigmoid_7)[name = string("sub_3")];
                    tensor<fp32, [1, 64]> mul_10 = mul(x = sub_3, y = tanh_3)[name = string("mul_10")];
                    tensor<fp32, [1, 64]> mul_11 = mul(x = sigmoid_7, y = squeeze_37)[name = string("mul_11")];
                    tensor<fp32, [1, 64]> add_18 = add(x = mul_10, y = mul_11)[name = string("add_18")];
                    int32 add_19_y_0 = const()[name = string("add_19_y_0"), val = int32(1)];
                    tensor<int32, [1]> add_19 = add(x = while_loop_1_loop_vars0_0_x0_1_1_1_1, y = add_19_y_0)[name = string("add_19")];
                    tensor<int32, [1]> expand_dims_3_axes_0 = const()[name = string("expand_dims_3_axes_0"), val = tensor<int32, [1]>([0])];
                    tensor<fp32, [1, 1, 64]> expand_dims_3 = expand_dims(axes = expand_dims_3_axes_0, x = add_18)[name = string("expand_dims_3")];
                    int32 scatter_3_axis_0 = const()[name = string("scatter_3_axis_0"), val = int32(0)];
                    string scatter_3_mode_0 = const()[name = string("scatter_3_mode_0"), val = string("add")];
                    bool scatter_3_validate_indices_0 = const()[name = string("scatter_3_validate_indices_0"), val = bool(false)];
                    tensor<fp32, [41, 1, 64]> scatter_3 = scatter(axis = scatter_3_axis_0, data = concat_3_x0_1_1_1_1, indices = add_19, mode = scatter_3_mode_0, updates = expand_dims_3, validate_indices = scatter_3_validate_indices_0)[name = string("scatter_3")];
                } -> (add_19, scatter_3);
            tensor<int32, [3]> var_843_backward_reverse_begin_0 = const()[name = string("op_843_backward_reverse_begin_0"), val = tensor<int32, [3]>([1, 0, 0])];
            tensor<int32, [3]> var_843_backward_reverse_end_0 = const()[name = string("op_843_backward_reverse_end_0"), val = tensor<int32, [3]>([0, 0, 0])];
            tensor<bool, [3]> var_843_backward_reverse_begin_mask_0 = const()[name = string("op_843_backward_reverse_begin_mask_0"), val = tensor<bool, [3]>([false, true, true])];
            tensor<bool, [3]> var_843_backward_reverse_end_mask_0 = const()[name = string("op_843_backward_reverse_end_mask_0"), val = tensor<bool, [3]>([true, true, true])];
            tensor<fp32, [40, 1, 64]> var_843_backward_reverse = slice_by_index(begin = var_843_backward_reverse_begin_0, begin_mask = var_843_backward_reverse_begin_mask_0, end = var_843_backward_reverse_end_0, end_mask = var_843_backward_reverse_end_mask_0, x = while_loop_1_1)[name = string("op_843_backward_reverse")];
            tensor<int32, [1]> var_843_backward_axes_0 = const()[name = string("op_843_backward_axes_0"), val = tensor<int32, [1]>([0])];
            tensor<fp32, [40, 1, 64]> var_843_backward = reverse(axes = var_843_backward_axes_0, x = var_843_backward_reverse)[name = string("op_843_backward")];
            int32 var_843_axis_0 = const()[name = string("op_843_axis_0"), val = int32(2)];
            bool var_843_interleave_0 = const()[name = string("op_843_interleave_0"), val = bool(false)];
            tensor<fp32, [40, 1, 128]> var_843 = concat(axis = var_843_axis_0, interleave = var_843_interleave_0, values = (var_843_forward, var_843_backward))[name = string("op_843")];
            tensor<int32, [4]> concat_4 = const()[name = string("concat_4"), val = tensor<int32, [4]>([40, 1, 2, 64])];
            tensor<fp32, [40, 1, 2, 64]> var_846 = reshape(shape = concat_4, x = var_843)[name = string("op_846")];
            tensor<int32, [3]> var_864 = const()[name = string("op_864"), val = tensor<int32, [3]>([40, 1, -1])];
            tensor<fp32, [40, 1, 128]> input_tensor_45 = reshape(shape = var_864, x = var_846)[name = string("input_tensor_45")];
            tensor<int32, [3]> var_869 = const()[name = string("op_869"), val = tensor<int32, [3]>([1, 0, 2])];
            tensor<fp32, [64, 128]> input_25_weight_0 = const()[name = string("input_25_weight_0"), val = tensor<fp32, [64, 128]>(BLOBFILE(path = string("@model_path/weights/weight.bin"), offset = uint64(9617280)))];
            tensor<fp32, [64]> input_25_bias_0 = const()[name = string("input_25_bias_0"), val = tensor<fp32, [64]>(BLOBFILE(path = string("@model_path/weights/weight.bin"), offset = uint64(9650112)))];
            tensor<fp32, [1, 40, 128]> x_7 = transpose(perm = var_869, x = input_tensor_45)[name = string("transpose_46")];
            tensor<fp32, [1, 40, 64]> input_25 = linear(bias = input_25_bias_0, weight = input_25_weight_0, x = x_7)[name = string("input_25")];
            fp32 var_875 = const()[name = string("op_875"), val = fp32(0x1.4f8b58p-17)];
            tensor<int32, [1]> input_tensor_47_axes_0 = const()[name = string("input_tensor_47_axes_0"), val = tensor<int32, [1]>([-1])];
            tensor<fp32, [1, 40, 64]> input_tensor_47 = layer_norm(axes = input_tensor_47_axes_0, beta = model_enc_dprnn_erb_blocks_0_ln_intra_LayerNormalization_bias, epsilon = var_875, gamma = model_enc_dprnn_erb_blocks_0_ln_intra_LayerNormalization_weight, x = input_25)[name = string("input_tensor_47")];
            tensor<int32, [4]> var_891 = const()[name = string("op_891"), val = tensor<int32, [4]>([1, 1, 40, 64])];
            tensor<fp32, [1, 1, 40, 64]> input_tensor_49 = reshape(shape = var_891, x = input_tensor_47)[name = string("input_tensor_49")];
            tensor<int32, [4]> var_897 = const()[name = string("op_897"), val = tensor<int32, [4]>([0, 3, 1, 2])];
            tensor<fp32, [1, 64, 1, 40]> second_29 = transpose(perm = var_897, x = input_tensor_49)[name = string("transpose_45")];
            tensor<fp32, [1, 64, 1, 40]> input_tensor_51 = add(x = input_tensor_35, y = second_29)[name = string("input_tensor_51")];
            tensor<int32, [4]> var_905 = const()[name = string("op_905"), val = tensor<int32, [4]>([0, 3, 2, 1])];
            tensor<int32, [2]> var_913 = const()[name = string("op_913"), val = tensor<int32, [2]>([40, 64])];
            tensor<fp32, [1, 40, 1, 64]> input_tensor_53 = transpose(perm = var_905, x = input_tensor_51)[name = string("transpose_44")];
            tensor<fp32, [40, 64]> input_27 = reshape(shape = var_913, x = input_tensor_53)[name = string("input_27")];
            tensor<int32, [1]> input_tensor_55_begin_0 = const()[name = string("input_tensor_55_begin_0"), val = tensor<int32, [1]>([2020])];
            tensor<int32, [1]> input_tensor_55_end_0 = const()[name = string("input_tensor_55_end_0"), val = tensor<int32, [1]>([4580])];
            tensor<bool, [1]> input_tensor_55_end_mask_0 = const()[name = string("input_tensor_55_end_mask_0"), val = tensor<bool, [1]>([false])];
            tensor<fp32, [2560]> input_tensor_55 = slice_by_index(begin = input_tensor_55_begin_0, end = input_tensor_55_end_0, end_mask = input_tensor_55_end_mask_0, x = state_in)[name = string("input_tensor_55")];
            tensor<int32, [2]> var_930 = const()[name = string("op_930"), val = tensor<int32, [2]>([40, 64])];
            tensor<fp32, [40, 64]> input_29 = reshape(shape = var_930, x = input_tensor_55)[name = string("input_29")];
            tensor<fp32, [40, 192]> var_934 = linear(bias = model_enc_dprnn_erb_blocks_0_inter_gru_grucell_Gemm_bias, weight = model_enc_dprnn_erb_blocks_0_inter_gru_grucell_Gemm_weight, x = input_27)[name = string("linear_24")];
            tensor<int32, [3]> var_937 = const()[name = string("op_937"), val = tensor<int32, [3]>([64, 64, 64])];
            int32 var_938_axis_0 = const()[name = string("op_938_axis_0"), val = int32(1)];
            tensor<fp32, [40, 64]> var_938_0, tensor<fp32, [40, 64]> var_938_1, tensor<fp32, [40, 64]> var_938_2 = split(axis = var_938_axis_0, split_sizes = var_937, x = var_934)[name = string("op_938")];
            tensor<fp32, [40, 192]> var_948 = linear(bias = model_enc_dprnn_erb_blocks_0_inter_gru_grucell_Gemm_1_bias, weight = model_enc_dprnn_erb_blocks_0_inter_gru_grucell_Gemm_1_weight, x = input_29)[name = string("linear_25")];
            tensor<int32, [3]> var_951 = const()[name = string("op_951"), val = tensor<int32, [3]>([64, 64, 64])];
            int32 var_952_axis_0 = const()[name = string("op_952_axis_0"), val = int32(1)];
            tensor<fp32, [40, 64]> var_952_0, tensor<fp32, [40, 64]> var_952_1, tensor<fp32, [40, 64]> var_952_2 = split(axis = var_952_axis_0, split_sizes = var_951, x = var_948)[name = string("op_952")];
            tensor<fp32, [40, 64]> input_31 = add(x = var_952_0, y = var_938_0)[name = string("input_31")];
            tensor<fp32, [40, 64]> second_35 = sigmoid(x = input_31)[name = string("second_35")];
            tensor<fp32, [40, 64]> input_33 = add(x = var_952_1, y = var_938_1)[name = string("input_33")];
            tensor<fp32, [40, 64]> second_41 = sigmoid(x = input_33)[name = string("second_41")];
            tensor<fp32, [40, 64]> second_37 = mul(x = var_952_2, y = second_35)[name = string("second_37")];
            tensor<fp32, [40, 64]> input_tensor_57 = add(x = var_938_2, y = second_37)[name = string("input_tensor_57")];
            tensor<fp32, [40, 64]> second_39 = tanh(x = input_tensor_57)[name = string("second_39")];
            tensor<fp32, [40, 64]> first_37 = sub(x = input_29, y = second_39)[name = string("first_37")];
            tensor<fp32, [40, 64]> first_39 = mul(x = first_37, y = second_41)[name = string("first_39")];
            tensor<fp32, [40, 64]> input_tensor_59 = add(x = first_39, y = second_39)[name = string("input_tensor_59")];
            tensor<int32, [1]> var_979 = const()[name = string("op_979"), val = tensor<int32, [1]>([-1])];
            tensor<fp32, [2560]> var_980 = reshape(shape = var_979, x = input_tensor_59)[name = string("op_980")];
            tensor<fp32, [40, 64]> input_35 = linear(bias = model_enc_dprnn_erb_blocks_0_fc_inter_Gemm_bias, weight = model_enc_dprnn_erb_blocks_0_fc_inter_Gemm_weight, x = input_tensor_59)[name = string("linear_26")];
            fp32 var_985 = const()[name = string("op_985"), val = fp32(0x1.4f8b58p-17)];
            tensor<int32, [1]> input_tensor_61_axes_0 = const()[name = string("input_tensor_61_axes_0"), val = tensor<int32, [1]>([-1])];
            tensor<fp32, [40, 64]> input_tensor_61 = layer_norm(axes = input_tensor_61_axes_0, beta = model_enc_dprnn_erb_blocks_0_ln_inter_LayerNormalization_bias, epsilon = var_985, gamma = model_enc_dprnn_erb_blocks_0_ln_inter_LayerNormalization_weight, x = input_35)[name = string("input_tensor_61")];
            tensor<int32, [4]> var_1001 = const()[name = string("op_1001"), val = tensor<int32, [4]>([1, 40, 1, 64])];
            tensor<fp32, [1, 40, 1, 64]> input_tensor_63 = reshape(shape = var_1001, x = input_tensor_61)[name = string("input_tensor_63")];
            tensor<int32, [4]> var_1007 = const()[name = string("op_1007"), val = tensor<int32, [4]>([0, 3, 2, 1])];
            tensor<fp32, [1, 64, 1, 40]> second_43 = transpose(perm = var_1007, x = input_tensor_63)[name = string("transpose_43")];
            tensor<fp32, [1, 64, 1, 40]> input_tensor_65 = add(x = input_tensor_51, y = second_43)[name = string("input_tensor_65")];
            tensor<int32, [4]> var_1015 = const()[name = string("op_1015"), val = tensor<int32, [4]>([0, 2, 3, 1])];
            tensor<int32, [3]> var_1025 = const()[name = string("op_1025"), val = tensor<int32, [3]>([1, 40, 64])];
            tensor<fp32, [1, 1, 40, 64]> input_tensor_67 = transpose(perm = var_1015, x = input_tensor_65)[name = string("transpose_42")];
            tensor<fp32, [1, 40, 64]> input_tensor_69 = reshape(shape = var_1025, x = input_tensor_67)[name = string("input_tensor_69")];
            tensor<int32, [3]> var_1030 = const()[name = string("op_1030"), val = tensor<int32, [3]>([1, 0, 2])];
            tensor<int32, [1]> slice_by_index_9 = const()[name = string("slice_by_index_9"), val = tensor<int32, [1]>([40])];
            tensor<int32, [1]> while_loop_2_loop_vars0_0 = const()[name = string("while_loop_2_loop_vars0_0"), val = tensor<int32, [1]>([0])];
            tensor<fp32, [40, 1, 64]> input_37 = transpose(perm = var_1030, x = input_tensor_69)[name = string("transpose_41")];
            tensor<int32, [1]> while_loop_2_0, tensor<fp32, [41, 1, 64]> while_loop_2_1 = while_loop(loop_vars = (while_loop_2_loop_vars0_0, concat_1))[name = string("while_loop_2")]
                (tensor<int32, [1]> while_loop_2_loop_vars0_0_x0_1_1_1_0, tensor<fp32, [41, 1, 64]> concat_6_x0_1_1_1_0) {
                    tensor<bool, [1]> less_5 = less(x = while_loop_2_loop_vars0_0_x0_1_1_1_0, y = slice_by_index_9)[name = string("less_5")];
                } -> (less_5)
                (tensor<int32, [1]> while_loop_2_loop_vars0_0_x0_1_1_1_1, tensor<fp32, [41, 1, 64]> concat_6_x0_1_1_1_1) {
                    int32 gather_10_batch_dims_0 = const()[name = string("gather_10_batch_dims_0"), val = int32(0)];
                    bool gather_10_validate_indices_0 = const()[name = string("gather_10_validate_indices_0"), val = bool(false)];
                    int32 greater_equal_4_y_0 = const()[name = string("greater_equal_4_y_0"), val = int32(0)];
                    tensor<bool, [1]> greater_equal_4 = greater_equal(x = while_loop_2_loop_vars0_0_x0_1_1_1_1, y = greater_equal_4_y_0)[name = string("greater_equal_4")];
                    int32 slice_by_index_40 = const()[name = string("slice_by_index_40"), val = int32(40)];
                    tensor<int32, [1]> add_84 = add(x = while_loop_2_loop_vars0_0_x0_1_1_1_1, y = slice_by_index_40)[name = string("add_84")];
                    tensor<int32, [1]> select_4 = select(a = while_loop_2_loop_vars0_0_x0_1_1_1_1, b = add_84, cond = greater_equal_4)[name = string("select_4")];
                    int32 gather_10_axis_1 = const()[name = string("gather_10_axis_1"), val = int32(0)];
                    tensor<fp32, [1, 1, 64]> gather_10 = gather(axis = gather_10_axis_1, batch_dims = gather_10_batch_dims_0, indices = select_4, validate_indices = gather_10_validate_indices_0, x = input_37)[name = string("gather_10")];
                    int32 gather_11_batch_dims_0 = const()[name = string("gather_11_batch_dims_0"), val = int32(0)];
                    bool gather_11_validate_indices_0 = const()[name = string("gather_11_validate_indices_0"), val = bool(false)];
                    int32 slice_by_index_41 = const()[name = string("slice_by_index_41"), val = int32(41)];
                    tensor<int32, [1]> add_85 = add(x = while_loop_2_loop_vars0_0_x0_1_1_1_1, y = slice_by_index_41)[name = string("add_85")];
                    tensor<int32, [1]> select_5 = select(a = while_loop_2_loop_vars0_0_x0_1_1_1_1, b = add_85, cond = greater_equal_4)[name = string("select_5")];
                    int32 gather_11_axis_1 = const()[name = string("gather_11_axis_1"), val = int32(0)];
                    tensor<fp32, [1, 1, 64]> gather_11 = gather(axis = gather_11_axis_1, batch_dims = gather_11_batch_dims_0, indices = select_5, validate_indices = gather_11_validate_indices_0, x = concat_6_x0_1_1_1_1)[name = string("gather_11")];
                    tensor<int32, [1]> squeeze_61_axes_0 = const()[name = string("squeeze_61_axes_0"), val = tensor<int32, [1]>([0])];
                    tensor<fp32, [1, 64]> squeeze_61 = squeeze(axes = squeeze_61_axes_0, x = gather_10)[name = string("squeeze_61")];
                    tensor<int32, [1]> squeeze_62_axes_0 = const()[name = string("squeeze_62_axes_0"), val = tensor<int32, [1]>([0])];
                    tensor<fp32, [1, 64]> squeeze_62 = squeeze(axes = squeeze_62_axes_0, x = gather_11)[name = string("squeeze_62")];
                    tensor<fp32, [64, 64]> linear_33_weight_0 = const()[name = string("linear_33_weight_0"), val = tensor<fp32, [64, 64]>(BLOBFILE(path = string("@model_path/weights/weight.bin"), offset = uint64(9650432)))];
                    tensor<fp32, [64]> linear_33_bias_0 = const()[name = string("linear_33_bias_0"), val = tensor<fp32, [64]>(BLOBFILE(path = string("@model_path/weights/weight.bin"), offset = uint64(9666880)))];
                    tensor<fp32, [1, 64]> linear_33 = linear(bias = linear_33_bias_0, weight = linear_33_weight_0, x = squeeze_61)[name = string("linear_33")];
                    tensor<fp32, [64, 64]> linear_34_weight_0 = const()[name = string("linear_34_weight_0"), val = tensor<fp32, [64, 64]>(BLOBFILE(path = string("@model_path/weights/weight.bin"), offset = uint64(9667200)))];
                    tensor<fp32, [64]> linear_34_bias_0 = const()[name = string("linear_34_bias_0"), val = tensor<fp32, [64]>(BLOBFILE(path = string("@model_path/weights/weight.bin"), offset = uint64(9683648)))];
                    tensor<fp32, [1, 64]> linear_34 = linear(bias = linear_34_bias_0, weight = linear_34_weight_0, x = squeeze_62)[name = string("linear_34")];
                    tensor<fp32, [1, 64]> add_25 = add(x = linear_33, y = linear_34)[name = string("add_25")];
                    tensor<fp32, [1, 64]> sigmoid_10 = sigmoid(x = add_25)[name = string("sigmoid_10")];
                    tensor<fp32, [64, 64]> linear_35_weight_0 = const()[name = string("linear_35_weight_0"), val = tensor<fp32, [64, 64]>(BLOBFILE(path = string("@model_path/weights/weight.bin"), offset = uint64(9683968)))];
                    tensor<fp32, [64]> linear_35_bias_0 = const()[name = string("linear_35_bias_0"), val = tensor<fp32, [64]>(BLOBFILE(path = string("@model_path/weights/weight.bin"), offset = uint64(9700416)))];
                    tensor<fp32, [1, 64]> linear_35 = linear(bias = linear_35_bias_0, weight = linear_35_weight_0, x = squeeze_61)[name = string("linear_35")];
                    tensor<fp32, [64, 64]> linear_36_weight_0 = const()[name = string("linear_36_weight_0"), val = tensor<fp32, [64, 64]>(BLOBFILE(path = string("@model_path/weights/weight.bin"), offset = uint64(9700736)))];
                    tensor<fp32, [64]> linear_36_bias_0 = const()[name = string("linear_36_bias_0"), val = tensor<fp32, [64]>(BLOBFILE(path = string("@model_path/weights/weight.bin"), offset = uint64(9717184)))];
                    tensor<fp32, [1, 64]> linear_36 = linear(bias = linear_36_bias_0, weight = linear_36_weight_0, x = squeeze_62)[name = string("linear_36")];
                    tensor<fp32, [1, 64]> add_26 = add(x = linear_35, y = linear_36)[name = string("add_26")];
                    tensor<fp32, [1, 64]> sigmoid_11 = sigmoid(x = add_26)[name = string("sigmoid_11")];
                    tensor<fp32, [64, 64]> linear_37_weight_0 = const()[name = string("linear_37_weight_0"), val = tensor<fp32, [64, 64]>(BLOBFILE(path = string("@model_path/weights/weight.bin"), offset = uint64(9717504)))];
                    tensor<fp32, [64]> linear_37_bias_0 = const()[name = string("linear_37_bias_0"), val = tensor<fp32, [64]>(BLOBFILE(path = string("@model_path/weights/weight.bin"), offset = uint64(9733952)))];
                    tensor<fp32, [1, 64]> linear_37 = linear(bias = linear_37_bias_0, weight = linear_37_weight_0, x = squeeze_61)[name = string("linear_37")];
                    tensor<fp32, [64, 64]> linear_38_weight_0 = const()[name = string("linear_38_weight_0"), val = tensor<fp32, [64, 64]>(BLOBFILE(path = string("@model_path/weights/weight.bin"), offset = uint64(9734272)))];
                    tensor<fp32, [64]> linear_38_bias_0 = const()[name = string("linear_38_bias_0"), val = tensor<fp32, [64]>(BLOBFILE(path = string("@model_path/weights/weight.bin"), offset = uint64(9750720)))];
                    tensor<fp32, [1, 64]> linear_38 = linear(bias = linear_38_bias_0, weight = linear_38_weight_0, x = squeeze_62)[name = string("linear_38")];
                    tensor<fp32, [1, 64]> mul_15 = mul(x = sigmoid_10, y = linear_38)[name = string("mul_15")];
                    tensor<fp32, [1, 64]> add_27 = add(x = linear_37, y = mul_15)[name = string("add_27")];
                    tensor<fp32, [1, 64]> tanh_5 = tanh(x = add_27)[name = string("tanh_5")];
                    fp32 sub_5_x_0 = const()[name = string("sub_5_x_0"), val = fp32(0x1p+0)];
                    tensor<fp32, [1, 64]> sub_5 = sub(x = sub_5_x_0, y = sigmoid_11)[name = string("sub_5")];
                    tensor<fp32, [1, 64]> mul_16 = mul(x = sub_5, y = tanh_5)[name = string("mul_16")];
                    tensor<fp32, [1, 64]> mul_17 = mul(x = sigmoid_11, y = squeeze_62)[name = string("mul_17")];
                    tensor<fp32, [1, 64]> add_28 = add(x = mul_16, y = mul_17)[name = string("add_28")];
                    int32 add_29_y_0 = const()[name = string("add_29_y_0"), val = int32(1)];
                    tensor<int32, [1]> add_29 = add(x = while_loop_2_loop_vars0_0_x0_1_1_1_1, y = add_29_y_0)[name = string("add_29")];
                    tensor<int32, [1]> expand_dims_5_axes_0 = const()[name = string("expand_dims_5_axes_0"), val = tensor<int32, [1]>([0])];
                    tensor<fp32, [1, 1, 64]> expand_dims_5 = expand_dims(axes = expand_dims_5_axes_0, x = add_28)[name = string("expand_dims_5")];
                    int32 scatter_5_axis_0 = const()[name = string("scatter_5_axis_0"), val = int32(0)];
                    string scatter_5_mode_0 = const()[name = string("scatter_5_mode_0"), val = string("add")];
                    bool scatter_5_validate_indices_0 = const()[name = string("scatter_5_validate_indices_0"), val = bool(false)];
                    tensor<fp32, [41, 1, 64]> scatter_5 = scatter(axis = scatter_5_axis_0, data = concat_6_x0_1_1_1_1, indices = add_29, mode = scatter_5_mode_0, updates = expand_dims_5, validate_indices = scatter_5_validate_indices_0)[name = string("scatter_5")];
                } -> (add_29, scatter_5);
            tensor<int32, [3]> var_1051_forward_begin_0 = const()[name = string("op_1051_forward_begin_0"), val = tensor<int32, [3]>([1, 0, 0])];
            tensor<int32, [3]> var_1051_forward_end_0 = const()[name = string("op_1051_forward_end_0"), val = tensor<int32, [3]>([0, 0, 0])];
            tensor<bool, [3]> var_1051_forward_begin_mask_0 = const()[name = string("op_1051_forward_begin_mask_0"), val = tensor<bool, [3]>([false, true, true])];
            tensor<bool, [3]> var_1051_forward_end_mask_0 = const()[name = string("op_1051_forward_end_mask_0"), val = tensor<bool, [3]>([true, true, true])];
            tensor<fp32, [40, 1, 64]> var_1051_forward = slice_by_index(begin = var_1051_forward_begin_0, begin_mask = var_1051_forward_begin_mask_0, end = var_1051_forward_end_0, end_mask = var_1051_forward_end_mask_0, x = while_loop_2_1)[name = string("op_1051_forward")];
            tensor<int32, [1]> reverse_1_axes_0 = const()[name = string("reverse_1_axes_0"), val = tensor<int32, [1]>([0])];
            tensor<fp32, [40, 1, 64]> reverse_1 = reverse(axes = reverse_1_axes_0, x = input_37)[name = string("reverse_1")];
            tensor<int32, [1]> slice_by_index_12 = const()[name = string("slice_by_index_12"), val = tensor<int32, [1]>([40])];
            tensor<int32, [1]> while_loop_3_loop_vars0_0 = const()[name = string("while_loop_3_loop_vars0_0"), val = tensor<int32, [1]>([0])];
            tensor<int32, [1]> while_loop_3_0, tensor<fp32, [41, 1, 64]> while_loop_3_1 = while_loop(loop_vars = (while_loop_3_loop_vars0_0, concat_1))[name = string("while_loop_3")]
                (tensor<int32, [1]> while_loop_3_loop_vars0_0_x0_1_1_1_0, tensor<fp32, [41, 1, 64]> concat_8_x0_1_1_1_0) {
                    tensor<bool, [1]> less_7 = less(x = while_loop_3_loop_vars0_0_x0_1_1_1_0, y = slice_by_index_12)[name = string("less_7")];
                } -> (less_7)
                (tensor<int32, [1]> while_loop_3_loop_vars0_0_x0_1_1_1_1, tensor<fp32, [41, 1, 64]> concat_8_x0_1_1_1_1) {
                    int32 gather_14_batch_dims_0 = const()[name = string("gather_14_batch_dims_0"), val = int32(0)];
                    bool gather_14_validate_indices_0 = const()[name = string("gather_14_validate_indices_0"), val = bool(false)];
                    int32 greater_equal_6_y_0 = const()[name = string("greater_equal_6_y_0"), val = int32(0)];
                    tensor<bool, [1]> greater_equal_6 = greater_equal(x = while_loop_3_loop_vars0_0_x0_1_1_1_1, y = greater_equal_6_y_0)[name = string("greater_equal_6")];
                    int32 slice_by_index_42 = const()[name = string("slice_by_index_42"), val = int32(40)];
                    tensor<int32, [1]> add_86 = add(x = while_loop_3_loop_vars0_0_x0_1_1_1_1, y = slice_by_index_42)[name = string("add_86")];
                    tensor<int32, [1]> select_6 = select(a = while_loop_3_loop_vars0_0_x0_1_1_1_1, b = add_86, cond = greater_equal_6)[name = string("select_6")];
                    int32 gather_14_axis_1 = const()[name = string("gather_14_axis_1"), val = int32(0)];
                    tensor<fp32, [1, 1, 64]> gather_14 = gather(axis = gather_14_axis_1, batch_dims = gather_14_batch_dims_0, indices = select_6, validate_indices = gather_14_validate_indices_0, x = reverse_1)[name = string("gather_14")];
                    int32 gather_15_batch_dims_0 = const()[name = string("gather_15_batch_dims_0"), val = int32(0)];
                    bool gather_15_validate_indices_0 = const()[name = string("gather_15_validate_indices_0"), val = bool(false)];
                    int32 slice_by_index_43 = const()[name = string("slice_by_index_43"), val = int32(41)];
                    tensor<int32, [1]> add_87 = add(x = while_loop_3_loop_vars0_0_x0_1_1_1_1, y = slice_by_index_43)[name = string("add_87")];
                    tensor<int32, [1]> select_7 = select(a = while_loop_3_loop_vars0_0_x0_1_1_1_1, b = add_87, cond = greater_equal_6)[name = string("select_7")];
                    int32 gather_15_axis_1 = const()[name = string("gather_15_axis_1"), val = int32(0)];
                    tensor<fp32, [1, 1, 64]> gather_15 = gather(axis = gather_15_axis_1, batch_dims = gather_15_batch_dims_0, indices = select_7, validate_indices = gather_15_validate_indices_0, x = concat_8_x0_1_1_1_1)[name = string("gather_15")];
                    tensor<int32, [1]> squeeze_65_axes_0 = const()[name = string("squeeze_65_axes_0"), val = tensor<int32, [1]>([0])];
                    tensor<fp32, [1, 64]> squeeze_65 = squeeze(axes = squeeze_65_axes_0, x = gather_14)[name = string("squeeze_65")];
                    tensor<int32, [1]> squeeze_66_axes_0 = const()[name = string("squeeze_66_axes_0"), val = tensor<int32, [1]>([0])];
                    tensor<fp32, [1, 64]> squeeze_66 = squeeze(axes = squeeze_66_axes_0, x = gather_15)[name = string("squeeze_66")];
                    tensor<fp32, [64, 64]> linear_45_weight_0 = const()[name = string("linear_45_weight_0"), val = tensor<fp32, [64, 64]>(BLOBFILE(path = string("@model_path/weights/weight.bin"), offset = uint64(9751040)))];
                    tensor<fp32, [64]> linear_45_bias_0 = const()[name = string("linear_45_bias_0"), val = tensor<fp32, [64]>(BLOBFILE(path = string("@model_path/weights/weight.bin"), offset = uint64(9767488)))];
                    tensor<fp32, [1, 64]> linear_45 = linear(bias = linear_45_bias_0, weight = linear_45_weight_0, x = squeeze_65)[name = string("linear_45")];
                    tensor<fp32, [64, 64]> linear_46_weight_0 = const()[name = string("linear_46_weight_0"), val = tensor<fp32, [64, 64]>(BLOBFILE(path = string("@model_path/weights/weight.bin"), offset = uint64(9767808)))];
                    tensor<fp32, [64]> linear_46_bias_0 = const()[name = string("linear_46_bias_0"), val = tensor<fp32, [64]>(BLOBFILE(path = string("@model_path/weights/weight.bin"), offset = uint64(9784256)))];
                    tensor<fp32, [1, 64]> linear_46 = linear(bias = linear_46_bias_0, weight = linear_46_weight_0, x = squeeze_66)[name = string("linear_46")];
                    tensor<fp32, [1, 64]> add_35 = add(x = linear_45, y = linear_46)[name = string("add_35")];
                    tensor<fp32, [1, 64]> sigmoid_14 = sigmoid(x = add_35)[name = string("sigmoid_14")];
                    tensor<fp32, [64, 64]> linear_47_weight_0 = const()[name = string("linear_47_weight_0"), val = tensor<fp32, [64, 64]>(BLOBFILE(path = string("@model_path/weights/weight.bin"), offset = uint64(9784576)))];
                    tensor<fp32, [64]> linear_47_bias_0 = const()[name = string("linear_47_bias_0"), val = tensor<fp32, [64]>(BLOBFILE(path = string("@model_path/weights/weight.bin"), offset = uint64(9801024)))];
                    tensor<fp32, [1, 64]> linear_47 = linear(bias = linear_47_bias_0, weight = linear_47_weight_0, x = squeeze_65)[name = string("linear_47")];
                    tensor<fp32, [64, 64]> linear_48_weight_0 = const()[name = string("linear_48_weight_0"), val = tensor<fp32, [64, 64]>(BLOBFILE(path = string("@model_path/weights/weight.bin"), offset = uint64(9801344)))];
                    tensor<fp32, [64]> linear_48_bias_0 = const()[name = string("linear_48_bias_0"), val = tensor<fp32, [64]>(BLOBFILE(path = string("@model_path/weights/weight.bin"), offset = uint64(9817792)))];
                    tensor<fp32, [1, 64]> linear_48 = linear(bias = linear_48_bias_0, weight = linear_48_weight_0, x = squeeze_66)[name = string("linear_48")];
                    tensor<fp32, [1, 64]> add_36 = add(x = linear_47, y = linear_48)[name = string("add_36")];
                    tensor<fp32, [1, 64]> sigmoid_15 = sigmoid(x = add_36)[name = string("sigmoid_15")];
                    tensor<fp32, [64, 64]> linear_49_weight_0 = const()[name = string("linear_49_weight_0"), val = tensor<fp32, [64, 64]>(BLOBFILE(path = string("@model_path/weights/weight.bin"), offset = uint64(9818112)))];
                    tensor<fp32, [64]> linear_49_bias_0 = const()[name = string("linear_49_bias_0"), val = tensor<fp32, [64]>(BLOBFILE(path = string("@model_path/weights/weight.bin"), offset = uint64(9834560)))];
                    tensor<fp32, [1, 64]> linear_49 = linear(bias = linear_49_bias_0, weight = linear_49_weight_0, x = squeeze_65)[name = string("linear_49")];
                    tensor<fp32, [64, 64]> linear_50_weight_0 = const()[name = string("linear_50_weight_0"), val = tensor<fp32, [64, 64]>(BLOBFILE(path = string("@model_path/weights/weight.bin"), offset = uint64(9834880)))];
                    tensor<fp32, [64]> linear_50_bias_0 = const()[name = string("linear_50_bias_0"), val = tensor<fp32, [64]>(BLOBFILE(path = string("@model_path/weights/weight.bin"), offset = uint64(9851328)))];
                    tensor<fp32, [1, 64]> linear_50 = linear(bias = linear_50_bias_0, weight = linear_50_weight_0, x = squeeze_66)[name = string("linear_50")];
                    tensor<fp32, [1, 64]> mul_21 = mul(x = sigmoid_14, y = linear_50)[name = string("mul_21")];
                    tensor<fp32, [1, 64]> add_37 = add(x = linear_49, y = mul_21)[name = string("add_37")];
                    tensor<fp32, [1, 64]> tanh_7 = tanh(x = add_37)[name = string("tanh_7")];
                    fp32 sub_7_x_0 = const()[name = string("sub_7_x_0"), val = fp32(0x1p+0)];
                    tensor<fp32, [1, 64]> sub_7 = sub(x = sub_7_x_0, y = sigmoid_15)[name = string("sub_7")];
                    tensor<fp32, [1, 64]> mul_22 = mul(x = sub_7, y = tanh_7)[name = string("mul_22")];
                    tensor<fp32, [1, 64]> mul_23 = mul(x = sigmoid_15, y = squeeze_66)[name = string("mul_23")];
                    tensor<fp32, [1, 64]> add_38 = add(x = mul_22, y = mul_23)[name = string("add_38")];
                    int32 add_39_y_0 = const()[name = string("add_39_y_0"), val = int32(1)];
                    tensor<int32, [1]> add_39 = add(x = while_loop_3_loop_vars0_0_x0_1_1_1_1, y = add_39_y_0)[name = string("add_39")];
                    tensor<int32, [1]> expand_dims_7_axes_0 = const()[name = string("expand_dims_7_axes_0"), val = tensor<int32, [1]>([0])];
                    tensor<fp32, [1, 1, 64]> expand_dims_7 = expand_dims(axes = expand_dims_7_axes_0, x = add_38)[name = string("expand_dims_7")];
                    int32 scatter_7_axis_0 = const()[name = string("scatter_7_axis_0"), val = int32(0)];
                    string scatter_7_mode_0 = const()[name = string("scatter_7_mode_0"), val = string("add")];
                    bool scatter_7_validate_indices_0 = const()[name = string("scatter_7_validate_indices_0"), val = bool(false)];
                    tensor<fp32, [41, 1, 64]> scatter_7 = scatter(axis = scatter_7_axis_0, data = concat_8_x0_1_1_1_1, indices = add_39, mode = scatter_7_mode_0, updates = expand_dims_7, validate_indices = scatter_7_validate_indices_0)[name = string("scatter_7")];
                } -> (add_39, scatter_7);
            tensor<int32, [3]> var_1051_backward_reverse_begin_0 = const()[name = string("op_1051_backward_reverse_begin_0"), val = tensor<int32, [3]>([1, 0, 0])];
            tensor<int32, [3]> var_1051_backward_reverse_end_0 = const()[name = string("op_1051_backward_reverse_end_0"), val = tensor<int32, [3]>([0, 0, 0])];
            tensor<bool, [3]> var_1051_backward_reverse_begin_mask_0 = const()[name = string("op_1051_backward_reverse_begin_mask_0"), val = tensor<bool, [3]>([false, true, true])];
            tensor<bool, [3]> var_1051_backward_reverse_end_mask_0 = const()[name = string("op_1051_backward_reverse_end_mask_0"), val = tensor<bool, [3]>([true, true, true])];
            tensor<fp32, [40, 1, 64]> var_1051_backward_reverse = slice_by_index(begin = var_1051_backward_reverse_begin_0, begin_mask = var_1051_backward_reverse_begin_mask_0, end = var_1051_backward_reverse_end_0, end_mask = var_1051_backward_reverse_end_mask_0, x = while_loop_3_1)[name = string("op_1051_backward_reverse")];
            tensor<int32, [1]> var_1051_backward_axes_0 = const()[name = string("op_1051_backward_axes_0"), val = tensor<int32, [1]>([0])];
            tensor<fp32, [40, 1, 64]> var_1051_backward = reverse(axes = var_1051_backward_axes_0, x = var_1051_backward_reverse)[name = string("op_1051_backward")];
            int32 var_1051_axis_0 = const()[name = string("op_1051_axis_0"), val = int32(2)];
            bool var_1051_interleave_0 = const()[name = string("op_1051_interleave_0"), val = bool(false)];
            tensor<fp32, [40, 1, 128]> var_1051 = concat(axis = var_1051_axis_0, interleave = var_1051_interleave_0, values = (var_1051_forward, var_1051_backward))[name = string("op_1051")];
            tensor<int32, [4]> concat_9 = const()[name = string("concat_9"), val = tensor<int32, [4]>([40, 1, 2, 64])];
            tensor<fp32, [40, 1, 2, 64]> var_1054 = reshape(shape = concat_9, x = var_1051)[name = string("op_1054")];
            tensor<int32, [3]> var_1072 = const()[name = string("op_1072"), val = tensor<int32, [3]>([40, 1, -1])];
            tensor<fp32, [40, 1, 128]> input_tensor_75 = reshape(shape = var_1072, x = var_1054)[name = string("input_tensor_75")];
            tensor<int32, [3]> var_1077 = const()[name = string("op_1077"), val = tensor<int32, [3]>([1, 0, 2])];
            tensor<fp32, [64, 128]> input_39_weight_0 = const()[name = string("input_39_weight_0"), val = tensor<fp32, [64, 128]>(BLOBFILE(path = string("@model_path/weights/weight.bin"), offset = uint64(9851648)))];
            tensor<fp32, [64]> input_39_bias_0 = const()[name = string("input_39_bias_0"), val = tensor<fp32, [64]>(BLOBFILE(path = string("@model_path/weights/weight.bin"), offset = uint64(9884480)))];
            tensor<fp32, [1, 40, 128]> x_9 = transpose(perm = var_1077, x = input_tensor_75)[name = string("transpose_40")];
            tensor<fp32, [1, 40, 64]> input_39 = linear(bias = input_39_bias_0, weight = input_39_weight_0, x = x_9)[name = string("input_39")];
            fp32 var_1083 = const()[name = string("op_1083"), val = fp32(0x1.4f8b58p-17)];
            tensor<int32, [1]> input_tensor_77_axes_0 = const()[name = string("input_tensor_77_axes_0"), val = tensor<int32, [1]>([-1])];
            tensor<fp32, [1, 40, 64]> input_tensor_77 = layer_norm(axes = input_tensor_77_axes_0, beta = model_enc_dprnn_erb_blocks_1_ln_intra_LayerNormalization_bias, epsilon = var_1083, gamma = model_enc_dprnn_erb_blocks_1_ln_intra_LayerNormalization_weight, x = input_39)[name = string("input_tensor_77")];
            tensor<int32, [4]> var_1099 = const()[name = string("op_1099"), val = tensor<int32, [4]>([1, 1, 40, 64])];
            tensor<fp32, [1, 1, 40, 64]> input_tensor_79 = reshape(shape = var_1099, x = input_tensor_77)[name = string("input_tensor_79")];
            tensor<int32, [4]> var_1105 = const()[name = string("op_1105"), val = tensor<int32, [4]>([0, 3, 1, 2])];
            tensor<fp32, [1, 64, 1, 40]> second_47 = transpose(perm = var_1105, x = input_tensor_79)[name = string("transpose_39")];
            tensor<fp32, [1, 64, 1, 40]> input_tensor_81 = add(x = input_tensor_65, y = second_47)[name = string("input_tensor_81")];
            tensor<int32, [4]> var_1113 = const()[name = string("op_1113"), val = tensor<int32, [4]>([0, 3, 2, 1])];
            tensor<int32, [2]> var_1121 = const()[name = string("op_1121"), val = tensor<int32, [2]>([40, 64])];
            tensor<fp32, [1, 40, 1, 64]> input_tensor_83 = transpose(perm = var_1113, x = input_tensor_81)[name = string("transpose_38")];
            tensor<fp32, [40, 64]> input_41 = reshape(shape = var_1121, x = input_tensor_83)[name = string("input_41")];
            tensor<int32, [1]> input_tensor_85_begin_0 = const()[name = string("input_tensor_85_begin_0"), val = tensor<int32, [1]>([4580])];
            tensor<int32, [1]> input_tensor_85_end_0 = const()[name = string("input_tensor_85_end_0"), val = tensor<int32, [1]>([7140])];
            tensor<bool, [1]> input_tensor_85_end_mask_0 = const()[name = string("input_tensor_85_end_mask_0"), val = tensor<bool, [1]>([false])];
            tensor<fp32, [2560]> input_tensor_85 = slice_by_index(begin = input_tensor_85_begin_0, end = input_tensor_85_end_0, end_mask = input_tensor_85_end_mask_0, x = state_in)[name = string("input_tensor_85")];
            tensor<int32, [2]> var_1138 = const()[name = string("op_1138"), val = tensor<int32, [2]>([40, 64])];
            tensor<fp32, [40, 64]> input_43 = reshape(shape = var_1138, x = input_tensor_85)[name = string("input_43")];
            tensor<fp32, [40, 192]> var_1142 = linear(bias = model_enc_dprnn_erb_blocks_1_inter_gru_grucell_Gemm_bias, weight = model_enc_dprnn_erb_blocks_1_inter_gru_grucell_Gemm_weight, x = input_41)[name = string("linear_51")];
            tensor<int32, [3]> var_1145 = const()[name = string("op_1145"), val = tensor<int32, [3]>([64, 64, 64])];
            int32 var_1146_axis_0 = const()[name = string("op_1146_axis_0"), val = int32(1)];
            tensor<fp32, [40, 64]> var_1146_0, tensor<fp32, [40, 64]> var_1146_1, tensor<fp32, [40, 64]> var_1146_2 = split(axis = var_1146_axis_0, split_sizes = var_1145, x = var_1142)[name = string("op_1146")];
            tensor<fp32, [40, 192]> var_1156 = linear(bias = model_enc_dprnn_erb_blocks_1_inter_gru_grucell_Gemm_1_bias, weight = model_enc_dprnn_erb_blocks_1_inter_gru_grucell_Gemm_1_weight, x = input_43)[name = string("linear_52")];
            tensor<int32, [3]> var_1159 = const()[name = string("op_1159"), val = tensor<int32, [3]>([64, 64, 64])];
            int32 var_1160_axis_0 = const()[name = string("op_1160_axis_0"), val = int32(1)];
            tensor<fp32, [40, 64]> var_1160_0, tensor<fp32, [40, 64]> var_1160_1, tensor<fp32, [40, 64]> var_1160_2 = split(axis = var_1160_axis_0, split_sizes = var_1159, x = var_1156)[name = string("op_1160")];
            tensor<fp32, [40, 64]> input_45 = add(x = var_1160_0, y = var_1146_0)[name = string("input_45")];
            tensor<fp32, [40, 64]> second_53 = sigmoid(x = input_45)[name = string("second_53")];
            tensor<fp32, [40, 64]> input_47 = add(x = var_1160_1, y = var_1146_1)[name = string("input_47")];
            tensor<fp32, [40, 64]> second_59 = sigmoid(x = input_47)[name = string("second_59")];
            tensor<fp32, [40, 64]> second_55 = mul(x = var_1160_2, y = second_53)[name = string("second_55")];
            tensor<fp32, [40, 64]> input_tensor_87 = add(x = var_1146_2, y = second_55)[name = string("input_tensor_87")];
            tensor<fp32, [40, 64]> second_57 = tanh(x = input_tensor_87)[name = string("second_57")];
            tensor<fp32, [40, 64]> first_51 = sub(x = input_43, y = second_57)[name = string("first_51")];
            tensor<fp32, [40, 64]> first_53 = mul(x = first_51, y = second_59)[name = string("first_53")];
            tensor<fp32, [40, 64]> input_tensor_89 = add(x = first_53, y = second_57)[name = string("input_tensor_89")];
            tensor<int32, [1]> var_1187 = const()[name = string("op_1187"), val = tensor<int32, [1]>([-1])];
            tensor<fp32, [2560]> var_1188 = reshape(shape = var_1187, x = input_tensor_89)[name = string("op_1188")];
            tensor<fp32, [40, 64]> input_49 = linear(bias = model_enc_dprnn_erb_blocks_1_fc_inter_Gemm_bias, weight = model_enc_dprnn_erb_blocks_1_fc_inter_Gemm_weight, x = input_tensor_89)[name = string("linear_53")];
            fp32 var_1193 = const()[name = string("op_1193"), val = fp32(0x1.4f8b58p-17)];
            tensor<int32, [1]> input_tensor_91_axes_0 = const()[name = string("input_tensor_91_axes_0"), val = tensor<int32, [1]>([-1])];
            tensor<fp32, [40, 64]> input_tensor_91 = layer_norm(axes = input_tensor_91_axes_0, beta = model_enc_dprnn_erb_blocks_1_ln_inter_LayerNormalization_bias, epsilon = var_1193, gamma = model_enc_dprnn_erb_blocks_1_ln_inter_LayerNormalization_weight, x = input_49)[name = string("input_tensor_91")];
            tensor<int32, [4]> var_1209 = const()[name = string("op_1209"), val = tensor<int32, [4]>([1, 40, 1, 64])];
            tensor<fp32, [1, 40, 1, 64]> input_tensor_93 = reshape(shape = var_1209, x = input_tensor_91)[name = string("input_tensor_93")];
            tensor<int32, [4]> var_1215 = const()[name = string("op_1215"), val = tensor<int32, [4]>([0, 3, 2, 1])];
            tensor<fp32, [1, 64, 1, 40]> second_61 = transpose(perm = var_1215, x = input_tensor_93)[name = string("transpose_37")];
            tensor<fp32, [1, 64, 1, 40]> input_tensor_169 = add(x = input_tensor_81, y = second_61)[name = string("input_tensor_169")];
            tensor<int32, [4]> var_1223 = const()[name = string("op_1223"), val = tensor<int32, [4]>([1, 0, 3, 2])];
            tensor<int32, [1]> input_tensor_97_begin_0 = const()[name = string("input_tensor_97_begin_0"), val = tensor<int32, [1]>([7140])];
            tensor<int32, [1]> input_tensor_97_end_0 = const()[name = string("input_tensor_97_end_0"), val = tensor<int32, [1]>([7716])];
            tensor<bool, [1]> input_tensor_97_end_mask_0 = const()[name = string("input_tensor_97_end_mask_0"), val = tensor<bool, [1]>([false])];
            tensor<fp32, [576]> input_tensor_97 = slice_by_index(begin = input_tensor_97_begin_0, end = input_tensor_97_end_0, end_mask = input_tensor_97_end_mask_0, x = state_in)[name = string("input_tensor_97")];
            tensor<int32, [4]> var_1244 = const()[name = string("op_1244"), val = tensor<int32, [4]>([3, 1, 2, 96])];
            tensor<fp32, [3, 1, 2, 96]> x_11 = reshape(shape = var_1244, x = input_tensor_97)[name = string("x_11")];
            tensor<int32, [4]> var_1254_begin_0 = const()[name = string("op_1254_begin_0"), val = tensor<int32, [4]>([1, 0, 0, 0])];
            tensor<int32, [4]> var_1254_end_0 = const()[name = string("op_1254_end_0"), val = tensor<int32, [4]>([1, 1, 2, 96])];
            tensor<bool, [4]> var_1254_end_mask_0 = const()[name = string("op_1254_end_mask_0"), val = tensor<bool, [4]>([true, true, true, true])];
            tensor<fp32, [2, 1, 2, 96]> var_1254 = slice_by_index(begin = var_1254_begin_0, end = var_1254_end_0, end_mask = var_1254_end_mask_0, x = x_11)[name = string("op_1254")];
            int32 var_1255 = const()[name = string("op_1255"), val = int32(0)];
            bool x_13_interleave_0 = const()[name = string("x_13_interleave_0"), val = bool(false)];
            tensor<fp32, [1, 1, 2, 96]> var_1224 = transpose(perm = var_1223, x = input_tensor_95)[name = string("transpose_36")];
            tensor<fp32, [3, 1, 2, 96]> x_13 = concat(axis = var_1255, interleave = x_13_interleave_0, values = (var_1254, var_1224))[name = string("x_13")];
            tensor<int32, [4]> var_1271 = const()[name = string("op_1271"), val = tensor<int32, [4]>([1, 2, 0, 3])];
            tensor<int32, [1]> var_1277 = const()[name = string("op_1277"), val = tensor<int32, [1]>([-1])];
            tensor<fp32, [576]> var_1278 = reshape(shape = var_1277, x = x_13)[name = string("op_1278")];
            tensor<int32, [4]> input_51_begin_0 = const()[name = string("input_51_begin_0"), val = tensor<int32, [4]>([0, 0, 0, 0])];
            tensor<int32, [4]> input_51_end_0 = const()[name = string("input_51_end_0"), val = tensor<int32, [4]>([1, 1, 3, 96])];
            tensor<bool, [4]> input_51_end_mask_0 = const()[name = string("input_51_end_mask_0"), val = tensor<bool, [4]>([true, false, true, true])];
            tensor<fp32, [1, 2, 3, 96]> x_15 = transpose(perm = var_1271, x = x_13)[name = string("transpose_35")];
            tensor<fp32, [1, 1, 3, 96]> input_51 = slice_by_index(begin = input_51_begin_0, end = input_51_end_0, end_mask = input_51_end_mask_0, x = x_15)[name = string("input_51")];
            tensor<int32, [4]> input_53_begin_0 = const()[name = string("input_53_begin_0"), val = tensor<int32, [4]>([0, 1, 0, 0])];
            tensor<int32, [4]> input_53_end_0 = const()[name = string("input_53_end_0"), val = tensor<int32, [4]>([1, 1, 3, 96])];
            tensor<bool, [4]> input_53_end_mask_0 = const()[name = string("input_53_end_mask_0"), val = tensor<bool, [4]>([true, true, true, true])];
            tensor<fp32, [1, 1, 3, 96]> input_53 = slice_by_index(begin = input_53_begin_0, end = input_53_end_0, end_mask = input_53_end_mask_0, x = x_15)[name = string("input_53")];
            string var_1311_pad_type_0 = const()[name = string("op_1311_pad_type_0"), val = string("custom")];
            tensor<int32, [4]> var_1311_pad_0 = const()[name = string("op_1311_pad_0"), val = tensor<int32, [4]>([0, 0, 1, 1])];
            tensor<int32, [2]> var_1311_strides_0 = const()[name = string("op_1311_strides_0"), val = tensor<int32, [2]>([1, 1])];
            tensor<int32, [2]> var_1311_dilations_0 = const()[name = string("op_1311_dilations_0"), val = tensor<int32, [2]>([1, 1])];
            int32 var_1311_groups_0 = const()[name = string("op_1311_groups_0"), val = int32(1)];
            tensor<fp32, [1, 32, 1, 96]> var_1311 = conv(dilations = var_1311_dilations_0, groups = var_1311_groups_0, pad = var_1311_pad_0, pad_type = var_1311_pad_type_0, strides = var_1311_strides_0, weight = model_enc_df_conv0_df_conv0_1_convs_0_Conv_weight, x = input_51)[name = string("op_1311")];
            string var_1322_pad_type_0 = const()[name = string("op_1322_pad_type_0"), val = string("custom")];
            tensor<int32, [4]> var_1322_pad_0 = const()[name = string("op_1322_pad_0"), val = tensor<int32, [4]>([0, 0, 1, 1])];
            tensor<int32, [2]> var_1322_strides_0 = const()[name = string("op_1322_strides_0"), val = tensor<int32, [2]>([1, 1])];
            tensor<int32, [2]> var_1322_dilations_0 = const()[name = string("op_1322_dilations_0"), val = tensor<int32, [2]>([1, 1])];
            int32 var_1322_groups_0 = const()[name = string("op_1322_groups_0"), val = int32(1)];
            tensor<fp32, [1, 32, 1, 96]> var_1322 = conv(dilations = var_1322_dilations_0, groups = var_1322_groups_0, pad = var_1322_pad_0, pad_type = var_1322_pad_type_0, strides = var_1322_strides_0, weight = model_enc_df_conv0_df_conv0_1_convs_1_Conv_weight, x = input_53)[name = string("op_1322")];
            int32 var_1323 = const()[name = string("op_1323"), val = int32(1)];
            bool input_55_interleave_0 = const()[name = string("input_55_interleave_0"), val = bool(false)];
            tensor<fp32, [1, 64, 1, 96]> input_55 = concat(axis = var_1323, interleave = input_55_interleave_0, values = (var_1311, var_1322))[name = string("input_55")];
            string input_57_pad_type_0 = const()[name = string("input_57_pad_type_0"), val = string("valid")];
            tensor<int32, [2]> input_57_strides_0 = const()[name = string("input_57_strides_0"), val = tensor<int32, [2]>([1, 1])];
            tensor<int32, [4]> input_57_pad_0 = const()[name = string("input_57_pad_0"), val = tensor<int32, [4]>([0, 0, 0, 0])];
            tensor<int32, [2]> input_57_dilations_0 = const()[name = string("input_57_dilations_0"), val = tensor<int32, [2]>([1, 1])];
            int32 input_57_groups_0 = const()[name = string("input_57_groups_0"), val = int32(1)];
            tensor<fp32, [1, 64, 1, 96]> input_57 = conv(bias = model_enc_df_conv0_df_conv0_2_Conv_bias, dilations = input_57_dilations_0, groups = input_57_groups_0, pad = input_57_pad_0, pad_type = input_57_pad_type_0, strides = input_57_strides_0, weight = model_enc_df_conv0_df_conv0_2_Conv_weight, x = input_55)[name = string("input_57")];
            tensor<fp32, [1, 64, 1, 96]> input_59 = relu(x = input_57)[name = string("input_59")];
            string input_61_pad_type_0 = const()[name = string("input_61_pad_type_0"), val = string("custom")];
            tensor<int32, [4]> input_61_pad_0 = const()[name = string("input_61_pad_0"), val = tensor<int32, [4]>([0, 0, 1, 1])];
            tensor<int32, [2]> input_61_strides_0 = const()[name = string("input_61_strides_0"), val = tensor<int32, [2]>([1, 2])];
            int32 input_61_groups_0 = const()[name = string("input_61_groups_0"), val = int32(64)];
            tensor<int32, [2]> input_61_dilations_0 = const()[name = string("input_61_dilations_0"), val = tensor<int32, [2]>([1, 1])];
            tensor<fp32, [1, 64, 1, 48]> input_61 = conv(dilations = input_61_dilations_0, groups = input_61_groups_0, pad = input_61_pad_0, pad_type = input_61_pad_type_0, strides = input_61_strides_0, weight = model_enc_df_conv1_df_conv1_0_Conv_weight, x = input_59)[name = string("input_61")];
            string input_63_pad_type_0 = const()[name = string("input_63_pad_type_0"), val = string("valid")];
            tensor<int32, [2]> input_63_strides_0 = const()[name = string("input_63_strides_0"), val = tensor<int32, [2]>([1, 1])];
            tensor<int32, [4]> input_63_pad_0 = const()[name = string("input_63_pad_0"), val = tensor<int32, [4]>([0, 0, 0, 0])];
            tensor<int32, [2]> input_63_dilations_0 = const()[name = string("input_63_dilations_0"), val = tensor<int32, [2]>([1, 1])];
            int32 input_63_groups_0 = const()[name = string("input_63_groups_0"), val = int32(1)];
            tensor<fp32, [1, 64, 1, 48]> input_63 = conv(bias = model_enc_df_conv1_df_conv1_1_Conv_bias, dilations = input_63_dilations_0, groups = input_63_groups_0, pad = input_63_pad_0, pad_type = input_63_pad_type_0, strides = input_63_strides_0, weight = model_enc_df_conv1_df_conv1_1_Conv_weight, x = input_61)[name = string("input_63")];
            tensor<fp32, [1, 64, 1, 48]> input_tensor_101 = relu(x = input_63)[name = string("input_tensor_101")];
            tensor<int32, [4]> var_1367 = const()[name = string("op_1367"), val = tensor<int32, [4]>([0, 2, 3, 1])];
            tensor<int32, [3]> var_1377 = const()[name = string("op_1377"), val = tensor<int32, [3]>([1, 48, 64])];
            tensor<fp32, [1, 1, 48, 64]> input_tensor_103 = transpose(perm = var_1367, x = input_tensor_101)[name = string("transpose_34")];
            tensor<fp32, [1, 48, 64]> input_tensor_105 = reshape(shape = var_1377, x = input_tensor_103)[name = string("input_tensor_105")];
            tensor<int32, [3]> var_1382 = const()[name = string("op_1382"), val = tensor<int32, [3]>([1, 0, 2])];
            tensor<int32, [1]> slice_by_index_17 = const()[name = string("slice_by_index_17"), val = tensor<int32, [1]>([48])];
            tensor<fp32, [49, 1, 64]> concat_11 = const()[name = string("concat_11"), val = tensor<fp32, [49, 1, 64]>(BLOBFILE(path = string("@model_path/weights/weight.bin"), offset = uint64(9884800)))];
            tensor<int32, [1]> while_loop_4_loop_vars0_0 = const()[name = string("while_loop_4_loop_vars0_0"), val = tensor<int32, [1]>([0])];
            tensor<fp32, [48, 1, 64]> input_65 = transpose(perm = var_1382, x = input_tensor_105)[name = string("transpose_33")];
            tensor<int32, [1]> while_loop_4_0, tensor<fp32, [49, 1, 64]> while_loop_4_1 = while_loop(loop_vars = (while_loop_4_loop_vars0_0, concat_11))[name = string("while_loop_4")]
                (tensor<int32, [1]> while_loop_4_loop_vars0_0_x0_1_1_1_0, tensor<fp32, [49, 1, 64]> concat_11_x0_1_1_1_0) {
                    tensor<bool, [1]> less_9 = less(x = while_loop_4_loop_vars0_0_x0_1_1_1_0, y = slice_by_index_17)[name = string("less_9")];
                } -> (less_9)
                (tensor<int32, [1]> while_loop_4_loop_vars0_0_x0_1_1_1_1, tensor<fp32, [49, 1, 64]> concat_11_x0_1_1_1_1) {
                    int32 gather_18_batch_dims_0 = const()[name = string("gather_18_batch_dims_0"), val = int32(0)];
                    bool gather_18_validate_indices_0 = const()[name = string("gather_18_validate_indices_0"), val = bool(false)];
                    int32 greater_equal_8_y_0 = const()[name = string("greater_equal_8_y_0"), val = int32(0)];
                    tensor<bool, [1]> greater_equal_8 = greater_equal(x = while_loop_4_loop_vars0_0_x0_1_1_1_1, y = greater_equal_8_y_0)[name = string("greater_equal_8")];
                    int32 slice_by_index_44 = const()[name = string("slice_by_index_44"), val = int32(48)];
                    tensor<int32, [1]> add_88 = add(x = while_loop_4_loop_vars0_0_x0_1_1_1_1, y = slice_by_index_44)[name = string("add_88")];
                    tensor<int32, [1]> select_8 = select(a = while_loop_4_loop_vars0_0_x0_1_1_1_1, b = add_88, cond = greater_equal_8)[name = string("select_8")];
                    int32 gather_18_axis_1 = const()[name = string("gather_18_axis_1"), val = int32(0)];
                    tensor<fp32, [1, 1, 64]> gather_18 = gather(axis = gather_18_axis_1, batch_dims = gather_18_batch_dims_0, indices = select_8, validate_indices = gather_18_validate_indices_0, x = input_65)[name = string("gather_18")];
                    int32 gather_19_batch_dims_0 = const()[name = string("gather_19_batch_dims_0"), val = int32(0)];
                    bool gather_19_validate_indices_0 = const()[name = string("gather_19_validate_indices_0"), val = bool(false)];
                    int32 slice_by_index_45 = const()[name = string("slice_by_index_45"), val = int32(49)];
                    tensor<int32, [1]> add_89 = add(x = while_loop_4_loop_vars0_0_x0_1_1_1_1, y = slice_by_index_45)[name = string("add_89")];
                    tensor<int32, [1]> select_9 = select(a = while_loop_4_loop_vars0_0_x0_1_1_1_1, b = add_89, cond = greater_equal_8)[name = string("select_9")];
                    int32 gather_19_axis_1 = const()[name = string("gather_19_axis_1"), val = int32(0)];
                    tensor<fp32, [1, 1, 64]> gather_19 = gather(axis = gather_19_axis_1, batch_dims = gather_19_batch_dims_0, indices = select_9, validate_indices = gather_19_validate_indices_0, x = concat_11_x0_1_1_1_1)[name = string("gather_19")];
                    tensor<int32, [1]> squeeze_105_axes_0 = const()[name = string("squeeze_105_axes_0"), val = tensor<int32, [1]>([0])];
                    tensor<fp32, [1, 64]> squeeze_105 = squeeze(axes = squeeze_105_axes_0, x = gather_18)[name = string("squeeze_105")];
                    tensor<int32, [1]> squeeze_106_axes_0 = const()[name = string("squeeze_106_axes_0"), val = tensor<int32, [1]>([0])];
                    tensor<fp32, [1, 64]> squeeze_106 = squeeze(axes = squeeze_106_axes_0, x = gather_19)[name = string("squeeze_106")];
                    tensor<fp32, [64, 64]> linear_60_weight_0 = const()[name = string("linear_60_weight_0"), val = tensor<fp32, [64, 64]>(BLOBFILE(path = string("@model_path/weights/weight.bin"), offset = uint64(9897408)))];
                    tensor<fp32, [64]> linear_60_bias_0 = const()[name = string("linear_60_bias_0"), val = tensor<fp32, [64]>(BLOBFILE(path = string("@model_path/weights/weight.bin"), offset = uint64(9913856)))];
                    tensor<fp32, [1, 64]> linear_60 = linear(bias = linear_60_bias_0, weight = linear_60_weight_0, x = squeeze_105)[name = string("linear_60")];
                    tensor<fp32, [64, 64]> linear_61_weight_0 = const()[name = string("linear_61_weight_0"), val = tensor<fp32, [64, 64]>(BLOBFILE(path = string("@model_path/weights/weight.bin"), offset = uint64(9914176)))];
                    tensor<fp32, [64]> linear_61_bias_0 = const()[name = string("linear_61_bias_0"), val = tensor<fp32, [64]>(BLOBFILE(path = string("@model_path/weights/weight.bin"), offset = uint64(9930624)))];
                    tensor<fp32, [1, 64]> linear_61 = linear(bias = linear_61_bias_0, weight = linear_61_weight_0, x = squeeze_106)[name = string("linear_61")];
                    tensor<fp32, [1, 64]> add_45 = add(x = linear_60, y = linear_61)[name = string("add_45")];
                    tensor<fp32, [1, 64]> sigmoid_18 = sigmoid(x = add_45)[name = string("sigmoid_18")];
                    tensor<fp32, [64, 64]> linear_62_weight_0 = const()[name = string("linear_62_weight_0"), val = tensor<fp32, [64, 64]>(BLOBFILE(path = string("@model_path/weights/weight.bin"), offset = uint64(9930944)))];
                    tensor<fp32, [64]> linear_62_bias_0 = const()[name = string("linear_62_bias_0"), val = tensor<fp32, [64]>(BLOBFILE(path = string("@model_path/weights/weight.bin"), offset = uint64(9947392)))];
                    tensor<fp32, [1, 64]> linear_62 = linear(bias = linear_62_bias_0, weight = linear_62_weight_0, x = squeeze_105)[name = string("linear_62")];
                    tensor<fp32, [64, 64]> linear_63_weight_0 = const()[name = string("linear_63_weight_0"), val = tensor<fp32, [64, 64]>(BLOBFILE(path = string("@model_path/weights/weight.bin"), offset = uint64(9947712)))];
                    tensor<fp32, [64]> linear_63_bias_0 = const()[name = string("linear_63_bias_0"), val = tensor<fp32, [64]>(BLOBFILE(path = string("@model_path/weights/weight.bin"), offset = uint64(9964160)))];
                    tensor<fp32, [1, 64]> linear_63 = linear(bias = linear_63_bias_0, weight = linear_63_weight_0, x = squeeze_106)[name = string("linear_63")];
                    tensor<fp32, [1, 64]> add_46 = add(x = linear_62, y = linear_63)[name = string("add_46")];
                    tensor<fp32, [1, 64]> sigmoid_19 = sigmoid(x = add_46)[name = string("sigmoid_19")];
                    tensor<fp32, [64, 64]> linear_64_weight_0 = const()[name = string("linear_64_weight_0"), val = tensor<fp32, [64, 64]>(BLOBFILE(path = string("@model_path/weights/weight.bin"), offset = uint64(9964480)))];
                    tensor<fp32, [64]> linear_64_bias_0 = const()[name = string("linear_64_bias_0"), val = tensor<fp32, [64]>(BLOBFILE(path = string("@model_path/weights/weight.bin"), offset = uint64(9980928)))];
                    tensor<fp32, [1, 64]> linear_64 = linear(bias = linear_64_bias_0, weight = linear_64_weight_0, x = squeeze_105)[name = string("linear_64")];
                    tensor<fp32, [64, 64]> linear_65_weight_0 = const()[name = string("linear_65_weight_0"), val = tensor<fp32, [64, 64]>(BLOBFILE(path = string("@model_path/weights/weight.bin"), offset = uint64(9981248)))];
                    tensor<fp32, [64]> linear_65_bias_0 = const()[name = string("linear_65_bias_0"), val = tensor<fp32, [64]>(BLOBFILE(path = string("@model_path/weights/weight.bin"), offset = uint64(9997696)))];
                    tensor<fp32, [1, 64]> linear_65 = linear(bias = linear_65_bias_0, weight = linear_65_weight_0, x = squeeze_106)[name = string("linear_65")];
                    tensor<fp32, [1, 64]> mul_27 = mul(x = sigmoid_18, y = linear_65)[name = string("mul_27")];
                    tensor<fp32, [1, 64]> add_47 = add(x = linear_64, y = mul_27)[name = string("add_47")];
                    tensor<fp32, [1, 64]> tanh_9 = tanh(x = add_47)[name = string("tanh_9")];
                    fp32 sub_9_x_0 = const()[name = string("sub_9_x_0"), val = fp32(0x1p+0)];
                    tensor<fp32, [1, 64]> sub_9 = sub(x = sub_9_x_0, y = sigmoid_19)[name = string("sub_9")];
                    tensor<fp32, [1, 64]> mul_28 = mul(x = sub_9, y = tanh_9)[name = string("mul_28")];
                    tensor<fp32, [1, 64]> mul_29 = mul(x = sigmoid_19, y = squeeze_106)[name = string("mul_29")];
                    tensor<fp32, [1, 64]> add_48 = add(x = mul_28, y = mul_29)[name = string("add_48")];
                    int32 add_49_y_0 = const()[name = string("add_49_y_0"), val = int32(1)];
                    tensor<int32, [1]> add_49 = add(x = while_loop_4_loop_vars0_0_x0_1_1_1_1, y = add_49_y_0)[name = string("add_49")];
                    tensor<int32, [1]> expand_dims_9_axes_0 = const()[name = string("expand_dims_9_axes_0"), val = tensor<int32, [1]>([0])];
                    tensor<fp32, [1, 1, 64]> expand_dims_9 = expand_dims(axes = expand_dims_9_axes_0, x = add_48)[name = string("expand_dims_9")];
                    int32 scatter_9_axis_0 = const()[name = string("scatter_9_axis_0"), val = int32(0)];
                    string scatter_9_mode_0 = const()[name = string("scatter_9_mode_0"), val = string("add")];
                    bool scatter_9_validate_indices_0 = const()[name = string("scatter_9_validate_indices_0"), val = bool(false)];
                    tensor<fp32, [49, 1, 64]> scatter_9 = scatter(axis = scatter_9_axis_0, data = concat_11_x0_1_1_1_1, indices = add_49, mode = scatter_9_mode_0, updates = expand_dims_9, validate_indices = scatter_9_validate_indices_0)[name = string("scatter_9")];
                } -> (add_49, scatter_9);
            tensor<int32, [3]> var_1403_forward_begin_0 = const()[name = string("op_1403_forward_begin_0"), val = tensor<int32, [3]>([1, 0, 0])];
            tensor<int32, [3]> var_1403_forward_end_0 = const()[name = string("op_1403_forward_end_0"), val = tensor<int32, [3]>([0, 0, 0])];
            tensor<bool, [3]> var_1403_forward_begin_mask_0 = const()[name = string("op_1403_forward_begin_mask_0"), val = tensor<bool, [3]>([false, true, true])];
            tensor<bool, [3]> var_1403_forward_end_mask_0 = const()[name = string("op_1403_forward_end_mask_0"), val = tensor<bool, [3]>([true, true, true])];
            tensor<fp32, [48, 1, 64]> var_1403_forward = slice_by_index(begin = var_1403_forward_begin_0, begin_mask = var_1403_forward_begin_mask_0, end = var_1403_forward_end_0, end_mask = var_1403_forward_end_mask_0, x = while_loop_4_1)[name = string("op_1403_forward")];
            tensor<int32, [1]> reverse_2_axes_0 = const()[name = string("reverse_2_axes_0"), val = tensor<int32, [1]>([0])];
            tensor<fp32, [48, 1, 64]> reverse_2 = reverse(axes = reverse_2_axes_0, x = input_65)[name = string("reverse_2")];
            tensor<int32, [1]> slice_by_index_20 = const()[name = string("slice_by_index_20"), val = tensor<int32, [1]>([48])];
            tensor<int32, [1]> while_loop_5_loop_vars0_0 = const()[name = string("while_loop_5_loop_vars0_0"), val = tensor<int32, [1]>([0])];
            tensor<int32, [1]> while_loop_5_0, tensor<fp32, [49, 1, 64]> while_loop_5_1 = while_loop(loop_vars = (while_loop_5_loop_vars0_0, concat_11))[name = string("while_loop_5")]
                (tensor<int32, [1]> while_loop_5_loop_vars0_0_x0_1_1_1_0, tensor<fp32, [49, 1, 64]> concat_13_x0_1_1_1_0) {
                    tensor<bool, [1]> less_11 = less(x = while_loop_5_loop_vars0_0_x0_1_1_1_0, y = slice_by_index_20)[name = string("less_11")];
                } -> (less_11)
                (tensor<int32, [1]> while_loop_5_loop_vars0_0_x0_1_1_1_1, tensor<fp32, [49, 1, 64]> concat_13_x0_1_1_1_1) {
                    int32 gather_22_batch_dims_0 = const()[name = string("gather_22_batch_dims_0"), val = int32(0)];
                    bool gather_22_validate_indices_0 = const()[name = string("gather_22_validate_indices_0"), val = bool(false)];
                    int32 greater_equal_10_y_0 = const()[name = string("greater_equal_10_y_0"), val = int32(0)];
                    tensor<bool, [1]> greater_equal_10 = greater_equal(x = while_loop_5_loop_vars0_0_x0_1_1_1_1, y = greater_equal_10_y_0)[name = string("greater_equal_10")];
                    int32 slice_by_index_46 = const()[name = string("slice_by_index_46"), val = int32(48)];
                    tensor<int32, [1]> add_90 = add(x = while_loop_5_loop_vars0_0_x0_1_1_1_1, y = slice_by_index_46)[name = string("add_90")];
                    tensor<int32, [1]> select_10 = select(a = while_loop_5_loop_vars0_0_x0_1_1_1_1, b = add_90, cond = greater_equal_10)[name = string("select_10")];
                    int32 gather_22_axis_1 = const()[name = string("gather_22_axis_1"), val = int32(0)];
                    tensor<fp32, [1, 1, 64]> gather_22 = gather(axis = gather_22_axis_1, batch_dims = gather_22_batch_dims_0, indices = select_10, validate_indices = gather_22_validate_indices_0, x = reverse_2)[name = string("gather_22")];
                    int32 gather_23_batch_dims_0 = const()[name = string("gather_23_batch_dims_0"), val = int32(0)];
                    bool gather_23_validate_indices_0 = const()[name = string("gather_23_validate_indices_0"), val = bool(false)];
                    int32 slice_by_index_47 = const()[name = string("slice_by_index_47"), val = int32(49)];
                    tensor<int32, [1]> add_91 = add(x = while_loop_5_loop_vars0_0_x0_1_1_1_1, y = slice_by_index_47)[name = string("add_91")];
                    tensor<int32, [1]> select_11 = select(a = while_loop_5_loop_vars0_0_x0_1_1_1_1, b = add_91, cond = greater_equal_10)[name = string("select_11")];
                    int32 gather_23_axis_1 = const()[name = string("gather_23_axis_1"), val = int32(0)];
                    tensor<fp32, [1, 1, 64]> gather_23 = gather(axis = gather_23_axis_1, batch_dims = gather_23_batch_dims_0, indices = select_11, validate_indices = gather_23_validate_indices_0, x = concat_13_x0_1_1_1_1)[name = string("gather_23")];
                    tensor<int32, [1]> squeeze_109_axes_0 = const()[name = string("squeeze_109_axes_0"), val = tensor<int32, [1]>([0])];
                    tensor<fp32, [1, 64]> squeeze_109 = squeeze(axes = squeeze_109_axes_0, x = gather_22)[name = string("squeeze_109")];
                    tensor<int32, [1]> squeeze_110_axes_0 = const()[name = string("squeeze_110_axes_0"), val = tensor<int32, [1]>([0])];
                    tensor<fp32, [1, 64]> squeeze_110 = squeeze(axes = squeeze_110_axes_0, x = gather_23)[name = string("squeeze_110")];
                    tensor<fp32, [64, 64]> linear_72_weight_0 = const()[name = string("linear_72_weight_0"), val = tensor<fp32, [64, 64]>(BLOBFILE(path = string("@model_path/weights/weight.bin"), offset = uint64(9998016)))];
                    tensor<fp32, [64]> linear_72_bias_0 = const()[name = string("linear_72_bias_0"), val = tensor<fp32, [64]>(BLOBFILE(path = string("@model_path/weights/weight.bin"), offset = uint64(10014464)))];
                    tensor<fp32, [1, 64]> linear_72 = linear(bias = linear_72_bias_0, weight = linear_72_weight_0, x = squeeze_109)[name = string("linear_72")];
                    tensor<fp32, [64, 64]> linear_73_weight_0 = const()[name = string("linear_73_weight_0"), val = tensor<fp32, [64, 64]>(BLOBFILE(path = string("@model_path/weights/weight.bin"), offset = uint64(10014784)))];
                    tensor<fp32, [64]> linear_73_bias_0 = const()[name = string("linear_73_bias_0"), val = tensor<fp32, [64]>(BLOBFILE(path = string("@model_path/weights/weight.bin"), offset = uint64(10031232)))];
                    tensor<fp32, [1, 64]> linear_73 = linear(bias = linear_73_bias_0, weight = linear_73_weight_0, x = squeeze_110)[name = string("linear_73")];
                    tensor<fp32, [1, 64]> add_55 = add(x = linear_72, y = linear_73)[name = string("add_55")];
                    tensor<fp32, [1, 64]> sigmoid_22 = sigmoid(x = add_55)[name = string("sigmoid_22")];
                    tensor<fp32, [64, 64]> linear_74_weight_0 = const()[name = string("linear_74_weight_0"), val = tensor<fp32, [64, 64]>(BLOBFILE(path = string("@model_path/weights/weight.bin"), offset = uint64(10031552)))];
                    tensor<fp32, [64]> linear_74_bias_0 = const()[name = string("linear_74_bias_0"), val = tensor<fp32, [64]>(BLOBFILE(path = string("@model_path/weights/weight.bin"), offset = uint64(10048000)))];
                    tensor<fp32, [1, 64]> linear_74 = linear(bias = linear_74_bias_0, weight = linear_74_weight_0, x = squeeze_109)[name = string("linear_74")];
                    tensor<fp32, [64, 64]> linear_75_weight_0 = const()[name = string("linear_75_weight_0"), val = tensor<fp32, [64, 64]>(BLOBFILE(path = string("@model_path/weights/weight.bin"), offset = uint64(10048320)))];
                    tensor<fp32, [64]> linear_75_bias_0 = const()[name = string("linear_75_bias_0"), val = tensor<fp32, [64]>(BLOBFILE(path = string("@model_path/weights/weight.bin"), offset = uint64(10064768)))];
                    tensor<fp32, [1, 64]> linear_75 = linear(bias = linear_75_bias_0, weight = linear_75_weight_0, x = squeeze_110)[name = string("linear_75")];
                    tensor<fp32, [1, 64]> add_56 = add(x = linear_74, y = linear_75)[name = string("add_56")];
                    tensor<fp32, [1, 64]> sigmoid_23 = sigmoid(x = add_56)[name = string("sigmoid_23")];
                    tensor<fp32, [64, 64]> linear_76_weight_0 = const()[name = string("linear_76_weight_0"), val = tensor<fp32, [64, 64]>(BLOBFILE(path = string("@model_path/weights/weight.bin"), offset = uint64(10065088)))];
                    tensor<fp32, [64]> linear_76_bias_0 = const()[name = string("linear_76_bias_0"), val = tensor<fp32, [64]>(BLOBFILE(path = string("@model_path/weights/weight.bin"), offset = uint64(10081536)))];
                    tensor<fp32, [1, 64]> linear_76 = linear(bias = linear_76_bias_0, weight = linear_76_weight_0, x = squeeze_109)[name = string("linear_76")];
                    tensor<fp32, [64, 64]> linear_77_weight_0 = const()[name = string("linear_77_weight_0"), val = tensor<fp32, [64, 64]>(BLOBFILE(path = string("@model_path/weights/weight.bin"), offset = uint64(10081856)))];
                    tensor<fp32, [64]> linear_77_bias_0 = const()[name = string("linear_77_bias_0"), val = tensor<fp32, [64]>(BLOBFILE(path = string("@model_path/weights/weight.bin"), offset = uint64(10098304)))];
                    tensor<fp32, [1, 64]> linear_77 = linear(bias = linear_77_bias_0, weight = linear_77_weight_0, x = squeeze_110)[name = string("linear_77")];
                    tensor<fp32, [1, 64]> mul_33 = mul(x = sigmoid_22, y = linear_77)[name = string("mul_33")];
                    tensor<fp32, [1, 64]> add_57 = add(x = linear_76, y = mul_33)[name = string("add_57")];
                    tensor<fp32, [1, 64]> tanh_11 = tanh(x = add_57)[name = string("tanh_11")];
                    fp32 sub_11_x_0 = const()[name = string("sub_11_x_0"), val = fp32(0x1p+0)];
                    tensor<fp32, [1, 64]> sub_11 = sub(x = sub_11_x_0, y = sigmoid_23)[name = string("sub_11")];
                    tensor<fp32, [1, 64]> mul_34 = mul(x = sub_11, y = tanh_11)[name = string("mul_34")];
                    tensor<fp32, [1, 64]> mul_35 = mul(x = sigmoid_23, y = squeeze_110)[name = string("mul_35")];
                    tensor<fp32, [1, 64]> add_58 = add(x = mul_34, y = mul_35)[name = string("add_58")];
                    int32 add_59_y_0 = const()[name = string("add_59_y_0"), val = int32(1)];
                    tensor<int32, [1]> add_59 = add(x = while_loop_5_loop_vars0_0_x0_1_1_1_1, y = add_59_y_0)[name = string("add_59")];
                    tensor<int32, [1]> expand_dims_11_axes_0 = const()[name = string("expand_dims_11_axes_0"), val = tensor<int32, [1]>([0])];
                    tensor<fp32, [1, 1, 64]> expand_dims_11 = expand_dims(axes = expand_dims_11_axes_0, x = add_58)[name = string("expand_dims_11")];
                    int32 scatter_11_axis_0 = const()[name = string("scatter_11_axis_0"), val = int32(0)];
                    string scatter_11_mode_0 = const()[name = string("scatter_11_mode_0"), val = string("add")];
                    bool scatter_11_validate_indices_0 = const()[name = string("scatter_11_validate_indices_0"), val = bool(false)];
                    tensor<fp32, [49, 1, 64]> scatter_11 = scatter(axis = scatter_11_axis_0, data = concat_13_x0_1_1_1_1, indices = add_59, mode = scatter_11_mode_0, updates = expand_dims_11, validate_indices = scatter_11_validate_indices_0)[name = string("scatter_11")];
                } -> (add_59, scatter_11);
            tensor<int32, [3]> var_1403_backward_reverse_begin_0 = const()[name = string("op_1403_backward_reverse_begin_0"), val = tensor<int32, [3]>([1, 0, 0])];
            tensor<int32, [3]> var_1403_backward_reverse_end_0 = const()[name = string("op_1403_backward_reverse_end_0"), val = tensor<int32, [3]>([0, 0, 0])];
            tensor<bool, [3]> var_1403_backward_reverse_begin_mask_0 = const()[name = string("op_1403_backward_reverse_begin_mask_0"), val = tensor<bool, [3]>([false, true, true])];
            tensor<bool, [3]> var_1403_backward_reverse_end_mask_0 = const()[name = string("op_1403_backward_reverse_end_mask_0"), val = tensor<bool, [3]>([true, true, true])];
            tensor<fp32, [48, 1, 64]> var_1403_backward_reverse = slice_by_index(begin = var_1403_backward_reverse_begin_0, begin_mask = var_1403_backward_reverse_begin_mask_0, end = var_1403_backward_reverse_end_0, end_mask = var_1403_backward_reverse_end_mask_0, x = while_loop_5_1)[name = string("op_1403_backward_reverse")];
            tensor<int32, [1]> var_1403_backward_axes_0 = const()[name = string("op_1403_backward_axes_0"), val = tensor<int32, [1]>([0])];
            tensor<fp32, [48, 1, 64]> var_1403_backward = reverse(axes = var_1403_backward_axes_0, x = var_1403_backward_reverse)[name = string("op_1403_backward")];
            int32 var_1403_axis_0 = const()[name = string("op_1403_axis_0"), val = int32(2)];
…
            tensor<int32, [4]> var_2407 = const()[name = string("op_2407"), val = tensor<int32, [4]>([1, 64, 1, 160])];
            tensor<fp32, [1, 64, 1, 80, 2]> input_tensor_235 = transpose(perm = var_2395, x = input_tensor_233)[name = string("transpose_18")];
            tensor<fp32, [1, 64, 1, 160]> input_145 = reshape(shape = var_2407, x = input_tensor_235)[name = string("input_145")];
            string input_147_pad_type_0 = const()[name = string("input_147_pad_type_0"), val = string("valid")];
            tensor<int32, [2]> input_147_strides_0 = const()[name = string("input_147_strides_0"), val = tensor<int32, [2]>([1, 1])];
            tensor<int32, [4]> input_147_pad_0 = const()[name = string("input_147_pad_0"), val = tensor<int32, [4]>([0, 0, 0, 0])];
            tensor<int32, [2]> input_147_dilations_0 = const()[name = string("input_147_dilations_0"), val = tensor<int32, [2]>([1, 1])];
            int32 input_147_groups_0 = const()[name = string("input_147_groups_0"), val = int32(1)];
            tensor<fp32, [1, 64, 1, 160]> input_147 = conv(bias = model_erb_dec_convt2_convt2_1_Conv_bias, dilations = input_147_dilations_0, groups = input_147_groups_0, pad = input_147_pad_0, pad_type = input_147_pad_type_0, strides = input_147_strides_0, weight = model_erb_dec_convt2_convt2_1_Conv_weight, x = input_145)[name = string("input_147")];
            tensor<fp32, [1, 64, 1, 160]> second_153 = relu(x = input_147)[name = string("second_153")];
            string input_149_pad_type_0 = const()[name = string("input_149_pad_type_0"), val = string("valid")];
            int32 input_149_groups_0 = const()[name = string("input_149_groups_0"), val = int32(64)];
            tensor<int32, [2]> input_149_strides_0 = const()[name = string("input_149_strides_0"), val = tensor<int32, [2]>([1, 1])];
            tensor<int32, [4]> input_149_pad_0 = const()[name = string("input_149_pad_0"), val = tensor<int32, [4]>([0, 0, 0, 0])];
            tensor<int32, [2]> input_149_dilations_0 = const()[name = string("input_149_dilations_0"), val = tensor<int32, [2]>([1, 1])];
            tensor<fp32, [1, 64, 1, 160]> input_149 = conv(bias = model_erb_dec_conv1p_conv1p_0_Conv_bias, dilations = input_149_dilations_0, groups = input_149_groups_0, pad = input_149_pad_0, pad_type = input_149_pad_type_0, strides = input_149_strides_0, weight = model_erb_dec_conv1p_conv1p_0_Conv_weight, x = input_11)[name = string("input_149")];
            tensor<fp32, [1, 64, 1, 160]> first_137 = relu(x = input_149)[name = string("first_137")];
            tensor<fp32, [1, 64, 1, 160]> input_151 = add(x = first_137, y = second_153)[name = string("input_151")];
            string var_2447_pad_type_0 = const()[name = string("op_2447_pad_type_0"), val = string("custom")];
            tensor<int32, [4]> var_2447_pad_0 = const()[name = string("op_2447_pad_0"), val = tensor<int32, [4]>([0, 0, 1, 1])];
            int32 var_2447_groups_0 = const()[name = string("op_2447_groups_0"), val = int32(64)];
            tensor<int32, [2]> var_2447_strides_0 = const()[name = string("op_2447_strides_0"), val = tensor<int32, [2]>([1, 1])];
            tensor<int32, [2]> var_2447_dilations_0 = const()[name = string("op_2447_dilations_0"), val = tensor<int32, [2]>([1, 1])];
            tensor<fp32, [1, 64, 1, 160]> var_2447 = conv(dilations = var_2447_dilations_0, groups = var_2447_groups_0, pad = var_2447_pad_0, pad_type = var_2447_pad_type_0, strides = var_2447_strides_0, weight = model_erb_dec_convt1_convt1_0_convs_0_Conv_weight, x = input_151)[name = string("op_2447")];
            string var_2459_pad_type_0 = const()[name = string("op_2459_pad_type_0"), val = string("custom")];
            tensor<int32, [4]> var_2459_pad_0 = const()[name = string("op_2459_pad_0"), val = tensor<int32, [4]>([0, 0, 1, 1])];
            int32 var_2459_groups_0 = const()[name = string("op_2459_groups_0"), val = int32(64)];
            tensor<int32, [2]> var_2459_strides_0 = const()[name = string("op_2459_strides_0"), val = tensor<int32, [2]>([1, 1])];
            tensor<int32, [2]> var_2459_dilations_0 = const()[name = string("op_2459_dilations_0"), val = tensor<int32, [2]>([1, 1])];
            tensor<fp32, [1, 64, 1, 160]> var_2459 = conv(dilations = var_2459_dilations_0, groups = var_2459_groups_0, pad = var_2459_pad_0, pad_type = var_2459_pad_type_0, strides = var_2459_strides_0, weight = model_erb_dec_convt1_convt1_0_convs_1_Conv_weight, x = input_151)[name = string("op_2459")];
            string var_2471_pad_type_0 = const()[name = string("op_2471_pad_type_0"), val = string("custom")];
            tensor<int32, [4]> var_2471_pad_0 = const()[name = string("op_2471_pad_0"), val = tensor<int32, [4]>([0, 0, 1, 1])];
            int32 var_2471_groups_0 = const()[name = string("op_2471_groups_0"), val = int32(64)];
            tensor<int32, [2]> var_2471_strides_0 = const()[name = string("op_2471_strides_0"), val = tensor<int32, [2]>([1, 1])];
            tensor<int32, [2]> var_2471_dilations_0 = const()[name = string("op_2471_dilations_0"), val = tensor<int32, [2]>([1, 1])];
            tensor<fp32, [1, 64, 1, 160]> var_2471 = conv(dilations = var_2471_dilations_0, groups = var_2471_groups_0, pad = var_2471_pad_0, pad_type = var_2471_pad_type_0, strides = var_2471_strides_0, weight = model_erb_dec_convt1_convt1_0_convs_2_Conv_weight, x = input_151)[name = string("op_2471")];
            int32 var_2472 = const()[name = string("op_2472"), val = int32(1)];
            bool input_tensor_237_interleave_0 = const()[name = string("input_tensor_237_interleave_0"), val = bool(false)];
            tensor<fp32, [1, 192, 1, 160]> input_tensor_237 = concat(axis = var_2472, interleave = input_tensor_237_interleave_0, values = (var_2447, var_2459, var_2471))[name = string("input_tensor_237")];
            tensor<int32, [5]> var_2487 = const()[name = string("op_2487"), val = tensor<int32, [5]>([1, 3, 64, 1, 160])];
            tensor<fp32, [1, 3, 64, 1, 160]> input_tensor_239 = reshape(shape = var_2487, x = input_tensor_237)[name = string("input_tensor_239")];
            tensor<int32, [5]> var_2494 = const()[name = string("op_2494"), val = tensor<int32, [5]>([0, 2, 3, 4, 1])];
            tensor<int32, [4]> var_2506 = const()[name = string("op_2506"), val = tensor<int32, [4]>([1, 64, 1, 480])];
            tensor<fp32, [1, 64, 1, 160, 3]> input_tensor_241 = transpose(perm = var_2494, x = input_tensor_239)[name = string("transpose_17")];
            tensor<fp32, [1, 64, 1, 480]> input_153 = reshape(shape = var_2506, x = input_tensor_241)[name = string("input_153")];
            string input_155_pad_type_0 = const()[name = string("input_155_pad_type_0"), val = string("valid")];
            tensor<int32, [2]> input_155_strides_0 = const()[name = string("input_155_strides_0"), val = tensor<int32, [2]>([1, 1])];
            tensor<int32, [4]> input_155_pad_0 = const()[name = string("input_155_pad_0"), val = tensor<int32, [4]>([0, 0, 0, 0])];
            tensor<int32, [2]> input_155_dilations_0 = const()[name = string("input_155_dilations_0"), val = tensor<int32, [2]>([1, 1])];
            int32 input_155_groups_0 = const()[name = string("input_155_groups_0"), val = int32(1)];
            tensor<fp32, [1, 64, 1, 480]> input_155 = conv(bias = model_erb_dec_convt1_convt1_1_Conv_bias, dilations = input_155_dilations_0, groups = input_155_groups_0, pad = input_155_pad_0, pad_type = input_155_pad_type_0, strides = input_155_strides_0, weight = model_erb_dec_convt1_convt1_1_Conv_weight, x = input_153)[name = string("input_155")];
            tensor<fp32, [1, 64, 1, 480]> second_155 = relu(x = input_155)[name = string("second_155")];
            string input_157_pad_type_0 = const()[name = string("input_157_pad_type_0"), val = string("valid")];
            int32 input_157_groups_0 = const()[name = string("input_157_groups_0"), val = int32(64)];
            tensor<int32, [2]> input_157_strides_0 = const()[name = string("input_157_strides_0"), val = tensor<int32, [2]>([1, 1])];
            tensor<int32, [4]> input_157_pad_0 = const()[name = string("input_157_pad_0"), val = tensor<int32, [4]>([0, 0, 0, 0])];
            tensor<int32, [2]> input_157_dilations_0 = const()[name = string("input_157_dilations_0"), val = tensor<int32, [2]>([1, 1])];
            tensor<fp32, [1, 64, 1, 480]> input_157 = conv(bias = model_erb_dec_conv0p_conv0p_0_Conv_bias, dilations = input_157_dilations_0, groups = input_157_groups_0, pad = input_157_pad_0, pad_type = input_157_pad_type_0, strides = input_157_strides_0, weight = model_erb_dec_conv0p_conv0p_0_Conv_weight, x = input_5)[name = string("input_157")];
            tensor<fp32, [1, 64, 1, 480]> first_139 = relu(x = input_157)[name = string("first_139")];
            tensor<fp32, [1, 64, 1, 480]> input_159 = add(x = first_139, y = second_155)[name = string("input_159")];
            string input_161_pad_type_0 = const()[name = string("input_161_pad_type_0"), val = string("custom")];
            tensor<int32, [4]> input_161_pad_0 = const()[name = string("input_161_pad_0"), val = tensor<int32, [4]>([0, 0, 1, 1])];
            tensor<int32, [2]> input_161_strides_0 = const()[name = string("input_161_strides_0"), val = tensor<int32, [2]>([1, 1])];
            tensor<int32, [2]> input_161_dilations_0 = const()[name = string("input_161_dilations_0"), val = tensor<int32, [2]>([1, 1])];
            int32 input_161_groups_0 = const()[name = string("input_161_groups_0"), val = int32(1)];
            tensor<fp32, [1, 1, 1, 480]> input_161 = conv(bias = model_erb_dec_conv0_out_conv0_out_0_Conv_bias, dilations = input_161_dilations_0, groups = input_161_groups_0, pad = input_161_pad_0, pad_type = input_161_pad_type_0, strides = input_161_strides_0, weight = model_erb_dec_conv0_out_conv0_out_0_Conv_weight, x = input_159)[name = string("input_161")];
            tensor<fp32, [1, 1, 1, 480]> input_163 = sigmoid(x = input_161)[name = string("input_163")];
            fp32 const_10 = const()[name = string("const_10"), val = fp32(0x0p+0)];
            tensor<int32, [8]> input_tensor_281_pad_0 = const()[name = string("input_tensor_281_pad_0"), val = tensor<int32, [8]>([0, 0, 0, 0, 0, 0, 0, 1])];
            string input_tensor_281_mode_0 = const()[name = string("input_tensor_281_mode_0"), val = string("reflect")];
            tensor<fp32, [1, 1, 1, 481]> input_tensor_281 = pad(constant_val = const_10, mode = input_tensor_281_mode_0, pad = input_tensor_281_pad_0, x = input_163)[name = string("input_tensor_281")];
            tensor<int32, [3]> var_2561 = const()[name = string("op_2561"), val = tensor<int32, [3]>([-1, 8, 64])];
            tensor<fp32, [1, 8, 64]> input_tensor_243 = reshape(shape = var_2561, x = input_tensor_193)[name = string("input_tensor_243")];
            tensor<int32, [1]> x_35_axes_0 = const()[name = string("x_35_axes_0"), val = tensor<int32, [1]>([-2])];
            tensor<fp32, [1, 8, 1, 64]> x_35 = expand_dims(axes = x_35_axes_0, x = input_tensor_243)[name = string("x_35")];
            bool result_15_transpose_x_0 = const()[name = string("result_15_transpose_x_0"), val = bool(false)];
            bool result_15_transpose_y_0 = const()[name = string("result_15_transpose_y_0"), val = bool(false)];
            tensor<fp32, [1, 8, 1, 32]> result_15 = matmul(transpose_x = result_15_transpose_x_0, transpose_y = result_15_transpose_y_0, x = x_35, y = initializers_onnx_initializer_200)[name = string("result_15")];
            tensor<int32, [1]> input_tensor_245_axes_0 = const()[name = string("input_tensor_245_axes_0"), val = tensor<int32, [1]>([2])];
            tensor<fp32, [1, 8, 32]> input_tensor_245 = squeeze(axes = input_tensor_245_axes_0, x = result_15)[name = string("input_tensor_245")];
            tensor<int32, [2]> var_2581 = const()[name = string("op_2581"), val = tensor<int32, [2]>([1, 256])];
            tensor<fp32, [1, 256]> first_141 = reshape(shape = var_2581, x = input_tensor_245)[name = string("first_141")];
            tensor<fp32, [1, 256]> input_165 = add(x = first_141, y = initializers_onnx_initializer_203)[name = string("input_165")];
            tensor<fp32, [1, 256]> input_167 = relu(x = input_165)[name = string("input_167")];
            tensor<int32, [1]> input_tensor_247_begin_0 = const()[name = string("input_tensor_247_begin_0"), val = tensor<int32, [1]>([14628])];
            tensor<int32, [1]> input_tensor_247_end_0 = const()[name = string("input_tensor_247_end_0"), val = tensor<int32, [1]>([14884])];
            tensor<bool, [1]> input_tensor_247_end_mask_0 = const()[name = string("input_tensor_247_end_mask_0"), val = tensor<bool, [1]>([false])];
            tensor<fp32, [256]> input_tensor_247 = slice_by_index(begin = input_tensor_247_begin_0, end = input_tensor_247_end_0, end_mask = input_tensor_247_end_mask_0, x = state_in)[name = string("input_tensor_247")];
            tensor<int32, [2]> var_2601 = const()[name = string("op_2601"), val = tensor<int32, [2]>([1, 256])];
            tensor<fp32, [1, 256]> input_169 = reshape(shape = var_2601, x = input_tensor_247)[name = string("input_169")];
            tensor<fp32, [1, 768]> var_2605 = linear(bias = model_df_dec_df_gru_gru_0_grucell_Gemm_bias, weight = model_df_dec_df_gru_gru_0_grucell_Gemm_weight, x = input_167)[name = string("linear_114")];
            tensor<int32, [3]> var_2608 = const()[name = string("op_2608"), val = tensor<int32, [3]>([256, 256, 256])];
            int32 var_2609_axis_0 = const()[name = string("op_2609_axis_0"), val = int32(1)];
            tensor<fp32, [1, 256]> var_2609_0, tensor<fp32, [1, 256]> var_2609_1, tensor<fp32, [1, 256]> var_2609_2 = split(axis = var_2609_axis_0, split_sizes = var_2608, x = var_2605)[name = string("op_2609")];
            tensor<fp32, [1, 768]> var_2619 = linear(bias = model_df_dec_df_gru_gru_0_grucell_Gemm_1_bias, weight = model_df_dec_df_gru_gru_0_grucell_Gemm_1_weight, x = input_169)[name = string("linear_115")];
            tensor<int32, [3]> var_2622 = const()[name = string("op_2622"), val = tensor<int32, [3]>([256, 256, 256])];
            int32 var_2623_axis_0 = const()[name = string("op_2623_axis_0"), val = int32(1)];
            tensor<fp32, [1, 256]> var_2623_0, tensor<fp32, [1, 256]> var_2623_1, tensor<fp32, [1, 256]> var_2623_2 = split(axis = var_2623_axis_0, split_sizes = var_2622, x = var_2619)[name = string("op_2623")];
            tensor<fp32, [1, 256]> input_171 = add(x = var_2623_0, y = var_2609_0)[name = string("input_171")];
            tensor<fp32, [1, 256]> second_163 = sigmoid(x = input_171)[name = string("second_163")];
            tensor<fp32, [1, 256]> input_173 = add(x = var_2623_1, y = var_2609_1)[name = string("input_173")];
            tensor<fp32, [1, 256]> second_169 = sigmoid(x = input_173)[name = string("second_169")];
            tensor<fp32, [1, 256]> second_165 = mul(x = var_2623_2, y = second_163)[name = string("second_165")];
            tensor<fp32, [1, 256]> input_tensor_249 = add(x = var_2609_2, y = second_165)[name = string("input_tensor_249")];
            tensor<fp32, [1, 256]> second_167 = tanh(x = input_tensor_249)[name = string("second_167")];
            tensor<fp32, [1, 256]> first_151 = sub(x = input_169, y = second_167)[name = string("first_151")];
            tensor<fp32, [1, 256]> first_153 = mul(x = first_151, y = second_169)[name = string("first_153")];
            tensor<fp32, [1, 256]> input_tensor_251 = add(x = first_153, y = second_167)[name = string("input_tensor_251")];
            tensor<int32, [1]> var_2650 = const()[name = string("op_2650"), val = tensor<int32, [1]>([-1])];
            tensor<fp32, [256]> var_2651 = reshape(shape = var_2650, x = input_tensor_251)[name = string("op_2651")];
            tensor<int32, [1]> input_tensor_253_begin_0 = const()[name = string("input_tensor_253_begin_0"), val = tensor<int32, [1]>([14884])];
            tensor<int32, [1]> input_tensor_253_end_0 = const()[name = string("input_tensor_253_end_0"), val = tensor<int32, [1]>([15140])];
            tensor<bool, [1]> input_tensor_253_end_mask_0 = const()[name = string("input_tensor_253_end_mask_0"), val = tensor<bool, [1]>([false])];
            tensor<fp32, [256]> input_tensor_253 = slice_by_index(begin = input_tensor_253_begin_0, end = input_tensor_253_end_0, end_mask = input_tensor_253_end_mask_0, x = state_in)[name = string("input_tensor_253")];
            tensor<int32, [2]> var_2667 = const()[name = string("op_2667"), val = tensor<int32, [2]>([1, 256])];
            tensor<fp32, [1, 256]> input_175 = reshape(shape = var_2667, x = input_tensor_253)[name = string("input_175")];
            tensor<fp32, [1, 768]> var_2671 = linear(bias = model_df_dec_df_gru_gru_1_grucell_Gemm_bias, weight = model_df_dec_df_gru_gru_1_grucell_Gemm_weight, x = input_tensor_251)[name = string("linear_116")];
            tensor<int32, [3]> var_2674 = const()[name = string("op_2674"), val = tensor<int32, [3]>([256, 256, 256])];
            int32 var_2675_axis_0 = const()[name = string("op_2675_axis_0"), val = int32(1)];
            tensor<fp32, [1, 256]> var_2675_0, tensor<fp32, [1, 256]> var_2675_1, tensor<fp32, [1, 256]> var_2675_2 = split(axis = var_2675_axis_0, split_sizes = var_2674, x = var_2671)[name = string("op_2675")];
            tensor<fp32, [1, 768]> var_2685 = linear(bias = model_df_dec_df_gru_gru_1_grucell_Gemm_1_bias, weight = model_df_dec_df_gru_gru_1_grucell_Gemm_1_weight, x = input_175)[name = string("linear_117")];
            tensor<int32, [3]> var_2688 = const()[name = string("op_2688"), val = tensor<int32, [3]>([256, 256, 256])];
            int32 var_2689_axis_0 = const()[name = string("op_2689_axis_0"), val = int32(1)];
            tensor<fp32, [1, 256]> var_2689_0, tensor<fp32, [1, 256]> var_2689_1, tensor<fp32, [1, 256]> var_2689_2 = split(axis = var_2689_axis_0, split_sizes = var_2688, x = var_2685)[name = string("op_2689")];
            tensor<fp32, [1, 256]> input_177 = add(x = var_2689_0, y = var_2675_0)[name = string("input_177")];
            tensor<fp32, [1, 256]> second_175 = sigmoid(x = input_177)[name = string("second_175")];
            tensor<fp32, [1, 256]> input_179 = add(x = var_2689_1, y = var_2675_1)[name = string("input_179")];
            tensor<fp32, [1, 256]> second_181 = sigmoid(x = input_179)[name = string("second_181")];
            tensor<fp32, [1, 256]> second_177 = mul(x = var_2689_2, y = second_175)[name = string("second_177")];
            tensor<fp32, [1, 256]> input_tensor_255 = add(x = var_2675_2, y = second_177)[name = string("input_tensor_255")];
            tensor<fp32, [1, 256]> second_179 = tanh(x = input_tensor_255)[name = string("second_179")];
            tensor<fp32, [1, 256]> first_163 = sub(x = input_175, y = second_179)[name = string("first_163")];
            tensor<fp32, [1, 256]> first_165 = mul(x = first_163, y = second_181)[name = string("first_165")];
            tensor<fp32, [1, 256]> input_tensor_257 = add(x = first_165, y = second_179)[name = string("input_tensor_257")];
            tensor<int32, [1]> var_2716 = const()[name = string("op_2716"), val = tensor<int32, [1]>([-1])];
            tensor<fp32, [256]> var_2717 = reshape(shape = var_2716, x = input_tensor_257)[name = string("op_2717")];
            bool result_17_transpose_x_0 = const()[name = string("result_17_transpose_x_0"), val = bool(false)];
            bool result_17_transpose_y_0 = const()[name = string("result_17_transpose_y_0"), val = bool(false)];
            tensor<fp32, [1, 16, 1, 16]> result_17 = matmul(transpose_x = result_17_transpose_x_0, transpose_y = result_17_transpose_y_0, x = x_29, y = initializers_onnx_initializer_220)[name = string("result_17")];
            tensor<int32, [1]> input_tensor_259_axes_0 = const()[name = string("input_tensor_259_axes_0"), val = tensor<int32, [1]>([2])];
            tensor<fp32, [1, 16, 16]> input_tensor_259 = squeeze(axes = input_tensor_259_axes_0, x = result_17)[name = string("input_tensor_259")];
            tensor<int32, [2]> var_2734 = const()[name = string("op_2734"), val = tensor<int32, [2]>([1, 256])];
            tensor<fp32, [1, 256]> first_167 = reshape(shape = var_2734, x = input_tensor_259)[name = string("first_167")];
            tensor<fp32, [1, 256]> second_185 = add(x = first_167, y = initializers_onnx_initializer_223)[name = string("second_185")];
            tensor<fp32, [1, 256]> input_tensor_267 = add(x = input_tensor_257, y = second_185)[name = string("input_tensor_267")];
            tensor<int32, [4]> var_2744 = const()[name = string("op_2744"), val = tensor<int32, [4]>([2, 0, 1, 3])];
            tensor<int32, [1]> input_tensor_261_begin_0 = const()[name = string("input_tensor_261_begin_0"), val = tensor<int32, [1]>([15140])];
            tensor<int32, [1]> input_tensor_261_end_0 = const()[name = string("input_tensor_261_end_0"), val = tensor<int32, [1]>([45860])];
            tensor<bool, [1]> input_tensor_261_end_mask_0 = const()[name = string("input_tensor_261_end_mask_0"), val = tensor<bool, [1]>([false])];
            tensor<fp32, [30720]> input_tensor_261 = slice_by_index(begin = input_tensor_261_begin_0, end = input_tensor_261_end_0, end_mask = input_tensor_261_end_mask_0, x = state_in)[name = string("input_tensor_261")];
            tensor<int32, [4]> var_2765 = const()[name = string("op_2765"), val = tensor<int32, [4]>([5, 1, 64, 96])];
            tensor<fp32, [5, 1, 64, 96]> x_37 = reshape(shape = var_2765, x = input_tensor_261)[name = string("x_37")];
            tensor<int32, [4]> var_2775_begin_0 = const()[name = string("op_2775_begin_0"), val = tensor<int32, [4]>([1, 0, 0, 0])];
            tensor<int32, [4]> var_2775_end_0 = const()[name = string("op_2775_end_0"), val = tensor<int32, [4]>([1, 1, 64, 96])];
            tensor<bool, [4]> var_2775_end_mask_0 = const()[name = string("op_2775_end_mask_0"), val = tensor<bool, [4]>([true, true, true, true])];
            tensor<fp32, [4, 1, 64, 96]> var_2775 = slice_by_index(begin = var_2775_begin_0, end = var_2775_end_0, end_mask = var_2775_end_mask_0, x = x_37)[name = string("op_2775")];
            int32 var_2776 = const()[name = string("op_2776"), val = int32(0)];
            bool x_39_interleave_0 = const()[name = string("x_39_interleave_0"), val = bool(false)];
            tensor<fp32, [1, 1, 64, 96]> var_2745 = transpose(perm = var_2744, x = input_59)[name = string("transpose_16")];
            tensor<fp32, [5, 1, 64, 96]> x_39 = concat(axis = var_2776, interleave = x_39_interleave_0, values = (var_2775, var_2745))[name = string("x_39")];
            tensor<int32, [4]> var_2792 = const()[name = string("op_2792"), val = tensor<int32, [4]>([1, 2, 0, 3])];
            tensor<int32, [1]> var_2798 = const()[name = string("op_2798"), val = tensor<int32, [1]>([-1])];
            tensor<fp32, [30720]> var_2799 = reshape(shape = var_2798, x = x_39)[name = string("op_2799")];
            tensor<int32, [4]> input_181_begin_0 = const()[name = string("input_181_begin_0"), val = tensor<int32, [4]>([0, 0, 0, 0])];
            tensor<int32, [4]> input_181_end_0 = const()[name = string("input_181_end_0"), val = tensor<int32, [4]>([1, 32, 5, 96])];
            tensor<bool, [4]> input_181_end_mask_0 = const()[name = string("input_181_end_mask_0"), val = tensor<bool, [4]>([true, false, true, true])];
            tensor<fp32, [1, 64, 5, 96]> x_41 = transpose(perm = var_2792, x = x_39)[name = string("transpose_15")];
            tensor<fp32, [1, 32, 5, 96]> input_181 = slice_by_index(begin = input_181_begin_0, end = input_181_end_0, end_mask = input_181_end_mask_0, x = x_41)[name = string("input_181")];
            tensor<int32, [4]> input_183_begin_0 = const()[name = string("input_183_begin_0"), val = tensor<int32, [4]>([0, 32, 0, 0])];
            tensor<int32, [4]> input_183_end_0 = const()[name = string("input_183_end_0"), val = tensor<int32, [4]>([1, 1, 5, 96])];
            tensor<bool, [4]> input_183_end_mask_0 = const()[name = string("input_183_end_mask_0"), val = tensor<bool, [4]>([true, true, true, true])];
            tensor<fp32, [1, 32, 5, 96]> input_183 = slice_by_index(begin = input_183_begin_0, end = input_183_end_0, end_mask = input_183_end_mask_0, x = x_41)[name = string("input_183")];
            string var_2832_pad_type_0 = const()[name = string("op_2832_pad_type_0"), val = string("valid")];
            tensor<int32, [2]> var_2832_strides_0 = const()[name = string("op_2832_strides_0"), val = tensor<int32, [2]>([1, 1])];
            tensor<int32, [4]> var_2832_pad_0 = const()[name = string("op_2832_pad_0"), val = tensor<int32, [4]>([0, 0, 0, 0])];
            tensor<int32, [2]> var_2832_dilations_0 = const()[name = string("op_2832_dilations_0"), val = tensor<int32, [2]>([1, 1])];
            int32 var_2832_groups_0 = const()[name = string("op_2832_groups_0"), val = int32(1)];
            tensor<fp32, [1, 5, 1, 96]> var_2832 = conv(dilations = var_2832_dilations_0, groups = var_2832_groups_0, pad = var_2832_pad_0, pad_type = var_2832_pad_type_0, strides = var_2832_strides_0, weight = model_df_dec_df_convp_df_convp_1_convs_0_Conv_weight, x = input_181)[name = string("op_2832")];
            string var_2843_pad_type_0 = const()[name = string("op_2843_pad_type_0"), val = string("valid")];
            tensor<int32, [2]> var_2843_strides_0 = const()[name = string("op_2843_strides_0"), val = tensor<int32, [2]>([1, 1])];
            tensor<int32, [4]> var_2843_pad_0 = const()[name = string("op_2843_pad_0"), val = tensor<int32, [4]>([0, 0, 0, 0])];
            tensor<int32, [2]> var_2843_dilations_0 = const()[name = string("op_2843_dilations_0"), val = tensor<int32, [2]>([1, 1])];
            int32 var_2843_groups_0 = const()[name = string("op_2843_groups_0"), val = int32(1)];
            tensor<fp32, [1, 5, 1, 96]> var_2843 = conv(dilations = var_2843_dilations_0, groups = var_2843_groups_0, pad = var_2843_pad_0, pad_type = var_2843_pad_type_0, strides = var_2843_strides_0, weight = model_df_dec_df_convp_df_convp_1_convs_1_Conv_weight, x = input_183)[name = string("op_2843")];
            int32 var_2844 = const()[name = string("op_2844"), val = int32(1)];
            bool input_185_interleave_0 = const()[name = string("input_185_interleave_0"), val = bool(false)];
            tensor<fp32, [1, 10, 1, 96]> input_185 = concat(axis = var_2844, interleave = input_185_interleave_0, values = (var_2832, var_2843))[name = string("input_185")];
            string input_pad_type_0 = const()[name = string("input_pad_type_0"), val = string("valid")];
            tensor<int32, [2]> input_strides_0 = const()[name = string("input_strides_0"), val = tensor<int32, [2]>([1, 1])];
            tensor<int32, [4]> input_pad_0 = const()[name = string("input_pad_0"), val = tensor<int32, [4]>([0, 0, 0, 0])];
            tensor<int32, [2]> input_dilations_0 = const()[name = string("input_dilations_0"), val = tensor<int32, [2]>([1, 1])];
            int32 input_groups_0 = const()[name = string("input_groups_0"), val = int32(1)];
            tensor<fp32, [1, 10, 1, 96]> input = conv(bias = model_df_dec_df_convp_df_convp_2_Conv_bias, dilations = input_dilations_0, groups = input_groups_0, pad = input_pad_0, pad_type = input_pad_type_0, strides = input_strides_0, weight = model_df_dec_df_convp_df_convp_2_Conv_weight, x = input_185)[name = string("input")];
            tensor<fp32, [1, 10, 1, 96]> input_tensor_265 = relu(x = input)[name = string("input_tensor_265")];
            tensor<int32, [4]> var_2863 = const()[name = string("op_2863"), val = tensor<int32, [4]>([0, 2, 3, 1])];
            tensor<int32, [3]> var_2873 = const()[name = string("op_2873"), val = tensor<int32, [3]>([-1, 16, 16])];
            tensor<fp32, [1, 16, 16]> input_tensor_269 = reshape(shape = var_2873, x = input_tensor_267)[name = string("input_tensor_269")];
            tensor<int32, [1]> x_43_axes_0 = const()[name = string("x_43_axes_0"), val = tensor<int32, [1]>([-2])];
            tensor<fp32, [1, 16, 1, 16]> x_43 = expand_dims(axes = x_43_axes_0, x = input_tensor_269)[name = string("x_43")];
            bool result_19_transpose_x_0 = const()[name = string("result_19_transpose_x_0"), val = bool(false)];
            bool result_19_transpose_y_0 = const()[name = string("result_19_transpose_y_0"), val = bool(false)];
            tensor<fp32, [1, 16, 1, 60]> result_19 = matmul(transpose_x = result_19_transpose_x_0, transpose_y = result_19_transpose_y_0, x = x_43, y = initializers_onnx_initializer_245)[name = string("result_19")];
            tensor<int32, [1]> input_tensor_271_axes_0 = const()[name = string("input_tensor_271_axes_0"), val = tensor<int32, [1]>([2])];
            tensor<fp32, [1, 16, 60]> input_tensor_271 = squeeze(axes = input_tensor_271_axes_0, x = result_19)[name = string("input_tensor_271")];
            tensor<int32, [2]> var_2893 = const()[name = string("op_2893"), val = tensor<int32, [2]>([1, 960])];
            tensor<fp32, [1, 960]> first_169 = reshape(shape = var_2893, x = input_tensor_271)[name = string("first_169")];
            tensor<fp32, [1, 960]> input_tensor_273 = add(x = first_169, y = initializers_onnx_initializer_248)[name = string("input_tensor_273")];
            tensor<fp32, [1, 960]> input_tensor_275 = tanh(x = input_tensor_273)[name = string("input_tensor_275")];
            tensor<int32, [1]> input_tensor_277_axes_0 = const()[name = string("input_tensor_277_axes_0"), val = tensor<int32, [1]>([1])];
            tensor<fp32, [1, 1, 960]> input_tensor_277 = expand_dims(axes = input_tensor_277_axes_0, x = input_tensor_275)[name = string("input_tensor_277")];
            tensor<int32, [4]> var_2910 = const()[name = string("op_2910"), val = tensor<int32, [4]>([1, 1, 96, 10])];
            tensor<fp32, [1, 1, 96, 10]> first_171 = reshape(shape = var_2910, x = input_tensor_277)[name = string("first_171")];
            tensor<fp32, [1, 1, 96, 10]> second_189 = transpose(perm = var_2863, x = input_tensor_265)[name = string("transpose_14")];
            tensor<fp32, [1, 1, 96, 10]> input_tensor_279 = add(x = first_171, y = second_189)[name = string("input_tensor_279")];
            tensor<int32, [5]> var_2926 = const()[name = string("op_2926"), val = tensor<int32, [5]>([1, 1, 96, -1, 2])];
            tensor<fp32, [1, 1, 96, 5, 2]> input_tensor_289 = reshape(shape = var_2926, x = input_tensor_279)[name = string("input_tensor_289")];
            tensor<int32, [1]> second_191_axes_0 = const()[name = string("second_191_axes_0"), val = tensor<int32, [1]>([-1])];
            tensor<fp32, [1, 1, 1, 481, 1]> second_191 = expand_dims(axes = second_191_axes_0, x = input_tensor_281)[name = string("second_191")];
            tensor<int32, [5]> var_2935 = const()[name = string("op_2935"), val = tensor<int32, [5]>([2, 0, 1, 3, 4])];
            tensor<int32, [1]> input_tensor_285_begin_0 = const()[name = string("input_tensor_285_begin_0"), val = tensor<int32, [1]>([45860])];
            tensor<int32, [1]> input_tensor_285_end_0 = const()[name = string("input_tensor_285_end_0"), val = tensor<int32, [1]>([48746])];
            tensor<bool, [1]> input_tensor_285_end_mask_0 = const()[name = string("input_tensor_285_end_mask_0"), val = tensor<bool, [1]>([false])];
            tensor<fp32, [2886]> input_tensor_285 = slice_by_index(begin = input_tensor_285_begin_0, end = input_tensor_285_end_0, end_mask = input_tensor_285_end_mask_0, x = state_in)[name = string("input_tensor_285")];
            tensor<int32, [5]> var_2958 = const()[name = string("op_2958"), val = tensor<int32, [5]>([3, 1, 1, 481, 2])];
            tensor<fp32, [3, 1, 1, 481, 2]> x_45 = reshape(shape = var_2958, x = input_tensor_285)[name = string("x_45")];
            tensor<int32, [5]> var_2968_begin_0 = const()[name = string("op_2968_begin_0"), val = tensor<int32, [5]>([1, 0, 0, 0, 0])];
            tensor<int32, [5]> var_2968_end_0 = const()[name = string("op_2968_end_0"), val = tensor<int32, [5]>([1, 1, 1, 481, 2])];
            tensor<bool, [5]> var_2968_end_mask_0 = const()[name = string("op_2968_end_mask_0"), val = tensor<bool, [5]>([true, true, true, true, true])];
            tensor<fp32, [2, 1, 1, 481, 2]> var_2968 = slice_by_index(begin = var_2968_begin_0, end = var_2968_end_0, end_mask = var_2968_end_mask_0, x = x_45)[name = string("op_2968")];
            int32 var_2969 = const()[name = string("op_2969"), val = int32(0)];
            bool x_47_interleave_0 = const()[name = string("x_47_interleave_0"), val = bool(false)];
            tensor<fp32, [1, 1, 1, 481, 2]> var_2936 = transpose(perm = var_2935, x = input_tensor_283)[name = string("transpose_13")];
            tensor<fp32, [3, 1, 1, 481, 2]> x_47 = concat(axis = var_2969, interleave = x_47_interleave_0, values = (var_2968, var_2936))[name = string("x_47")];
            tensor<int32, [5]> input_tensor_287_begin_0 = const()[name = string("input_tensor_287_begin_0"), val = tensor<int32, [5]>([0, 0, 0, 0, 0])];
            tensor<int32, [5]> input_tensor_287_end_0 = const()[name = string("input_tensor_287_end_0"), val = tensor<int32, [5]>([1, 1, 1, 481, 2])];
            tensor<bool, [5]> input_tensor_287_end_mask_0 = const()[name = string("input_tensor_287_end_mask_0"), val = tensor<bool, [5]>([false, true, true, true, true])];
            tensor<fp32, [1, 1, 1, 481, 2]> input_tensor_287 = slice_by_index(begin = input_tensor_287_begin_0, end = input_tensor_287_end_0, end_mask = input_tensor_287_end_mask_0, x = x_47)[name = string("input_tensor_287")];
            tensor<int32, [5]> var_2986 = const()[name = string("op_2986"), val = tensor<int32, [5]>([1, 2, 0, 3, 4])];
            tensor<int32, [1]> var_2992 = const()[name = string("op_2992"), val = tensor<int32, [1]>([-1])];
            tensor<fp32, [2886]> var_2993 = reshape(shape = var_2992, x = x_47)[name = string("op_2993")];
            tensor<fp32, [1, 1, 1, 481, 2]> first_173 = transpose(perm = var_2986, x = input_tensor_287)[name = string("transpose_12")];
            tensor<fp32, [1, 1, 1, 481, 2]> input_tensor_295 = mul(x = first_173, y = second_191)[name = string("input_tensor_295")];
            tensor<int32, [5]> var_3000 = const()[name = string("op_3000"), val = tensor<int32, [5]>([1, 0, 3, 2, 4])];
            tensor<int32, [1]> input_tensor_291_begin_0 = const()[name = string("input_tensor_291_begin_0"), val = tensor<int32, [1]>([48746])];
            tensor<int32, [1]> input_tensor_291_end_0 = const()[name = string("input_tensor_291_end_0"), val = tensor<int32, [1]>([51626])];
            tensor<bool, [1]> input_tensor_291_end_mask_0 = const()[name = string("input_tensor_291_end_mask_0"), val = tensor<bool, [1]>([false])];
            tensor<fp32, [2880]> input_tensor_291 = slice_by_index(begin = input_tensor_291_begin_0, end = input_tensor_291_end_0, end_mask = input_tensor_291_end_mask_0, x = state_in)[name = string("input_tensor_291")];
            tensor<int32, [5]> var_3023 = const()[name = string("op_3023"), val = tensor<int32, [5]>([3, 1, 5, 96, 2])];
            tensor<fp32, [3, 1, 5, 96, 2]> x_49 = reshape(shape = var_3023, x = input_tensor_291)[name = string("x_49")];
            tensor<int32, [5]> var_3033_begin_0 = const()[name = string("op_3033_begin_0"), val = tensor<int32, [5]>([1, 0, 0, 0, 0])];
            tensor<int32, [5]> var_3033_end_0 = const()[name = string("op_3033_end_0"), val = tensor<int32, [5]>([1, 1, 5, 96, 2])];
            tensor<bool, [5]> var_3033_end_mask_0 = const()[name = string("op_3033_end_mask_0"), val = tensor<bool, [5]>([true, true, true, true, true])];
            tensor<fp32, [2, 1, 5, 96, 2]> var_3033 = slice_by_index(begin = var_3033_begin_0, end = var_3033_end_0, end_mask = var_3033_end_mask_0, x = x_49)[name = string("op_3033")];
            int32 var_3034 = const()[name = string("op_3034"), val = int32(0)];
            bool x_51_interleave_0 = const()[name = string("x_51_interleave_0"), val = bool(false)];
            tensor<fp32, [1, 1, 5, 96, 2]> var_3001 = transpose(perm = var_3000, x = input_tensor_289)[name = string("transpose_11")];
            tensor<fp32, [3, 1, 5, 96, 2]> x_51 = concat(axis = var_3034, interleave = x_51_interleave_0, values = (var_3033, var_3001))[name = string("x_51")];
            tensor<int32, [5]> input_tensor_293_begin_0 = const()[name = string("input_tensor_293_begin_0"), val = tensor<int32, [5]>([0, 0, 0, 0, 0])];
            tensor<int32, [5]> input_tensor_293_end_0 = const()[name = string("input_tensor_293_end_0"), val = tensor<int32, [5]>([1, 1, 5, 96, 2])];
            tensor<bool, [5]> input_tensor_293_end_mask_0 = const()[name = string("input_tensor_293_end_mask_0"), val = tensor<bool, [5]>([false, true, true, true, true])];
            tensor<fp32, [1, 1, 5, 96, 2]> input_tensor_293 = slice_by_index(begin = input_tensor_293_begin_0, end = input_tensor_293_end_0, end_mask = input_tensor_293_end_mask_0, x = x_51)[name = string("input_tensor_293")];
            tensor<int32, [1]> var_3050 = const()[name = string("op_3050"), val = tensor<int32, [1]>([-1])];
            tensor<fp32, [2880]> var_3051 = reshape(shape = var_3050, x = x_51)[name = string("op_3051")];
            tensor<int32, [5]> var_3057 = const()[name = string("op_3057"), val = tensor<int32, [5]>([1, 0, 2, 3, 4])];
            tensor<int32, [5]> var_3064 = const()[name = string("op_3064"), val = tensor<int32, [5]>([2, 0, 1, 3, 4])];
            tensor<int32, [1]> input_tensor_297_begin_0 = const()[name = string("input_tensor_297_begin_0"), val = tensor<int32, [1]>([51626])];
            tensor<int32, [1]> input_tensor_297_end_0 = const()[name = string("input_tensor_297_end_0"), val = tensor<int32, [1]>([1])];
            tensor<bool, [1]> input_tensor_297_end_mask_0 = const()[name = string("input_tensor_297_end_mask_0"), val = tensor<bool, [1]>([true])];
            tensor<fp32, [4810]> input_tensor_297 = slice_by_index(begin = input_tensor_297_begin_0, end = input_tensor_297_end_0, end_mask = input_tensor_297_end_mask_0, x = state_in)[name = string("input_tensor_297")];
            tensor<int32, [5]> var_3087 = const()[name = string("op_3087"), val = tensor<int32, [5]>([5, 1, 1, 481, 2])];
            tensor<fp32, [5, 1, 1, 481, 2]> x_53 = reshape(shape = var_3087, x = input_tensor_297)[name = string("x_53")];
            tensor<int32, [5]> var_3097_begin_0 = const()[name = string("op_3097_begin_0"), val = tensor<int32, [5]>([1, 0, 0, 0, 0])];
            tensor<int32, [5]> var_3097_end_0 = const()[name = string("op_3097_end_0"), val = tensor<int32, [5]>([1, 1, 1, 481, 2])];
            tensor<bool, [5]> var_3097_end_mask_0 = const()[name = string("op_3097_end_mask_0"), val = tensor<bool, [5]>([true, true, true, true, true])];
            tensor<fp32, [4, 1, 1, 481, 2]> var_3097 = slice_by_index(begin = var_3097_begin_0, end = var_3097_end_0, end_mask = var_3097_end_mask_0, x = x_53)[name = string("op_3097")];
            int32 var_3098 = const()[name = string("op_3098"), val = int32(0)];
            bool x_55_interleave_0 = const()[name = string("x_55_interleave_0"), val = bool(false)];
            tensor<fp32, [1, 1, 1, 481, 2]> var_3065 = transpose(perm = var_3064, x = input_tensor_295)[name = string("transpose_9")];
            tensor<fp32, [5, 1, 1, 481, 2]> x_55 = concat(axis = var_3098, interleave = x_55_interleave_0, values = (var_3097, var_3065))[name = string("x_55")];
            tensor<int32, [5]> var_3115 = const()[name = string("op_3115"), val = tensor<int32, [5]>([1, 2, 0, 3, 4])];
            tensor<int32, [1]> var_3121 = const()[name = string("op_3121"), val = tensor<int32, [1]>([-1])];
            tensor<fp32, [4810]> var_3122 = reshape(shape = var_3121, x = x_55)[name = string("op_3122")];
            tensor<int32, [5]> input_tensor_301_begin_0 = const()[name = string("input_tensor_301_begin_0"), val = tensor<int32, [5]>([0, 0, 0, 0, 0])];
            tensor<int32, [5]> input_tensor_301_end_0 = const()[name = string("input_tensor_301_end_0"), val = tensor<int32, [5]>([1, 1, 5, 96, 2])];
            tensor<bool, [5]> input_tensor_301_end_mask_0 = const()[name = string("input_tensor_301_end_mask_0"), val = tensor<bool, [5]>([true, true, true, false, true])];
            tensor<fp32, [1, 1, 5, 481, 2]> x = transpose(perm = var_3115, x = x_55)[name = string("transpose_8")];
            tensor<fp32, [1, 1, 5, 96, 2]> input_tensor_301 = slice_by_index(begin = input_tensor_301_begin_0, end = input_tensor_301_end_0, end_mask = input_tensor_301_end_mask_0, x = x)[name = string("input_tensor_301")];
            tensor<int32, [5]> first_175_begin_0 = const()[name = string("first_175_begin_0"), val = tensor<int32, [5]>([0, 0, 0, 0, 0])];
            tensor<int32, [5]> first_175_end_0 = const()[name = string("first_175_end_0"), val = tensor<int32, [5]>([1, 1, 5, 96, 1])];
            tensor<bool, [5]> first_175_end_mask_0 = const()[name = string("first_175_end_mask_0"), val = tensor<bool, [5]>([true, true, true, true, false])];
            tensor<bool, [5]> first_175_squeeze_mask_0 = const()[name = string("first_175_squeeze_mask_0"), val = tensor<bool, [5]>([false, false, false, false, true])];
            tensor<fp32, [1, 1, 5, 96]> first_175 = slice_by_index(begin = first_175_begin_0, end = first_175_end_0, end_mask = first_175_end_mask_0, squeeze_mask = first_175_squeeze_mask_0, x = input_tensor_301)[name = string("first_175")];
            tensor<int32, [5]> second_193_begin_0 = const()[name = string("second_193_begin_0"), val = tensor<int32, [5]>([0, 0, 0, 0, 0])];
            tensor<int32, [5]> second_193_end_0 = const()[name = string("second_193_end_0"), val = tensor<int32, [5]>([1, 1, 5, 96, 1])];
            tensor<bool, [5]> second_193_end_mask_0 = const()[name = string("second_193_end_mask_0"), val = tensor<bool, [5]>([true, true, true, true, false])];
            tensor<bool, [5]> second_193_squeeze_mask_0 = const()[name = string("second_193_squeeze_mask_0"), val = tensor<bool, [5]>([false, false, false, false, true])];
            tensor<fp32, [1, 1, 5, 96, 2]> input_tensor_303 = transpose(perm = var_3057, x = input_tensor_293)[name = string("transpose_10")];
            tensor<fp32, [1, 1, 5, 96]> second_193 = slice_by_index(begin = second_193_begin_0, end = second_193_end_0, end_mask = second_193_end_mask_0, squeeze_mask = second_193_squeeze_mask_0, x = input_tensor_303)[name = string("second_193")];
            tensor<fp32, [1, 1, 5, 96]> input_tensor_305 = mul(x = first_175, y = second_193)[name = string("input_tensor_305")];
            tensor<int32, [1]> first_179_axes_0 = const()[name = string("first_179_axes_0"), val = tensor<int32, [1]>([2])];
            bool first_179_keep_dims_0 = const()[name = string("first_179_keep_dims_0"), val = bool(false)];
            tensor<fp32, [1, 1, 96]> first_179 = reduce_sum(axes = first_179_axes_0, keep_dims = first_179_keep_dims_0, x = input_tensor_305)[name = string("first_179")];
            tensor<int32, [5]> first_177_begin_0 = const()[name = string("first_177_begin_0"), val = tensor<int32, [5]>([0, 0, 0, 0, 1])];
            tensor<int32, [5]> first_177_end_0 = const()[name = string("first_177_end_0"), val = tensor<int32, [5]>([1, 1, 5, 96, 2])];
            tensor<bool, [5]> first_177_end_mask_0 = const()[name = string("first_177_end_mask_0"), val = tensor<bool, [5]>([true, true, true, true, false])];
            tensor<bool, [5]> first_177_squeeze_mask_0 = const()[name = string("first_177_squeeze_mask_0"), val = tensor<bool, [5]>([false, false, false, false, true])];
            tensor<fp32, [1, 1, 5, 96]> first_177 = slice_by_index(begin = first_177_begin_0, end = first_177_end_0, end_mask = first_177_end_mask_0, squeeze_mask = first_177_squeeze_mask_0, x = input_tensor_301)[name = string("first_177")];
            tensor<int32, [5]> second_195_begin_0 = const()[name = string("second_195_begin_0"), val = tensor<int32, [5]>([0, 0, 0, 0, 1])];
            tensor<int32, [5]> second_195_end_0 = const()[name = string("second_195_end_0"), val = tensor<int32, [5]>([1, 1, 5, 96, 2])];
            tensor<bool, [5]> second_195_end_mask_0 = const()[name = string("second_195_end_mask_0"), val = tensor<bool, [5]>([true, true, true, true, false])];
            tensor<bool, [5]> second_195_squeeze_mask_0 = const()[name = string("second_195_squeeze_mask_0"), val = tensor<bool, [5]>([false, false, false, false, true])];
            tensor<fp32, [1, 1, 5, 96]> second_195 = slice_by_index(begin = second_195_begin_0, end = second_195_end_0, end_mask = second_195_end_mask_0, squeeze_mask = second_195_squeeze_mask_0, x = input_tensor_303)[name = string("second_195")];
            tensor<fp32, [1, 1, 5, 96]> input_tensor_307 = mul(x = first_177, y = second_195)[name = string("input_tensor_307")];
            tensor<int32, [1]> second_197_axes_0 = const()[name = string("second_197_axes_0"), val = tensor<int32, [1]>([2])];
            bool second_197_keep_dims_0 = const()[name = string("second_197_keep_dims_0"), val = bool(false)];
            tensor<fp32, [1, 1, 96]> second_197 = reduce_sum(axes = second_197_axes_0, keep_dims = second_197_keep_dims_0, x = input_tensor_307)[name = string("second_197")];
            tensor<fp32, [1, 1, 96]> input_tensor_313 = sub(x = first_179, y = second_197)[name = string("input_tensor_313")];
            tensor<fp32, [1, 1, 5, 96]> input_tensor_309 = mul(x = first_175, y = second_195)[name = string("input_tensor_309")];
            tensor<int32, [1]> first_181_axes_0 = const()[name = string("first_181_axes_0"), val = tensor<int32, [1]>([2])];
            bool first_181_keep_dims_0 = const()[name = string("first_181_keep_dims_0"), val = bool(false)];
            tensor<fp32, [1, 1, 96]> first_181 = reduce_sum(axes = first_181_axes_0, keep_dims = first_181_keep_dims_0, x = input_tensor_309)[name = string("first_181")];
            tensor<fp32, [1, 1, 5, 96]> input_tensor_311 = mul(x = first_177, y = second_193)[name = string("input_tensor_311")];
            tensor<int32, [1]> second_199_axes_0 = const()[name = string("second_199_axes_0"), val = tensor<int32, [1]>([2])];
            bool second_199_keep_dims_0 = const()[name = string("second_199_keep_dims_0"), val = bool(false)];
            tensor<fp32, [1, 1, 96]> second_199 = reduce_sum(axes = second_199_axes_0, keep_dims = second_199_keep_dims_0, x = input_tensor_311)[name = string("second_199")];
            tensor<fp32, [1, 1, 96]> input_tensor_315 = add(x = first_181, y = second_199)[name = string("input_tensor_315")];
            tensor<int32, [1]> var_3227_axes_0 = const()[name = string("op_3227_axes_0"), val = tensor<int32, [1]>([-1])];
            tensor<fp32, [1, 1, 96, 1]> var_3227 = expand_dims(axes = var_3227_axes_0, x = input_tensor_313)[name = string("op_3227")];
            tensor<int32, [1]> var_3229_axes_0 = const()[name = string("op_3229_axes_0"), val = tensor<int32, [1]>([-1])];
            tensor<fp32, [1, 1, 96, 1]> var_3229 = expand_dims(axes = var_3229_axes_0, x = input_tensor_315)[name = string("op_3229")];
            int32 var_3230 = const()[name = string("op_3230"), val = int32(-1)];
            bool input_tensor_interleave_0 = const()[name = string("input_tensor_interleave_0"), val = bool(false)];
            tensor<fp32, [1, 1, 96, 2]> input_tensor = concat(axis = var_3230, interleave = input_tensor_interleave_0, values = (var_3227, var_3229))[name = string("input_tensor")];
            tensor<int32, [1]> var_3234_axes_0 = const()[name = string("op_3234_axes_0"), val = tensor<int32, [1]>([1])];
            tensor<fp32, [1, 1, 1, 96, 2]> var_3234 = expand_dims(axes = var_3234_axes_0, x = input_tensor)[name = string("op_3234")];
            tensor<int32, [5]> var_3252_begin_0 = const()[name = string("op_3252_begin_0"), val = tensor<int32, [5]>([0, 0, 2, 0, 0])];
            tensor<int32, [5]> var_3252_end_0 = const()[name = string("op_3252_end_0"), val = tensor<int32, [5]>([1, 1, 3, 481, 2])];
            tensor<bool, [5]> var_3252_end_mask_0 = const()[name = string("op_3252_end_mask_0"), val = tensor<bool, [5]>([true, true, false, true, true])];
            tensor<fp32, [1, 1, 1, 481, 2]> var_3252 = slice_by_index(begin = var_3252_begin_0, end = var_3252_end_0, end_mask = var_3252_end_mask_0, x = x)[name = string("op_3252")];
            tensor<int32, [5]> var_3253_begin_0 = const()[name = string("op_3253_begin_0"), val = tensor<int32, [5]>([0, 0, 0, 96, 0])];
            tensor<int32, [5]> var_3253_end_0 = const()[name = string("op_3253_end_0"), val = tensor<int32, [5]>([1, 1, 1, 1, 2])];
            tensor<bool, [5]> var_3253_end_mask_0 = const()[name = string("op_3253_end_mask_0"), val = tensor<bool, [5]>([true, true, true, true, true])];
            tensor<fp32, [1, 1, 1, 385, 2]> var_3253 = slice_by_index(begin = var_3253_begin_0, end = var_3253_end_0, end_mask = var_3253_end_mask_0, x = var_3252)[name = string("op_3253")];
            int32 var_3254 = const()[name = string("op_3254"), val = int32(3)];
            bool result_interleave_0 = const()[name = string("result_interleave_0"), val = bool(false)];
            tensor<fp32, [1, 1, 1, 481, 2]> result = concat(axis = var_3254, interleave = result_interleave_0, values = (var_3234, var_3253))[name = string("result")];
            tensor<int32, [1]> first_axes_0 = const()[name = string("first_axes_0"), val = tensor<int32, [1]>([1])];
            tensor<fp32, [1, 1, 481, 2]> first = squeeze(axes = first_axes_0, x = result)[name = string("first")];
            int32 var_3266 = const()[name = string("op_3266"), val = int32(0)];
            bool var_3268_interleave_0 = const()[name = string("op_3268_interleave_0"), val = bool(false)];
            tensor<fp32, [56436]> state_out = concat(axis = var_3266, interleave = var_3268_interleave_0, values = (var_557, var_636, var_700, var_980, var_1188, var_1278, var_1540, var_1748, var_1964, var_2096, var_2162, var_2651, var_2717, var_2799, var_2993, var_3051, var_3122))[name = string("op_3268")];
            tensor<fp32, [1, 1, 481, 2]> spec_e = mul(x = first, y = initializers_onnx_initializer_306)[name = string("op_3269")];
        } -> (spec_e, state_out);
}