program(1.3)
[buildInfo = dict<string, string>({{"coremlc-component-MIL", "3510.2.1"}, {"coremlc-version", "3500.32.1"}, {"coremltools-component-torch", "2.11.0"}, {"coremltools-source-dialect", "TorchScript"}, {"coremltools-version", "9.0"}})]
{
    func main<ios18>(tensor<fp32, [1, 1, 161, 2]> spec, tensor<fp32, [38256]> state_in) {
            string spec_to_fp16_dtype_0 = const()[name = string("spec_to_fp16_dtype_0"), val = string("fp16")];
            fp16 wnorm_to_fp16 = const()[name = string("wnorm_to_fp16"), val = fp16(0x1.998p-9)];
            tensor<fp16, [1, 1, 161, 2]> spec_to_fp16 = cast(dtype = spec_to_fp16_dtype_0, x = spec)[name = string("cast_60")];
            tensor<fp16, [1, 1, 161, 2]> x_1_cast_fp16 = mul(x = spec_to_fp16, y = wnorm_to_fp16)[name = string("x_1_cast_fp16")];
            int32 var_36 = const()[name = string("op_36"), val = int32(3)];
            int32 var_38 = const()[name = string("op_38"), val = int32(0)];
            int32 var_39 = const()[name = string("op_39"), val = int32(1)];
            int32 var_42 = const()[name = string("op_42"), val = int32(-1)];
            fp16 var_43_promoted_to_fp16 = const()[name = string("op_43_promoted_to_fp16"), val = fp16(0x1p+1)];
            tensor<fp16, [1, 1, 161, 2]> var_49_cast_fp16 = pow(x = x_1_cast_fp16, y = var_43_promoted_to_fp16)[name = string("op_49_cast_fp16")];
            tensor<int32, [1]> var_51_axes_0 = const()[name = string("op_51_axes_0"), val = tensor<int32, [1]>([-1])];
            bool var_51_keep_dims_0 = const()[name = string("op_51_keep_dims_0"), val = bool(false)];
            tensor<fp16, [1, 1, 161]> var_51_cast_fp16 = reduce_sum(axes = var_51_axes_0, keep_dims = var_51_keep_dims_0, x = var_49_cast_fp16)[name = string("op_51_cast_fp16")];
            tensor<fp16, [32, 161]> transpose_0_to_fp16 = const()[name = string("transpose_0_to_fp16"), val = tensor<fp16, [32, 161]>(BLOBFILE(path = string("@model_path/weights/weight.bin"), offset = uint64(64)))];
            tensor<fp16, [32]> x_3_bias_0_to_fp16 = const()[name = string("x_3_bias_0_to_fp16"), val = tensor<fp16, [32]>(BLOBFILE(path = string("@model_path/weights/weight.bin"), offset = uint64(10432)))];
            tensor<fp16, [1, 1, 32]> x_3_cast_fp16 = linear(bias = x_3_bias_0_to_fp16, weight = transpose_0_to_fp16, x = var_51_cast_fp16)[name = string("x_3_cast_fp16")];
            fp16 var_53_to_fp16 = const()[name = string("op_53_to_fp16"), val = fp16(0x1p-24)];
            tensor<fp16, [1, 1, 32]> var_54_cast_fp16 = add(x = x_3_cast_fp16, y = var_53_to_fp16)[name = string("op_54_cast_fp16")];
            fp32 log_0_epsilon_0 = const()[name = string("log_0_epsilon_0"), val = fp32(0x1p-149)];
            tensor<fp16, [1, 1, 32]> log_0_cast_fp16 = log(epsilon = log_0_epsilon_0, x = var_54_cast_fp16)[name = string("log_0_cast_fp16")];
            fp16 mul_0_y_0_to_fp16 = const()[name = string("mul_0_y_0_to_fp16"), val = fp16(0x1.bccp-2)];
            tensor<fp16, [1, 1, 32]> mul_0_cast_fp16 = mul(x = log_0_cast_fp16, y = mul_0_y_0_to_fp16)[name = string("mul_0_cast_fp16")];
            fp16 var_56_promoted_to_fp16 = const()[name = string("op_56_promoted_to_fp16"), val = fp16(0x1.4p+3)];
            tensor<fp16, [1, 1, 32]> x_5_cast_fp16 = mul(x = mul_0_cast_fp16, y = var_56_promoted_to_fp16)[name = string("x_5_cast_fp16")];
            tensor<int32, [4]> var_58_begin_0 = const()[name = string("op_58_begin_0"), val = tensor<int32, [4]>([0, 0, 0, 0])];
            tensor<int32, [4]> var_58_end_0 = const()[name = string("op_58_end_0"), val = tensor<int32, [4]>([1, 1, 96, 2])];
            tensor<bool, [4]> var_58_end_mask_0 = const()[name = string("op_58_end_mask_0"), val = tensor<bool, [4]>([true, true, false, true])];
            tensor<fp16, [1, 1, 96, 2]> var_58_cast_fp16 = slice_by_index(begin = var_58_begin_0, end = var_58_end_0, end_mask = var_58_end_mask_0, x = x_1_cast_fp16)[name = string("op_58_cast_fp16")];
            tensor<int32, [1]> mu_flat_begin_0 = const()[name = string("mu_flat_begin_0"), val = tensor<int32, [1]>([0])];
            tensor<int32, [1]> mu_flat_end_0 = const()[name = string("mu_flat_end_0"), val = tensor<int32, [1]>([32])];
            tensor<bool, [1]> mu_flat_end_mask_0 = const()[name = string("mu_flat_end_mask_0"), val = tensor<bool, [1]>([false])];
            string state_in_to_fp16_dtype_0 = const()[name = string("state_in_to_fp16_dtype_0"), val = string("fp16")];
            tensor<fp16, [38256]> state_in_to_fp16 = cast(dtype = state_in_to_fp16_dtype_0, x = state_in)[name = string("cast_59")];
            tensor<fp16, [32]> mu_flat_cast_fp16 = slice_by_index(begin = mu_flat_begin_0, end = mu_flat_end_0, end_mask = mu_flat_end_mask_0, x = state_in_to_fp16)[name = string("mu_flat_cast_fp16")];
            tensor<int32, [3]> var_61 = const()[name = string("op_61"), val = tensor<int32, [3]>([1, 1, 32])];
            tensor<fp16, [1, 1, 32]> mu_prev_cast_fp16 = reshape(shape = var_61, x = mu_flat_cast_fp16)[name = string("mu_prev_cast_fp16")];
            fp16 var_63_to_fp16 = const()[name = string("op_63_to_fp16"), val = fp16(0x1.f5cp-1)];
            tensor<fp16, [1, 1, 32]> var_64_cast_fp16 = mul(x = mu_prev_cast_fp16, y = var_63_to_fp16)[name = string("op_64_cast_fp16")];
            fp16 var_65_to_fp16 = const()[name = string("op_65_to_fp16"), val = fp16(0x1.47cp-6)];
            tensor<fp16, [1, 1, 32]> var_66_cast_fp16 = mul(x = x_5_cast_fp16, y = var_65_to_fp16)[name = string("op_66_cast_fp16")];
            tensor<fp16, [1, 1, 32]> mu_next_cast_fp16 = add(x = var_64_cast_fp16, y = var_66_cast_fp16)[name = string("mu_next_cast_fp16")];
            tensor<fp16, [1, 1, 32]> var_68_cast_fp16 = sub(x = x_5_cast_fp16, y = mu_next_cast_fp16)[name = string("op_68_cast_fp16")];
            fp16 _inversed_feat_erb_y_0_to_fp16 = const()[name = string("_inversed_feat_erb_y_0_to_fp16"), val = fp16(0x1.998p-6)];
            tensor<fp16, [1, 1, 32]> _inversed_feat_erb_cast_fp16 = mul(x = var_68_cast_fp16, y = _inversed_feat_erb_y_0_to_fp16)[name = string("_inversed_feat_erb_cast_fp16")];
            tensor<int32, [1]> var_71 = const()[name = string("op_71"), val = tensor<int32, [1]>([-1])];
            tensor<fp16, [32]> erb_norm_state_out_cast_fp16 = reshape(shape = var_71, x = mu_next_cast_fp16)[name = string("erb_norm_state_out_cast_fp16")];
            fp16 var_43_promoted_1_to_fp16 = const()[name = string("op_43_promoted_1_to_fp16"), val = fp16(0x1p+1)];
            tensor<fp16, [1, 1, 96, 2]> var_76_cast_fp16 = pow(x = var_58_cast_fp16, y = var_43_promoted_1_to_fp16)[name = string("op_76_cast_fp16")];
            tensor<int32, [1]> var_78_axes_0 = const()[name = string("op_78_axes_0"), val = tensor<int32, [1]>([-1])];
            bool var_78_keep_dims_0 = const()[name = string("op_78_keep_dims_0"), val = bool(false)];
            tensor<fp16, [1, 1, 96]> var_78_cast_fp16 = reduce_sum(axes = var_78_axes_0, keep_dims = var_78_keep_dims_0, x = var_76_cast_fp16)[name = string("op_78_cast_fp16")];
            tensor<fp16, [1, 1, 96]> x_abs_cast_fp16 = sqrt(x = var_78_cast_fp16)[name = string("x_abs_cast_fp16")];
            tensor<int32, [1]> s_flat_begin_0 = const()[name = string("s_flat_begin_0"), val = tensor<int32, [1]>([32])];
            tensor<int32, [1]> s_flat_end_0 = const()[name = string("s_flat_end_0"), val = tensor<int32, [1]>([128])];
            tensor<bool, [1]> s_flat_end_mask_0 = const()[name = string("s_flat_end_mask_0"), val = tensor<bool, [1]>([false])];
            tensor<fp16, [96]> s_flat_cast_fp16 = slice_by_index(begin = s_flat_begin_0, end = s_flat_end_0, end_mask = s_flat_end_mask_0, x = state_in_to_fp16)[name = string("s_flat_cast_fp16")];
            tensor<int32, [3]> var_81 = const()[name = string("op_81"), val = tensor<int32, [3]>([1, 1, 96])];
            tensor<fp16, [1, 1, 96]> s_prev_cast_fp16 = reshape(shape = var_81, x = s_flat_cast_fp16)[name = string("s_prev_cast_fp16")];
            fp16 var_83_to_fp16 = const()[name = string("op_83_to_fp16"), val = fp16(0x1.f5cp-1)];
            tensor<fp16, [1, 1, 96]> var_84_cast_fp16 = mul(x = s_prev_cast_fp16, y = var_83_to_fp16)[name = string("op_84_cast_fp16")];
            fp16 var_85_to_fp16 = const()[name = string("op_85_to_fp16"), val = fp16(0x1.47cp-6)];
            tensor<fp16, [1, 1, 96]> var_86_cast_fp16 = mul(x = x_abs_cast_fp16, y = var_85_to_fp16)[name = string("op_86_cast_fp16")];
            tensor<fp16, [1, 1, 96]> s_next_cast_fp16 = add(x = var_84_cast_fp16, y = var_86_cast_fp16)[name = string("s_next_cast_fp16")];
            fp16 var_88_to_fp16 = const()[name = string("op_88_to_fp16"), val = fp16(0x1p-24)];
            tensor<fp16, [1, 1, 96]> var_89_cast_fp16 = add(x = s_next_cast_fp16, y = var_88_to_fp16)[name = string("op_89_cast_fp16")];
            tensor<fp16, [1, 1, 96]> denom_cast_fp16 = sqrt(x = var_89_cast_fp16)[name = string("denom_cast_fp16")];
            tensor<int32, [4]> var_91_begin_0 = const()[name = string("op_91_begin_0"), val = tensor<int32, [4]>([0, 0, 0, 0])];
            tensor<int32, [4]> var_91_end_0 = const()[name = string("op_91_end_0"), val = tensor<int32, [4]>([1, 1, 96, 1])];
            tensor<bool, [4]> var_91_end_mask_0 = const()[name = string("op_91_end_mask_0"), val = tensor<bool, [4]>([true, true, true, false])];
            tensor<bool, [4]> var_91_squeeze_mask_0 = const()[name = string("op_91_squeeze_mask_0"), val = tensor<bool, [4]>([false, false, false, true])];
            tensor<fp16, [1, 1, 96]> var_91_cast_fp16 = slice_by_index(begin = var_91_begin_0, end = var_91_end_0, end_mask = var_91_end_mask_0, squeeze_mask = var_91_squeeze_mask_0, x = var_58_cast_fp16)[name = string("op_91_cast_fp16")];
            tensor<fp16, [1, 1, 96]> x_r_norm_cast_fp16 = real_div(x = var_91_cast_fp16, y = denom_cast_fp16)[name = string("x_r_norm_cast_fp16")];
            tensor<int32, [4]> var_93_begin_0 = const()[name = string("op_93_begin_0"), val = tensor<int32, [4]>([0, 0, 0, 1])];
            tensor<int32, [4]> var_93_end_0 = const()[name = string("op_93_end_0"), val = tensor<int32, [4]>([1, 1, 96, 2])];
            tensor<bool, [4]> var_93_end_mask_0 = const()[name = string("op_93_end_mask_0"), val = tensor<bool, [4]>([true, true, true, false])];
            tensor<bool, [4]> var_93_squeeze_mask_0 = const()[name = string("op_93_squeeze_mask_0"), val = tensor<bool, [4]>([false, false, false, true])];
            tensor<fp16, [1, 1, 96]> var_93_cast_fp16 = slice_by_index(begin = var_93_begin_0, end = var_93_end_0, end_mask = var_93_end_mask_0, squeeze_mask = var_93_squeeze_mask_0, x = var_58_cast_fp16)[name = string("op_93_cast_fp16")];
            tensor<fp16, [1, 1, 96]> x_i_norm_cast_fp16 = real_div(x = var_93_cast_fp16, y = denom_cast_fp16)[name = string("x_i_norm_cast_fp16")];
            int32 feat_spec_axis_0 = const()[name = string("feat_spec_axis_0"), val = int32(-1)];
            tensor<fp16, [1, 1, 96, 2]> feat_spec_cast_fp16 = stack(axis = feat_spec_axis_0, values = (x_r_norm_cast_fp16, x_i_norm_cast_fp16))[name = string("feat_spec_cast_fp16")];
            tensor<int32, [1]> var_97 = const()[name = string("op_97"), val = tensor<int32, [1]>([-1])];
            tensor<fp16, [96]> spec_norm_state_out_cast_fp16 = reshape(shape = var_97, x = s_next_cast_fp16)[name = string("spec_norm_state_out_cast_fp16")];
            tensor<int32, [1]> x_77_axes_0 = const()[name = string("x_77_axes_0"), val = tensor<int32, [1]>([1])];
            tensor<fp16, [1, 1, 1, 161, 2]> x_77_cast_fp16 = expand_dims(axes = x_77_axes_0, x = x_1_cast_fp16)[name = string("x_77_cast_fp16")];
            tensor<int32, [1]> x_9_axes_0 = const()[name = string("x_9_axes_0"), val = tensor<int32, [1]>([1])];
            tensor<fp16, [1, 1, 1, 32]> x_9_cast_fp16 = expand_dims(axes = x_9_axes_0, x = _inversed_feat_erb_cast_fp16)[name = string("x_9_cast_fp16")];
            tensor<int32, [4]> transpose_1_perm_0 = const()[name = string("transpose_1_perm_0"), val = tensor<int32, [4]>([1, 0, 3, 2])];
            tensor<int32, [4]> var_114 = const()[name = string("op_114"), val = tensor<int32, [4]>([2, 0, 1, 3])];
            tensor<int32, [1]> buf_flat_1_begin_0 = const()[name = string("buf_flat_1_begin_0"), val = tensor<int32, [1]>([128])];
            tensor<int32, [1]> buf_flat_1_end_0 = const()[name = string("buf_flat_1_end_0"), val = tensor<int32, [1]>([224])];
            tensor<bool, [1]> buf_flat_1_end_mask_0 = const()[name = string("buf_flat_1_end_mask_0"), val = tensor<bool, [1]>([false])];
            tensor<fp16, [96]> buf_flat_1_cast_fp16 = slice_by_index(begin = buf_flat_1_begin_0, end = buf_flat_1_end_0, end_mask = buf_flat_1_end_mask_0, x = state_in_to_fp16)[name = string("buf_flat_1_cast_fp16")];
            tensor<int32, [4]> var_117 = const()[name = string("op_117"), val = tensor<int32, [4]>([3, 1, 1, 32])];
            tensor<fp16, [3, 1, 1, 32]> buf_1_cast_fp16 = reshape(shape = var_117, x = buf_flat_1_cast_fp16)[name = string("buf_1_cast_fp16")];
            tensor<int32, [4]> var_119_begin_0 = const()[name = string("op_119_begin_0"), val = tensor<int32, [4]>([1, 0, 0, 0])];
            tensor<int32, [4]> var_119_end_0 = const()[name = string("op_119_end_0"), val = tensor<int32, [4]>([3, 1, 1, 32])];
            tensor<bool, [4]> var_119_end_mask_0 = const()[name = string("op_119_end_mask_0"), val = tensor<bool, [4]>([true, true, true, true])];
            tensor<fp16, [2, 1, 1, 32]> var_119_cast_fp16 = slice_by_index(begin = var_119_begin_0, end = var_119_end_0, end_mask = var_119_end_mask_0, x = buf_1_cast_fp16)[name = string("op_119_cast_fp16")];
            bool buf_next_1_interleave_0 = const()[name = string("buf_next_1_interleave_0"), val = bool(false)];
            tensor<fp16, [1, 1, 1, 32]> x_tf_1_cast_fp16 = transpose(perm = var_114, x = x_9_cast_fp16)[name = string("transpose_18")];
            tensor<fp16, [3, 1, 1, 32]> buf_next_1_cast_fp16 = concat(axis = var_38, interleave = buf_next_1_interleave_0, values = (var_119_cast_fp16, x_tf_1_cast_fp16))[name = string("buf_next_1_cast_fp16")];
            tensor<int32, [4]> var_123 = const()[name = string("op_123"), val = tensor<int32, [4]>([1, 2, 0, 3])];
            tensor<int32, [1]> var_125 = const()[name = string("op_125"), val = tensor<int32, [1]>([-1])];
            tensor<fp16, [96]> erb_conv0_state_out_cast_fp16 = reshape(shape = var_125, x = buf_next_1_cast_fp16)[name = string("erb_conv0_state_out_cast_fp16")];
            string input_3_pad_type_0 = const()[name = string("input_3_pad_type_0"), val = string("custom")];
            tensor<int32, [4]> input_3_pad_0 = const()[name = string("input_3_pad_0"), val = tensor<int32, [4]>([0, 0, 1, 1])];
            tensor<int32, [2]> input_3_strides_0 = const()[name = string("input_3_strides_0"), val = tensor<int32, [2]>([1, 1])];
            tensor<int32, [2]> input_3_dilations_0 = const()[name = string("input_3_dilations_0"), val = tensor<int32, [2]>([1, 1])];
            int32 input_3_groups_0 = const()[name = string("input_3_groups_0"), val = int32(1)];
            tensor<fp16, [64, 1, 3, 3]> const_16_to_fp16 = const()[name = string("const_16_to_fp16"), val = tensor<fp16, [64, 1, 3, 3]>(BLOBFILE(path = string("@model_path/weights/weight.bin"), offset = uint64(10560)))];
            tensor<fp16, [64]> const_17_to_fp16 = const()[name = string("const_17_to_fp16"), val = tensor<fp16, [64]>(BLOBFILE(path = string("@model_path/weights/weight.bin"), offset = uint64(11776)))];
            tensor<fp16, [1, 1, 3, 32]> input_1_cast_fp16 = transpose(perm = var_123, x = buf_next_1_cast_fp16)[name = string("transpose_17")];
            tensor<fp16, [1, 64, 1, 32]> input_5_cast_fp16 = conv(bias = const_17_to_fp16, dilations = input_3_dilations_0, groups = input_3_groups_0, pad = input_3_pad_0, pad_type = input_3_pad_type_0, strides = input_3_strides_0, weight = const_16_to_fp16, x = input_1_cast_fp16)[name = string("input_5_cast_fp16")];
            tensor<fp16, [1, 64, 1, 32]> input_7_cast_fp16 = relu(x = input_5_cast_fp16)[name = string("input_7_cast_fp16")];
            string input_9_pad_type_0 = const()[name = string("input_9_pad_type_0"), val = string("custom")];
            tensor<int32, [4]> input_9_pad_0 = const()[name = string("input_9_pad_0"), val = tensor<int32, [4]>([0, 0, 1, 1])];
            tensor<int32, [2]> input_9_strides_0 = const()[name = string("input_9_strides_0"), val = tensor<int32, [2]>([1, 2])];
            int32 input_9_groups_0 = const()[name = string("input_9_groups_0"), val = int32(64)];
            tensor<int32, [2]> input_9_dilations_0 = const()[name = string("input_9_dilations_0"), val = tensor<int32, [2]>([1, 1])];
            tensor<fp16, [64, 1, 1, 3]> model_enc_erb_conv1_0_weight_to_fp16 = const()[name = string("model_enc_erb_conv1_0_weight_to_fp16"), val = tensor<fp16, [64, 1, 1, 3]>(BLOBFILE(path = string("@model_path/weights/weight.bin"), offset = uint64(11968)))];
            tensor<fp16, [1, 64, 1, 16]> input_9_cast_fp16 = conv(dilations = input_9_dilations_0, groups = input_9_groups_0, pad = input_9_pad_0, pad_type = input_9_pad_type_0, strides = input_9_strides_0, weight = model_enc_erb_conv1_0_weight_to_fp16, x = input_7_cast_fp16)[name = string("input_9_cast_fp16")];
            string input_11_pad_type_0 = const()[name = string("input_11_pad_type_0"), val = string("valid")];
            tensor<int32, [2]> input_11_strides_0 = const()[name = string("input_11_strides_0"), val = tensor<int32, [2]>([1, 1])];
            tensor<int32, [4]> input_11_pad_0 = const()[name = string("input_11_pad_0"), val = tensor<int32, [4]>([0, 0, 0, 0])];
            tensor<int32, [2]> input_11_dilations_0 = const()[name = string("input_11_dilations_0"), val = tensor<int32, [2]>([1, 1])];
            int32 input_11_groups_0 = const()[name = string("input_11_groups_0"), val = int32(1)];
            tensor<fp16, [64, 64, 1, 1]> const_18_to_fp16 = const()[name = string("const_18_to_fp16"), val = tensor<fp16, [64, 64, 1, 1]>(BLOBFILE(path = string("@model_path/weights/weight.bin"), offset = uint64(12416)))];
            tensor<fp16, [64]> const_19_to_fp16 = const()[name = string("const_19_to_fp16"), val = tensor<fp16, [64]>(BLOBFILE(path = string("@model_path/weights/weight.bin"), offset = uint64(20672)))];
            tensor<fp16, [1, 64, 1, 16]> input_13_cast_fp16 = conv(bias = const_19_to_fp16, dilations = input_11_dilations_0, groups = input_11_groups_0, pad = input_11_pad_0, pad_type = input_11_pad_type_0, strides = input_11_strides_0, weight = const_18_to_fp16, x = input_9_cast_fp16)[name = string("input_13_cast_fp16")];
            tensor<fp16, [1, 64, 1, 16]> input_15_cast_fp16 = relu(x = input_13_cast_fp16)[name = string("input_15_cast_fp16")];
            string input_17_pad_type_0 = const()[name = string("input_17_pad_type_0"), val = string("custom")];
            tensor<int32, [4]> input_17_pad_0 = const()[name = string("input_17_pad_0"), val = tensor<int32, [4]>([0, 0, 1, 1])];
            tensor<int32, [2]> input_17_strides_0 = const()[name = string("input_17_strides_0"), val = tensor<int32, [2]>([1, 2])];
            int32 input_17_groups_0 = const()[name = string("input_17_groups_0"), val = int32(64)];
            tensor<int32, [2]> input_17_dilations_0 = const()[name = string("input_17_dilations_0"), val = tensor<int32, [2]>([1, 1])];
            tensor<fp16, [64, 1, 1, 3]> model_enc_erb_conv2_0_weight_to_fp16 = const()[name = string("model_enc_erb_conv2_0_weight_to_fp16"), val = tensor<fp16, [64, 1, 1, 3]>(BLOBFILE(path = string("@model_path/weights/weight.bin"), offset = uint64(20864)))];
            tensor<fp16, [1, 64, 1, 8]> input_17_cast_fp16 = conv(dilations = input_17_dilations_0, groups = input_17_groups_0, pad = input_17_pad_0, pad_type = input_17_pad_type_0, strides = input_17_strides_0, weight = model_enc_erb_conv2_0_weight_to_fp16, x = input_15_cast_fp16)[name = string("input_17_cast_fp16")];
            string input_19_pad_type_0 = const()[name = string("input_19_pad_type_0"), val = string("valid")];
            tensor<int32, [2]> input_19_strides_0 = const()[name = string("input_19_strides_0"), val = tensor<int32, [2]>([1, 1])];
            tensor<int32, [4]> input_19_pad_0 = const()[name = string("input_19_pad_0"), val = tensor<int32, [4]>([0, 0, 0, 0])];
            tensor<int32, [2]> input_19_dilations_0 = const()[name = string("input_19_dilations_0"), val = tensor<int32, [2]>([1, 1])];
            int32 input_19_groups_0 = const()[name = string("input_19_groups_0"), val = int32(1)];
            tensor<fp16, [64, 64, 1, 1]> const_20_to_fp16 = const()[name = string("const_20_to_fp16"), val = tensor<fp16, [64, 64, 1, 1]>(BLOBFILE(path = string("@model_path/weights/weight.bin"), offset = uint64(21312)))];
            tensor<fp16, [64]> const_21_to_fp16 = const()[name = string("const_21_to_fp16"), val = tensor<fp16, [64]>(BLOBFILE(path = string("@model_path/weights/weight.bin"), offset = uint64(29568)))];
            tensor<fp16, [1, 64, 1, 8]> input_21_cast_fp16 = conv(bias = const_21_to_fp16, dilations = input_19_dilations_0, groups = input_19_groups_0, pad = input_19_pad_0, pad_type = input_19_pad_type_0, strides = input_19_strides_0, weight = const_20_to_fp16, x = input_17_cast_fp16)[name = string("input_21_cast_fp16")];
            tensor<fp16, [1, 64, 1, 8]> input_23_cast_fp16 = relu(x = input_21_cast_fp16)[name = string("input_23_cast_fp16")];
            string input_25_pad_type_0 = const()[name = string("input_25_pad_type_0"), val = string("custom")];
            tensor<int32, [4]> input_25_pad_0 = const()[name = string("input_25_pad_0"), val = tensor<int32, [4]>([0, 0, 1, 1])];
            int32 input_25_groups_0 = const()[name = string("input_25_groups_0"), val = int32(64)];
            tensor<int32, [2]> input_25_strides_0 = const()[name = string("input_25_strides_0"), val = tensor<int32, [2]>([1, 1])];
            tensor<int32, [2]> input_25_dilations_0 = const()[name = string("input_25_dilations_0"), val = tensor<int32, [2]>([1, 1])];
            tensor<fp16, [64, 1, 1, 3]> model_enc_erb_conv3_0_weight_to_fp16 = const()[name = string("model_enc_erb_conv3_0_weight_to_fp16"), val = tensor<fp16, [64, 1, 1, 3]>(BLOBFILE(path = string("@model_path/weights/weight.bin"), offset = uint64(29760)))];
            tensor<fp16, [1, 64, 1, 8]> input_25_cast_fp16 = conv(dilations = input_25_dilations_0, groups = input_25_groups_0, pad = input_25_pad_0, pad_type = input_25_pad_type_0, strides = input_25_strides_0, weight = model_enc_erb_conv3_0_weight_to_fp16, x = input_23_cast_fp16)[name = string("input_25_cast_fp16")];
            string input_27_pad_type_0 = const()[name = string("input_27_pad_type_0"), val = string("valid")];
            tensor<int32, [2]> input_27_strides_0 = const()[name = string("input_27_strides_0"), val = tensor<int32, [2]>([1, 1])];
            tensor<int32, [4]> input_27_pad_0 = const()[name = string("input_27_pad_0"), val = tensor<int32, [4]>([0, 0, 0, 0])];
            tensor<int32, [2]> input_27_dilations_0 = const()[name = string("input_27_dilations_0"), val = tensor<int32, [2]>([1, 1])];
            int32 input_27_groups_0 = const()[name = string("input_27_groups_0"), val = int32(1)];
            tensor<fp16, [64, 64, 1, 1]> const_22_to_fp16 = const()[name = string("const_22_to_fp16"), val = tensor<fp16, [64, 64, 1, 1]>(BLOBFILE(path = string("@model_path/weights/weight.bin"), offset = uint64(30208)))];
            tensor<fp16, [64]> const_23_to_fp16 = const()[name = string("const_23_to_fp16"), val = tensor<fp16, [64]>(BLOBFILE(path = string("@model_path/weights/weight.bin"), offset = uint64(38464)))];
            tensor<fp16, [1, 64, 1, 8]> input_29_cast_fp16 = conv(bias = const_23_to_fp16, dilations = input_27_dilations_0, groups = input_27_groups_0, pad = input_27_pad_0, pad_type = input_27_pad_type_0, strides = input_27_strides_0, weight = const_22_to_fp16, x = input_25_cast_fp16)[name = string("input_29_cast_fp16")];
            tensor<fp16, [1, 64, 1, 8]> e3_1_cast_fp16 = relu(x = input_29_cast_fp16)[name = string("e3_1_cast_fp16")];
            tensor<int32, [1]> buf_flat_3_begin_0 = const()[name = string("buf_flat_3_begin_0"), val = tensor<int32, [1]>([224])];
            tensor<int32, [1]> buf_flat_3_end_0 = const()[name = string("buf_flat_3_end_0"), val = tensor<int32, [1]>([800])];
            tensor<bool, [1]> buf_flat_3_end_mask_0 = const()[name = string("buf_flat_3_end_mask_0"), val = tensor<bool, [1]>([false])];
            tensor<fp16, [576]> buf_flat_3_cast_fp16 = slice_by_index(begin = buf_flat_3_begin_0, end = buf_flat_3_end_0, end_mask = buf_flat_3_end_mask_0, x = state_in_to_fp16)[name = string("buf_flat_3_cast_fp16")];
            tensor<int32, [4]> var_210 = const()[name = string("op_210"), val = tensor<int32, [4]>([3, 1, 2, 96])];
            tensor<fp16, [3, 1, 2, 96]> buf_3_cast_fp16 = reshape(shape = var_210, x = buf_flat_3_cast_fp16)[name = string("buf_3_cast_fp16")];
            tensor<int32, [4]> var_212_begin_0 = const()[name = string("op_212_begin_0"), val = tensor<int32, [4]>([1, 0, 0, 0])];
            tensor<int32, [4]> var_212_end_0 = const()[name = string("op_212_end_0"), val = tensor<int32, [4]>([3, 1, 2, 96])];
            tensor<bool, [4]> var_212_end_mask_0 = const()[name = string("op_212_end_mask_0"), val = tensor<bool, [4]>([true, true, true, true])];
            tensor<fp16, [2, 1, 2, 96]> var_212_cast_fp16 = slice_by_index(begin = var_212_begin_0, end = var_212_end_0, end_mask = var_212_end_mask_0, x = buf_3_cast_fp16)[name = string("op_212_cast_fp16")];
            bool buf_next_3_interleave_0 = const()[name = string("buf_next_3_interleave_0"), val = bool(false)];
            tensor<fp16, [1, 1, 2, 96]> transpose_1_cast_fp16 = transpose(perm = transpose_1_perm_0, x = feat_spec_cast_fp16)[name = string("transpose_19")];
            tensor<fp16, [3, 1, 2, 96]> buf_next_3_cast_fp16 = concat(axis = var_38, interleave = buf_next_3_interleave_0, values = (var_212_cast_fp16, transpose_1_cast_fp16))[name = string("buf_next_3_cast_fp16")];
            tensor<int32, [4]> var_216 = const()[name = string("op_216"), val = tensor<int32, [4]>([1, 2, 0, 3])];
            tensor<int32, [1]> var_218 = const()[name = string("op_218"), val = tensor<int32, [1]>([-1])];
            tensor<fp16, [576]> df_conv0_state_out_cast_fp16 = reshape(shape = var_218, x = buf_next_3_cast_fp16)[name = string("df_conv0_state_out_cast_fp16")];
            tensor<int32, [2]> var_230_split_sizes_0 = const()[name = string("op_230_split_sizes_0"), val = tensor<int32, [2]>([1, 1])];
            int32 var_230_axis_0 = const()[name = string("op_230_axis_0"), val = int32(1)];
            tensor<fp16, [1, 2, 3, 96]> x_13_cast_fp16 = transpose(perm = var_216, x = buf_next_3_cast_fp16)[name = string("transpose_16")];
            tensor<fp16, [1, 1, 3, 96]> var_230_cast_fp16_0, tensor<fp16, [1, 1, 3, 96]> var_230_cast_fp16_1 = split(axis = var_230_axis_0, split_sizes = var_230_split_sizes_0, x = x_13_cast_fp16)[name = string("op_230_cast_fp16")];
            string var_237_pad_type_0 = const()[name = string("op_237_pad_type_0"), val = string("custom")];
            tensor<int32, [4]> var_237_pad_0 = const()[name = string("op_237_pad_0"), val = tensor<int32, [4]>([0, 0, 1, 1])];
            tensor<int32, [2]> var_237_strides_0 = const()[name = string("op_237_strides_0"), val = tensor<int32, [2]>([1, 1])];
            tensor<int32, [2]> var_237_dilations_0 = const()[name = string("op_237_dilations_0"), val = tensor<int32, [2]>([1, 1])];
            int32 var_237_groups_0 = const()[name = string("op_237_groups_0"), val = int32(1)];
            tensor<fp16, [32, 1, 3, 3]> model_enc_df_conv0_1_convs_0_weight_to_fp16 = const()[name = string("model_enc_df_conv0_1_convs_0_weight_to_fp16"), val = tensor<fp16, [32, 1, 3, 3]>(BLOBFILE(path = string("@model_path/weights/weight.bin"), offset = uint64(38656)))];
            tensor<fp16, [1, 32, 1, 96]> var_237_cast_fp16 = conv(dilations = var_237_dilations_0, groups = var_237_groups_0, pad = var_237_pad_0, pad_type = var_237_pad_type_0, strides = var_237_strides_0, weight = model_enc_df_conv0_1_convs_0_weight_to_fp16, x = var_230_cast_fp16_0)[name = string("op_237_cast_fp16")];
            string var_243_pad_type_0 = const()[name = string("op_243_pad_type_0"), val = string("custom")];
            tensor<int32, [4]> var_243_pad_0 = const()[name = string("op_243_pad_0"), val = tensor<int32, [4]>([0, 0, 1, 1])];
            tensor<int32, [2]> var_243_strides_0 = const()[name = string("op_243_strides_0"), val = tensor<int32, [2]>([1, 1])];
            tensor<int32, [2]> var_243_dilations_0 = const()[name = string("op_243_dilations_0"), val = tensor<int32, [2]>([1, 1])];
            int32 var_243_groups_0 = const()[name = string("op_243_groups_0"), val = int32(1)];
            tensor<fp16, [32, 1, 3, 3]> model_enc_df_conv0_1_convs_1_weight_to_fp16 = const()[name = string("model_enc_df_conv0_1_convs_1_weight_to_fp16"), val = tensor<fp16, [32, 1, 3, 3]>(BLOBFILE(path = string("@model_path/weights/weight.bin"), offset = uint64(39296)))];
            tensor<fp16, [1, 32, 1, 96]> var_243_cast_fp16 = conv(dilations = var_243_dilations_0, groups = var_243_groups_0, pad = var_243_pad_0, pad_type = var_243_pad_type_0, strides = var_243_strides_0, weight = model_enc_df_conv0_1_convs_1_weight_to_fp16, x = var_230_cast_fp16_1)[name = string("op_243_cast_fp16")];
            bool input_35_interleave_0 = const()[name = string("input_35_interleave_0"), val = bool(false)];
            tensor<fp16, [1, 64, 1, 96]> input_35_cast_fp16 = concat(axis = var_39, interleave = input_35_interleave_0, values = (var_237_cast_fp16, var_243_cast_fp16))[name = string("input_35_cast_fp16")];
            string input_37_pad_type_0 = const()[name = string("input_37_pad_type_0"), val = string("valid")];
            tensor<int32, [2]> input_37_strides_0 = const()[name = string("input_37_strides_0"), val = tensor<int32, [2]>([1, 1])];
            tensor<int32, [4]> input_37_pad_0 = const()[name = string("input_37_pad_0"), val = tensor<int32, [4]>([0, 0, 0, 0])];
            tensor<int32, [2]> input_37_dilations_0 = const()[name = string("input_37_dilations_0"), val = tensor<int32, [2]>([1, 1])];
            int32 input_37_groups_0 = const()[name = string("input_37_groups_0"), val = int32(1)];
            tensor<fp16, [64, 64, 1, 1]> const_24_to_fp16 = const()[name = string("const_24_to_fp16"), val = tensor<fp16, [64, 64, 1, 1]>(BLOBFILE(path = string("@model_path/weights/weight.bin"), offset = uint64(39936)))];
            tensor<fp16, [64]> const_25_to_fp16 = const()[name = string("const_25_to_fp16"), val = tensor<fp16, [64]>(BLOBFILE(path = string("@model_path/weights/weight.bin"), offset = uint64(48192)))];
            tensor<fp16, [1, 64, 1, 96]> input_39_cast_fp16 = conv(bias = const_25_to_fp16, dilations = input_37_dilations_0, groups = input_37_groups_0, pad = input_37_pad_0, pad_type = input_37_pad_type_0, strides = input_37_strides_0, weight = const_24_to_fp16, x = input_35_cast_fp16)[name = string("input_39_cast_fp16")];
            tensor<fp16, [1, 64, 1, 96]> input_41_cast_fp16 = relu(x = input_39_cast_fp16)[name = string("input_41_cast_fp16")];
            string input_43_pad_type_0 = const()[name = string("input_43_pad_type_0"), val = string("custom")];
            tensor<int32, [4]> input_43_pad_0 = const()[name = string("input_43_pad_0"), val = tensor<int32, [4]>([0, 0, 1, 1])];
            tensor<int32, [2]> input_43_strides_0 = const()[name = string("input_43_strides_0"), val = tensor<int32, [2]>([1, 2])];
            int32 input_43_groups_0 = const()[name = string("input_43_groups_0"), val = int32(64)];
            tensor<int32, [2]> input_43_dilations_0 = const()[name = string("input_43_dilations_0"), val = tensor<int32, [2]>([1, 1])];
            tensor<fp16, [64, 1, 1, 3]> model_enc_df_conv1_0_weight_to_fp16 = const()[name = string("model_enc_df_conv1_0_weight_to_fp16"), val = tensor<fp16, [64, 1, 1, 3]>(BLOBFILE(path = string("@model_path/weights/weight.bin"), offset = uint64(48384)))];
            tensor<fp16, [1, 64, 1, 48]> input_43_cast_fp16 = conv(dilations = input_43_dilations_0, groups = input_43_groups_0, pad = input_43_pad_0, pad_type = input_43_pad_type_0, strides = input_43_strides_0, weight = model_enc_df_conv1_0_weight_to_fp16, x = input_41_cast_fp16)[name = string("input_43_cast_fp16")];
            string input_45_pad_type_0 = const()[name = string("input_45_pad_type_0"), val = string("valid")];
            tensor<int32, [2]> input_45_strides_0 = const()[name = string("input_45_strides_0"), val = tensor<int32, [2]>([1, 1])];
            tensor<int32, [4]> input_45_pad_0 = const()[name = string("input_45_pad_0"), val = tensor<int32, [4]>([0, 0, 0, 0])];
            tensor<int32, [2]> input_45_dilations_0 = const()[name = string("input_45_dilations_0"), val = tensor<int32, [2]>([1, 1])];
            int32 input_45_groups_0 = const()[name = string("input_45_groups_0"), val = int32(1)];
            tensor<fp16, [64, 64, 1, 1]> const_26_to_fp16 = const()[name = string("const_26_to_fp16"), val = tensor<fp16, [64, 64, 1, 1]>(BLOBFILE(path = string("@model_path/weights/weight.bin"), offset = uint64(48832)))];
            tensor<fp16, [64]> const_27_to_fp16 = const()[name = string("const_27_to_fp16"), val = tensor<fp16, [64]>(BLOBFILE(path = string("@model_path/weights/weight.bin"), offset = uint64(57088)))];
            tensor<fp16, [1, 64, 1, 48]> input_47_cast_fp16 = conv(bias = const_27_to_fp16, dilations = input_45_dilations_0, groups = input_45_groups_0, pad = input_45_pad_0, pad_type = input_45_pad_type_0, strides = input_45_strides_0, weight = const_26_to_fp16, x = input_43_cast_fp16)[name = string("input_47_cast_fp16")];
            tensor<fp16, [1, 64, 1, 48]> c1_cast_fp16 = relu(x = input_47_cast_fp16)[name = string("c1_cast_fp16")];
            tensor<int32, [4]> var_279 = const()[name = string("op_279"), val = tensor<int32, [4]>([0, 2, 3, 1])];
            tensor<int32, [3]> var_286 = const()[name = string("op_286"), val = tensor<int32, [3]>([-1, 32, 96])];
            tensor<fp16, [1, 1, 48, 64]> var_280_cast_fp16 = transpose(perm = var_279, x = c1_cast_fp16)[name = string("transpose_15")];
            tensor<fp16, [1, 32, 96]> x_17_cast_fp16 = reshape(shape = var_286, x = var_280_cast_fp16)[name = string("x_17_cast_fp16")];
            tensor<int32, [1]> var_288_axes_0 = const()[name = string("op_288_axes_0"), val = tensor<int32, [1]>([-2])];
            tensor<fp16, [1, 32, 1, 96]> var_288_cast_fp16 = expand_dims(axes = var_288_axes_0, x = x_17_cast_fp16)[name = string("op_288_cast_fp16")];
            bool var_289_transpose_x_0 = const()[name = string("op_289_transpose_x_0"), val = bool(false)];
            bool var_289_transpose_y_0 = const()[name = string("op_289_transpose_y_0"), val = bool(false)];
            tensor<fp16, [32, 96, 16]> model_enc_df_fc_emb_0_weight_to_fp16 = const()[name = string("model_enc_df_fc_emb_0_weight_to_fp16"), val = tensor<fp16, [32, 96, 16]>(BLOBFILE(path = string("@model_path/weights/weight.bin"), offset = uint64(57280)))];
            tensor<fp16, [1, 32, 1, 16]> var_289_cast_fp16 = matmul(transpose_x = var_289_transpose_x_0, transpose_y = var_289_transpose_y_0, x = var_288_cast_fp16, y = model_enc_df_fc_emb_0_weight_to_fp16)[name = string("op_289_cast_fp16")];
            tensor<int32, [1]> x_19_axes_0 = const()[name = string("x_19_axes_0"), val = tensor<int32, [1]>([-2])];
            tensor<fp16, [1, 32, 16]> x_19_cast_fp16 = squeeze(axes = x_19_axes_0, x = var_289_cast_fp16)[name = string("x_19_cast_fp16")];
            tensor<int32, [2]> var_291 = const()[name = string("op_291"), val = tensor<int32, [2]>([1, 512])];
            tensor<fp16, [1, 512]> x_21_cast_fp16 = reshape(shape = var_291, x = x_19_cast_fp16)[name = string("x_21_cast_fp16")];
            tensor<fp16, [512]> model_enc_df_fc_emb_0_bias_to_fp16 = const()[name = string("model_enc_df_fc_emb_0_bias_to_fp16"), val = tensor<fp16, [512]>(BLOBFILE(path = string("@model_path/weights/weight.bin"), offset = uint64(155648)))];
            tensor<fp16, [1, 512]> input_49_cast_fp16 = add(x = x_21_cast_fp16, y = model_enc_df_fc_emb_0_bias_to_fp16)[name = string("input_49_cast_fp16")];
            tensor<fp16, [1, 512]> b_1_cast_fp16 = relu(x = input_49_cast_fp16)[name = string("b_1_cast_fp16")];
            tensor<int32, [4]> var_295 = const()[name = string("op_295"), val = tensor<int32, [4]>([0, 2, 3, 1])];
            tensor<int32, [2]> concat_1 = const()[name = string("concat_1"), val = tensor<int32, [2]>([1, 512])];
            tensor<fp16, [1, 1, 8, 64]> var_296_cast_fp16 = transpose(perm = var_295, x = e3_1_cast_fp16)[name = string("transpose_14")];
            tensor<fp16, [1, 512]> a_cast_fp16 = reshape(shape = concat_1, x = var_296_cast_fp16)[name = string("a_cast_fp16")];
            bool x_23_interleave_0 = const()[name = string("x_23_interleave_0"), val = bool(false)];
            tensor<fp16, [1, 1024]> x_23_cast_fp16 = concat(axis = var_42, interleave = x_23_interleave_0, values = (a_cast_fp16, b_1_cast_fp16))[name = string("x_23_cast_fp16")];
            tensor<int32, [3]> var_308 = const()[name = string("op_308"), val = tensor<int32, [3]>([-1, 16, 64])];
            tensor<fp16, [1, 16, 64]> x_25_cast_fp16 = reshape(shape = var_308, x = x_23_cast_fp16)[name = string("x_25_cast_fp16")];
            tensor<int32, [1]> var_310_axes_0 = const()[name = string("op_310_axes_0"), val = tensor<int32, [1]>([-2])];
            tensor<fp16, [1, 16, 1, 64]> var_310_cast_fp16 = expand_dims(axes = var_310_axes_0, x = x_25_cast_fp16)[name = string("op_310_cast_fp16")];
            bool var_311_transpose_x_0 = const()[name = string("op_311_transpose_x_0"), val = bool(false)];
            bool var_311_transpose_y_0 = const()[name = string("op_311_transpose_y_0"), val = bool(false)];
            tensor<fp16, [16, 64, 16]> model_enc_emb_gru_linear_in_0_weight_to_fp16 = const()[name = string("model_enc_emb_gru_linear_in_0_weight_to_fp16"), val = tensor<fp16, [16, 64, 16]>(BLOBFILE(path = string("@model_path/weights/weight.bin"), offset = uint64(156736)))];
            tensor<fp16, [1, 16, 1, 16]> var_311_cast_fp16 = matmul(transpose_x = var_311_transpose_x_0, transpose_y = var_311_transpose_y_0, x = var_310_cast_fp16, y = model_enc_emb_gru_linear_in_0_weight_to_fp16)[name = string("op_311_cast_fp16")];
            tensor<int32, [1]> x_27_axes_0 = const()[name = string("x_27_axes_0"), val = tensor<int32, [1]>([-2])];
            tensor<fp16, [1, 16, 16]> x_27_cast_fp16 = squeeze(axes = x_27_axes_0, x = var_311_cast_fp16)[name = string("x_27_cast_fp16")];
            tensor<int32, [2]> var_313 = const()[name = string("op_313"), val = tensor<int32, [2]>([1, 256])];
            tensor<fp16, [1, 256]> x_29_cast_fp16 = reshape(shape = var_313, x = x_27_cast_fp16)[name = string("x_29_cast_fp16")];
            tensor<fp16, [256]> model_enc_emb_gru_linear_in_0_bias_to_fp16 = const()[name = string("model_enc_emb_gru_linear_in_0_bias_to_fp16"), val = tensor<fp16, [256]>(BLOBFILE(path = string("@model_path/weights/weight.bin"), offset = uint64(189568)))];
            tensor<fp16, [1, 256]> input_51_cast_fp16 = add(x = x_29_cast_fp16, y = model_enc_emb_gru_linear_in_0_bias_to_fp16)[name = string("input_51_cast_fp16")];
            tensor<fp16, [1, 256]> x_31_cast_fp16 = relu(x = input_51_cast_fp16)[name = string("x_31_cast_fp16")];
            tensor<int32, [1]> h_flat_1_begin_0 = const()[name = string("h_flat_1_begin_0"), val = tensor<int32, [1]>([800])];
            tensor<int32, [1]> h_flat_1_end_0 = const()[name = string("h_flat_1_end_0"), val = tensor<int32, [1]>([1056])];
            tensor<bool, [1]> h_flat_1_end_mask_0 = const()[name = string("h_flat_1_end_mask_0"), val = tensor<bool, [1]>([false])];
            tensor<fp16, [256]> h_flat_1_cast_fp16 = slice_by_index(begin = h_flat_1_begin_0, end = h_flat_1_end_0, end_mask = h_flat_1_end_mask_0, x = state_in_to_fp16)[name = string("h_flat_1_cast_fp16")];
            tensor<int32, [2]> var_326 = const()[name = string("op_326"), val = tensor<int32, [2]>([1, 256])];
            tensor<fp16, [1, 256]> h_1_cast_fp16 = reshape(shape = var_326, x = h_flat_1_cast_fp16)[name = string("h_1_cast_fp16")];
            tensor<fp16, [768, 256]> model_enc_emb_gru_gru_0_grucell_weight_ih_to_fp16 = const()[name = string("model_enc_emb_gru_gru_0_grucell_weight_ih_to_fp16"), val = tensor<fp16, [768, 256]>(BLOBFILE(path = string("@model_path/weights/weight.bin"), offset = uint64(190144)))];
            tensor<fp16, [768]> model_enc_emb_gru_gru_0_grucell_bias_ih_to_fp16 = const()[name = string("model_enc_emb_gru_gru_0_grucell_bias_ih_to_fp16"), val = tensor<fp16, [768]>(BLOBFILE(path = string("@model_path/weights/weight.bin"), offset = uint64(583424)))];
            tensor<fp16, [1, 768]> linear_0_cast_fp16 = linear(bias = model_enc_emb_gru_gru_0_grucell_bias_ih_to_fp16, weight = model_enc_emb_gru_gru_0_grucell_weight_ih_to_fp16, x = x_31_cast_fp16)[name = string("linear_0_cast_fp16")];
            tensor<fp16, [768, 256]> model_enc_emb_gru_gru_0_grucell_weight_hh_to_fp16 = const()[name = string("model_enc_emb_gru_gru_0_grucell_weight_hh_to_fp16"), val = tensor<fp16, [768, 256]>(BLOBFILE(path = string("@model_path/weights/weight.bin"), offset = uint64(585024)))];
            tensor<fp16, [768]> model_enc_emb_gru_gru_0_grucell_bias_hh_to_fp16 = const()[name = string("model_enc_emb_gru_gru_0_grucell_bias_hh_to_fp16"), val = tensor<fp16, [768]>(BLOBFILE(path = string("@model_path/weights/weight.bin"), offset = uint64(978304)))];
            tensor<fp16, [1, 768]> linear_1_cast_fp16 = linear(bias = model_enc_emb_gru_gru_0_grucell_bias_hh_to_fp16, weight = model_enc_emb_gru_gru_0_grucell_weight_hh_to_fp16, x = h_1_cast_fp16)[name = string("linear_1_cast_fp16")];
            tensor<int32, [2]> var_330_begin_0 = const()[name = string("op_330_begin_0"), val = tensor<int32, [2]>([0, 0])];
            tensor<int32, [2]> var_330_end_0 = const()[name = string("op_330_end_0"), val = tensor<int32, [2]>([1, 256])];
            tensor<fp16, [1, 256]> var_330_cast_fp16 = slice_by_index(begin = var_330_begin_0, end = var_330_end_0, x = linear_0_cast_fp16)[name = string("op_330_cast_fp16")];
            tensor<int32, [2]> var_331_begin_0 = const()[name = string("op_331_begin_0"), val = tensor<int32, [2]>([0, 0])];
            tensor<int32, [2]> var_331_end_0 = const()[name = string("op_331_end_0"), val = tensor<int32, [2]>([1, 256])];
            tensor<fp16, [1, 256]> var_331_cast_fp16 = slice_by_index(begin = var_331_begin_0, end = var_331_end_0, x = linear_1_cast_fp16)[name = string("op_331_cast_fp16")];
            tensor<fp16, [1, 256]> var_332_cast_fp16 = add(x = var_330_cast_fp16, y = var_331_cast_fp16)[name = string("op_332_cast_fp16")];
            tensor<fp16, [1, 256]> r_1_cast_fp16 = sigmoid(x = var_332_cast_fp16)[name = string("r_1_cast_fp16")];
            tensor<int32, [2]> var_334_begin_0 = const()[name = string("op_334_begin_0"), val = tensor<int32, [2]>([0, 256])];
            tensor<int32, [2]> var_334_end_0 = const()[name = string("op_334_end_0"), val = tensor<int32, [2]>([1, 512])];
            tensor<fp16, [1, 256]> var_334_cast_fp16 = slice_by_index(begin = var_334_begin_0, end = var_334_end_0, x = linear_0_cast_fp16)[name = string("op_334_cast_fp16")];
            tensor<int32, [2]> var_335_begin_0 = const()[name = string("op_335_begin_0"), val = tensor<int32, [2]>([0, 256])];
            tensor<int32, [2]> var_335_end_0 = const()[name = string("op_335_end_0"), val = tensor<int32, [2]>([1, 512])];
            tensor<fp16, [1, 256]> var_335_cast_fp16 = slice_by_index(begin = var_335_begin_0, end = var_335_end_0, x = linear_1_cast_fp16)[name = string("op_335_cast_fp16")];
            tensor<fp16, [1, 256]> var_336_cast_fp16 = add(x = var_334_cast_fp16, y = var_335_cast_fp16)[name = string("op_336_cast_fp16")];
            tensor<fp16, [1, 256]> z_1_cast_fp16 = sigmoid(x = var_336_cast_fp16)[name = string("z_1_cast_fp16")];
            tensor<int32, [2]> var_338_begin_0 = const()[name = string("op_338_begin_0"), val = tensor<int32, [2]>([0, 512])];
            tensor<int32, [2]> var_338_end_0 = const()[name = string("op_338_end_0"), val = tensor<int32, [2]>([1, 768])];
            tensor<fp16, [1, 256]> var_338_cast_fp16 = slice_by_index(begin = var_338_begin_0, end = var_338_end_0, x = linear_0_cast_fp16)[name = string("op_338_cast_fp16")];
            tensor<int32, [2]> var_339_begin_0 = const()[name = string("op_339_begin_0"), val = tensor<int32, [2]>([0, 512])];
            tensor<int32, [2]> var_339_end_0 = const()[name = string("op_339_end_0"), val = tensor<int32, [2]>([1, 768])];
            tensor<fp16, [1, 256]> var_339_cast_fp16 = slice_by_index(begin = var_339_begin_0, end = var_339_end_0, x = linear_1_cast_fp16)[name = string("op_339_cast_fp16")];
            tensor<fp16, [1, 256]> var_340_cast_fp16 = mul(x = r_1_cast_fp16, y = var_339_cast_fp16)[name = string("op_340_cast_fp16")];
            tensor<fp16, [1, 256]> var_341_cast_fp16 = add(x = var_338_cast_fp16, y = var_340_cast_fp16)[name = string("op_341_cast_fp16")];
            tensor<fp16, [1, 256]> n_1_cast_fp16 = tanh(x = var_341_cast_fp16)[name = string("n_1_cast_fp16")];
            fp16 var_30_to_fp16 = const()[name = string("op_30_to_fp16"), val = fp16(0x1p+0)];
            tensor<fp16, [1, 256]> var_343_cast_fp16 = sub(x = var_30_to_fp16, y = z_1_cast_fp16)[name = string("op_343_cast_fp16")];
            tensor<fp16, [1, 256]> var_344_cast_fp16 = mul(x = var_343_cast_fp16, y = n_1_cast_fp16)[name = string("op_344_cast_fp16")];
            tensor<fp16, [1, 256]> var_345_cast_fp16 = mul(x = z_1_cast_fp16, y = h_1_cast_fp16)[name = string("op_345_cast_fp16")];
            tensor<fp16, [1, 256]> y_1_cast_fp16 = add(x = var_344_cast_fp16, y = var_345_cast_fp16)[name = string("y_1_cast_fp16")];
            tensor<int32, [1]> var_347 = const()[name = string("op_347"), val = tensor<int32, [1]>([-1])];
            tensor<fp16, [256]> gru_state_out_1_cast_fp16 = reshape(shape = var_347, x = y_1_cast_fp16)[name = string("gru_state_out_1_cast_fp16")];
            tensor<int32, [3]> var_356 = const()[name = string("op_356"), val = tensor<int32, [3]>([-1, 16, 16])];
            tensor<fp16, [1, 16, 16]> x_33_cast_fp16 = reshape(shape = var_356, x = y_1_cast_fp16)[name = string("x_33_cast_fp16")];
            tensor<int32, [1]> var_358_axes_0 = const()[name = string("op_358_axes_0"), val = tensor<int32, [1]>([-2])];
            tensor<fp16, [1, 16, 1, 16]> var_358_cast_fp16 = expand_dims(axes = var_358_axes_0, x = x_33_cast_fp16)[name = string("op_358_cast_fp16")];
            bool var_359_transpose_x_0 = const()[name = string("op_359_transpose_x_0"), val = bool(false)];
            bool var_359_transpose_y_0 = const()[name = string("op_359_transpose_y_0"), val = bool(false)];
            tensor<fp16, [16, 16, 32]> model_enc_emb_gru_linear_out_0_weight_to_fp16 = const()[name = string("model_enc_emb_gru_linear_out_0_weight_to_fp16"), val = tensor<fp16, [16, 16, 32]>(BLOBFILE(path = string("@model_path/weights/weight.bin"), offset = uint64(979904)))];
            tensor<fp16, [1, 16, 1, 32]> var_359_cast_fp16 = matmul(transpose_x = var_359_transpose_x_0, transpose_y = var_359_transpose_y_0, x = var_358_cast_fp16, y = model_enc_emb_gru_linear_out_0_weight_to_fp16)[name = string("op_359_cast_fp16")];
            tensor<int32, [1]> x_35_axes_0 = const()[name = string("x_35_axes_0"), val = tensor<int32, [1]>([-2])];
            tensor<fp16, [1, 16, 32]> x_35_cast_fp16 = squeeze(axes = x_35_axes_0, x = var_359_cast_fp16)[name = string("x_35_cast_fp16")];
            tensor<int32, [2]> var_361 = const()[name = string("op_361"), val = tensor<int32, [2]>([1, 512])];
            tensor<fp16, [1, 512]> x_37_cast_fp16 = reshape(shape = var_361, x = x_35_cast_fp16)[name = string("x_37_cast_fp16")];
            tensor<fp16, [512]> model_enc_emb_gru_linear_out_0_bias_to_fp16 = const()[name = string("model_enc_emb_gru_linear_out_0_bias_to_fp16"), val = tensor<fp16, [512]>(BLOBFILE(path = string("@model_path/weights/weight.bin"), offset = uint64(996352)))];
            tensor<fp16, [1, 512]> input_53_cast_fp16 = add(x = x_37_cast_fp16, y = model_enc_emb_gru_linear_out_0_bias_to_fp16)[name = string("input_53_cast_fp16")];
            tensor<fp16, [1, 512]> input_55_cast_fp16 = relu(x = input_53_cast_fp16)[name = string("input_55_cast_fp16")];
            bool emb_gru_state_out_interleave_0 = const()[name = string("emb_gru_state_out_interleave_0"), val = bool(false)];
            tensor<fp16, [256]> emb_gru_state_out_cast_fp16 = concat(axis = var_38, interleave = emb_gru_state_out_interleave_0, values = gru_state_out_1_cast_fp16)[name = string("emb_gru_state_out_cast_fp16")];
            bool enc_state_out_interleave_0 = const()[name = string("enc_state_out_interleave_0"), val = bool(false)];
            tensor<fp16, [928]> enc_state_out_cast_fp16 = concat(axis = var_38, interleave = enc_state_out_interleave_0, values = (erb_conv0_state_out_cast_fp16, df_conv0_state_out_cast_fp16, emb_gru_state_out_cast_fp16))[name = string("enc_state_out_cast_fp16")];
            tensor<int32, [3]> var_402 = const()[name = string("op_402"), val = tensor<int32, [3]>([-1, 16, 32])];
            tensor<fp16, [1, 16, 32]> x_39_cast_fp16 = reshape(shape = var_402, x = input_55_cast_fp16)[name = string("x_39_cast_fp16")];
            tensor<int32, [1]> var_404_axes_0 = const()[name = string("op_404_axes_0"), val = tensor<int32, [1]>([-2])];
            tensor<fp16, [1, 16, 1, 32]> var_404_cast_fp16 = expand_dims(axes = var_404_axes_0, x = x_39_cast_fp16)[name = string("op_404_cast_fp16")];
            bool var_405_transpose_x_0 = const()[name = string("op_405_transpose_x_0"), val = bool(false)];
            bool var_405_transpose_y_0 = const()[name = string("op_405_transpose_y_0"), val = bool(false)];
            tensor<fp16, [16, 32, 16]> model_erb_dec_emb_gru_linear_in_0_weight_to_fp16 = const()[name = string("model_erb_dec_emb_gru_linear_in_0_weight_to_fp16"), val = tensor<fp16, [16, 32, 16]>(BLOBFILE(path = string("@model_path/weights/weight.bin"), offset = uint64(997440)))];
            tensor<fp16, [1, 16, 1, 16]> var_405_cast_fp16 = matmul(transpose_x = var_405_transpose_x_0, transpose_y = var_405_transpose_y_0, x = var_404_cast_fp16, y = model_erb_dec_emb_gru_linear_in_0_weight_to_fp16)[name = string("op_405_cast_fp16")];
            tensor<int32, [1]> x_41_axes_0 = const()[name = string("x_41_axes_0"), val = tensor<int32, [1]>([-2])];
            tensor<fp16, [1, 16, 16]> x_41_cast_fp16 = squeeze(axes = x_41_axes_0, x = var_405_cast_fp16)[name = string("x_41_cast_fp16")];
            tensor<int32, [2]> var_407 = const()[name = string("op_407"), val = tensor<int32, [2]>([1, 256])];
            tensor<fp16, [1, 256]> x_43_cast_fp16 = reshape(shape = var_407, x = x_41_cast_fp16)[name = string("x_43_cast_fp16")];
            tensor<fp16, [256]> model_erb_dec_emb_gru_linear_in_0_bias_to_fp16 = const()[name = string("model_erb_dec_emb_gru_linear_in_0_bias_to_fp16"), val = tensor<fp16, [256]>(BLOBFILE(path = string("@model_path/weights/weight.bin"), offset = uint64(1013888)))];
            tensor<fp16, [1, 256]> input_59_cast_fp16 = add(x = x_43_cast_fp16, y = model_erb_dec_emb_gru_linear_in_0_bias_to_fp16)[name = string("input_59_cast_fp16")];
            tensor<fp16, [1, 256]> x_45_cast_fp16 = relu(x = input_59_cast_fp16)[name = string("x_45_cast_fp16")];
            tensor<int32, [1]> h_flat_3_begin_0 = const()[name = string("h_flat_3_begin_0"), val = tensor<int32, [1]>([1056])];
            tensor<int32, [1]> h_flat_3_end_0 = const()[name = string("h_flat_3_end_0"), val = tensor<int32, [1]>([1312])];
            tensor<bool, [1]> h_flat_3_end_mask_0 = const()[name = string("h_flat_3_end_mask_0"), val = tensor<bool, [1]>([false])];
            tensor<fp16, [256]> h_flat_3_cast_fp16 = slice_by_index(begin = h_flat_3_begin_0, end = h_flat_3_end_0, end_mask = h_flat_3_end_mask_0, x = state_in_to_fp16)[name = string("h_flat_3_cast_fp16")];
            tensor<int32, [2]> var_420 = const()[name = string("op_420"), val = tensor<int32, [2]>([1, 256])];
            tensor<fp16, [1, 256]> h_3_cast_fp16 = reshape(shape = var_420, x = h_flat_3_cast_fp16)[name = string("h_3_cast_fp16")];
            tensor<fp16, [768, 256]> model_erb_dec_emb_gru_gru_0_grucell_weight_ih_to_fp16 = const()[name = string("model_erb_dec_emb_gru_gru_0_grucell_weight_ih_to_fp16"), val = tensor<fp16, [768, 256]>(BLOBFILE(path = string("@model_path/weights/weight.bin"), offset = uint64(1014464)))];
            tensor<fp16, [768]> model_erb_dec_emb_gru_gru_0_grucell_bias_ih_to_fp16 = const()[name = string("model_erb_dec_emb_gru_gru_0_grucell_bias_ih_to_fp16"), val = tensor<fp16, [768]>(BLOBFILE(path = string("@model_path/weights/weight.bin"), offset = uint64(1407744)))];
            tensor<fp16, [1, 768]> linear_2_cast_fp16 = linear(bias = model_erb_dec_emb_gru_gru_0_grucell_bias_ih_to_fp16, weight = model_erb_dec_emb_gru_gru_0_grucell_weight_ih_to_fp16, x = x_45_cast_fp16)[name = string("linear_2_cast_fp16")];
            tensor<fp16, [768, 256]> model_erb_dec_emb_gru_gru_0_grucell_weight_hh_to_fp16 = const()[name = string("model_erb_dec_emb_gru_gru_0_grucell_weight_hh_to_fp16"), val = tensor<fp16, [768, 256]>(BLOBFILE(path = string("@model_path/weights/weight.bin"), offset = uint64(1409344)))];
            tensor<fp16, [768]> model_erb_dec_emb_gru_gru_0_grucell_bias_hh_to_fp16 = const()[name = string("model_erb_dec_emb_gru_gru_0_grucell_bias_hh_to_fp16"), val = tensor<fp16, [768]>(BLOBFILE(path = string("@model_path/weights/weight.bin"), offset = uint64(1802624)))];
            tensor<fp16, [1, 768]> linear_3_cast_fp16 = linear(bias = model_erb_dec_emb_gru_gru_0_grucell_bias_hh_to_fp16, weight = model_erb_dec_emb_gru_gru_0_grucell_weight_hh_to_fp16, x = h_3_cast_fp16)[name = string("linear_3_cast_fp16")];
            tensor<int32, [2]> var_424_begin_0 = const()[name = string("op_424_begin_0"), val = tensor<int32, [2]>([0, 0])];
            tensor<int32, [2]> var_424_end_0 = const()[name = string("op_424_end_0"), val = tensor<int32, [2]>([1, 256])];
            tensor<fp16, [1, 256]> var_424_cast_fp16 = slice_by_index(begin = var_424_begin_0, end = var_424_end_0, x = linear_2_cast_fp16)[name = string("op_424_cast_fp16")];
            tensor<int32, [2]> var_425_begin_0 = const()[name = string("op_425_begin_0"), val = tensor<int32, [2]>([0, 0])];
            tensor<int32, [2]> var_425_end_0 = const()[name = string("op_425_end_0"), val = tensor<int32, [2]>([1, 256])];
            tensor<fp16, [1, 256]> var_425_cast_fp16 = slice_by_index(begin = var_425_begin_0, end = var_425_end_0, x = linear_3_cast_fp16)[name = string("op_425_cast_fp16")];
            tensor<fp16, [1, 256]> var_426_cast_fp16 = add(x = var_424_cast_fp16, y = var_425_cast_fp16)[name = string("op_426_cast_fp16")];
            tensor<fp16, [1, 256]> r_3_cast_fp16 = sigmoid(x = var_426_cast_fp16)[name = string("r_3_cast_fp16")];
            tensor<int32, [2]> var_428_begin_0 = const()[name = string("op_428_begin_0"), val = tensor<int32, [2]>([0, 256])];
            tensor<int32, [2]> var_428_end_0 = const()[name = string("op_428_end_0"), val = tensor<int32, [2]>([1, 512])];
            tensor<fp16, [1, 256]> var_428_cast_fp16 = slice_by_index(begin = var_428_begin_0, end = var_428_end_0, x = linear_2_cast_fp16)[name = string("op_428_cast_fp16")];
            tensor<int32, [2]> var_429_begin_0 = const()[name = string("op_429_begin_0"), val = tensor<int32, [2]>([0, 256])];
            tensor<int32, [2]> var_429_end_0 = const()[name = string("op_429_end_0"), val = tensor<int32, [2]>([1, 512])];
            tensor<fp16, [1, 256]> var_429_cast_fp16 = slice_by_index(begin = var_429_begin_0, end = var_429_end_0, x = linear_3_cast_fp16)[name = string("op_429_cast_fp16")];
            tensor<fp16, [1, 256]> var_430_cast_fp16 = add(x = var_428_cast_fp16, y = var_429_cast_fp16)[name = string("op_430_cast_fp16")];
            tensor<fp16, [1, 256]> z_3_cast_fp16 = sigmoid(x = var_430_cast_fp16)[name = string("z_3_cast_fp16")];
            tensor<int32, [2]> var_432_begin_0 = const()[name = string("op_432_begin_0"), val = tensor<int32, [2]>([0, 512])];
            tensor<int32, [2]> var_432_end_0 = const()[name = string("op_432_end_0"), val = tensor<int32, [2]>([1, 768])];
            tensor<fp16, [1, 256]> var_432_cast_fp16 = slice_by_index(begin = var_432_begin_0, end = var_432_end_0, x = linear_2_cast_fp16)[name = string("op_432_cast_fp16")];
            tensor<int32, [2]> var_433_begin_0 = const()[name = string("op_433_begin_0"), val = tensor<int32, [2]>([0, 512])];
            tensor<int32, [2]> var_433_end_0 = const()[name = string("op_433_end_0"), val = tensor<int32, [2]>([1, 768])];
            tensor<fp16, [1, 256]> var_433_cast_fp16 = slice_by_index(begin = var_433_begin_0, end = var_433_end_0, x = linear_3_cast_fp16)[name = string("op_433_cast_fp16")];
            tensor<fp16, [1, 256]> var_434_cast_fp16 = mul(x = r_3_cast_fp16, y = var_433_cast_fp16)[name = string("op_434_cast_fp16")];
            tensor<fp16, [1, 256]> var_435_cast_fp16 = add(x = var_432_cast_fp16, y = var_434_cast_fp16)[name = string("op_435_cast_fp16")];
            tensor<fp16, [1, 256]> n_3_cast_fp16 = tanh(x = var_435_cast_fp16)[name = string("n_3_cast_fp16")];
            tensor<fp16, [1, 256]> var_437_cast_fp16 = sub(x = var_30_to_fp16, y = z_3_cast_fp16)[name = string("op_437_cast_fp16")];
            tensor<fp16, [1, 256]> var_438_cast_fp16 = mul(x = var_437_cast_fp16, y = n_3_cast_fp16)[name = string("op_438_cast_fp16")];
            tensor<fp16, [1, 256]> var_439_cast_fp16 = mul(x = z_3_cast_fp16, y = h_3_cast_fp16)[name = string("op_439_cast_fp16")];
            tensor<fp16, [1, 256]> y_3_cast_fp16 = add(x = var_438_cast_fp16, y = var_439_cast_fp16)[name = string("y_3_cast_fp16")];
            tensor<int32, [1]> var_441 = const()[name = string("op_441"), val = tensor<int32, [1]>([-1])];
            tensor<fp16, [256]> var_442_cast_fp16 = reshape(shape = var_441, x = y_3_cast_fp16)[name = string("op_442_cast_fp16")];
            tensor<int32, [1]> h_flat_5_begin_0 = const()[name = string("h_flat_5_begin_0"), val = tensor<int32, [1]>([1312])];
            tensor<int32, [1]> h_flat_5_end_0 = const()[name = string("h_flat_5_end_0"), val = tensor<int32, [1]>([1568])];
            tensor<bool, [1]> h_flat_5_end_mask_0 = const()[name = string("h_flat_5_end_mask_0"), val = tensor<bool, [1]>([false])];
            tensor<fp16, [256]> h_flat_5_cast_fp16 = slice_by_index(begin = h_flat_5_begin_0, end = h_flat_5_end_0, end_mask = h_flat_5_end_mask_0, x = state_in_to_fp16)[name = string("h_flat_5_cast_fp16")];
            tensor<int32, [2]> var_455 = const()[name = string("op_455"), val = tensor<int32, [2]>([1, 256])];
            tensor<fp16, [1, 256]> h_5_cast_fp16 = reshape(shape = var_455, x = h_flat_5_cast_fp16)[name = string("h_5_cast_fp16")];
            tensor<fp16, [768, 256]> model_erb_dec_emb_gru_gru_1_grucell_weight_ih_to_fp16 = const()[name = string("model_erb_dec_emb_gru_gru_1_grucell_weight_ih_to_fp16"), val = tensor<fp16, [768, 256]>(BLOBFILE(path = string("@model_path/weights/weight.bin"), offset = uint64(1804224)))];
            tensor<fp16, [768]> model_erb_dec_emb_gru_gru_1_grucell_bias_ih_to_fp16 = const()[name = string("model_erb_dec_emb_gru_gru_1_grucell_bias_ih_to_fp16"), val = tensor<fp16, [768]>(BLOBFILE(path = string("@model_path/weights/weight.bin"), offset = uint64(2197504)))];
            tensor<fp16, [1, 768]> linear_4_cast_fp16 = linear(bias = model_erb_dec_emb_gru_gru_1_grucell_bias_ih_to_fp16, weight = model_erb_dec_emb_gru_gru_1_grucell_weight_ih_to_fp16, x = y_3_cast_fp16)[name = string("linear_4_cast_fp16")];
            tensor<fp16, [768, 256]> model_erb_dec_emb_gru_gru_1_grucell_weight_hh_to_fp16 = const()[name = string("model_erb_dec_emb_gru_gru_1_grucell_weight_hh_to_fp16"), val = tensor<fp16, [768, 256]>(BLOBFILE(path = string("@model_path/weights/weight.bin"), offset = uint64(2199104)))];
            tensor<fp16, [768]> model_erb_dec_emb_gru_gru_1_grucell_bias_hh_to_fp16 = const()[name = string("model_erb_dec_emb_gru_gru_1_grucell_bias_hh_to_fp16"), val = tensor<fp16, [768]>(BLOBFILE(path = string("@model_path/weights/weight.bin"), offset = uint64(2592384)))];
            tensor<fp16, [1, 768]> linear_5_cast_fp16 = linear(bias = model_erb_dec_emb_gru_gru_1_grucell_bias_hh_to_fp16, weight = model_erb_dec_emb_gru_gru_1_grucell_weight_hh_to_fp16, x = h_5_cast_fp16)[name = string("linear_5_cast_fp16")];
            tensor<int32, [2]> var_459_begin_0 = const()[name = string("op_459_begin_0"), val = tensor<int32, [2]>([0, 0])];
            tensor<int32, [2]> var_459_end_0 = const()[name = string("op_459_end_0"), val = tensor<int32, [2]>([1, 256])];
            tensor<fp16, [1, 256]> var_459_cast_fp16 = slice_by_index(begin = var_459_begin_0, end = var_459_end_0, x = linear_4_cast_fp16)[name = string("op_459_cast_fp16")];
            tensor<int32, [2]> var_460_begin_0 = const()[name = string("op_460_begin_0"), val = tensor<int32, [2]>([0, 0])];
            tensor<int32, [2]> var_460_end_0 = const()[name = string("op_460_end_0"), val = tensor<int32, [2]>([1, 256])];
            tensor<fp16, [1, 256]> var_460_cast_fp16 = slice_by_index(begin = var_460_begin_0, end = var_460_end_0, x = linear_5_cast_fp16)[name = string("op_460_cast_fp16")];
            tensor<fp16, [1, 256]> var_461_cast_fp16 = add(x = var_459_cast_fp16, y = var_460_cast_fp16)[name = string("op_461_cast_fp16")];
            tensor<fp16, [1, 256]> r_5_cast_fp16 = sigmoid(x = var_461_cast_fp16)[name = string("r_5_cast_fp16")];
            tensor<int32, [2]> var_463_begin_0 = const()[name = string("op_463_begin_0"), val = tensor<int32, [2]>([0, 256])];
            tensor<int32, [2]> var_463_end_0 = const()[name = string("op_463_end_0"), val = tensor<int32, [2]>([1, 512])];
            tensor<fp16, [1, 256]> var_463_cast_fp16 = slice_by_index(begin = var_463_begin_0, end = var_463_end_0, x = linear_4_cast_fp16)[name = string("op_463_cast_fp16")];
            tensor<int32, [2]> var_464_begin_0 = const()[name = string("op_464_begin_0"), val = tensor<int32, [2]>([0, 256])];
            tensor<int32, [2]> var_464_end_0 = const()[name = string("op_464_end_0"), val = tensor<int32, [2]>([1, 512])];
            tensor<fp16, [1, 256]> var_464_cast_fp16 = slice_by_index(begin = var_464_begin_0, end = var_464_end_0, x = linear_5_cast_fp16)[name = string("op_464_cast_fp16")];
            tensor<fp16, [1, 256]> var_465_cast_fp16 = add(x = var_463_cast_fp16, y = var_464_cast_fp16)[name = string("op_465_cast_fp16")];
            tensor<fp16, [1, 256]> z_5_cast_fp16 = sigmoid(x = var_465_cast_fp16)[name = string("z_5_cast_fp16")];
            tensor<int32, [2]> var_467_begin_0 = const()[name = string("op_467_begin_0"), val = tensor<int32, [2]>([0, 512])];
            tensor<int32, [2]> var_467_end_0 = const()[name = string("op_467_end_0"), val = tensor<int32, [2]>([1, 768])];
            tensor<fp16, [1, 256]> var_467_cast_fp16 = slice_by_index(begin = var_467_begin_0, end = var_467_end_0, x = linear_4_cast_fp16)[name = string("op_467_cast_fp16")];
            tensor<int32, [2]> var_468_begin_0 = const()[name = string("op_468_begin_0"), val = tensor<int32, [2]>([0, 512])];
            tensor<int32, [2]> var_468_end_0 = const()[name = string("op_468_end_0"), val = tensor<int32, [2]>([1, 768])];
            tensor<fp16, [1, 256]> var_468_cast_fp16 = slice_by_index(begin = var_468_begin_0, end = var_468_end_0, x = linear_5_cast_fp16)[name = string("op_468_cast_fp16")];
            tensor<fp16, [1, 256]> var_469_cast_fp16 = mul(x = r_5_cast_fp16, y = var_468_cast_fp16)[name = string("op_469_cast_fp16")];
            tensor<fp16, [1, 256]> var_470_cast_fp16 = add(x = var_467_cast_fp16, y = var_469_cast_fp16)[name = string("op_470_cast_fp16")];
            tensor<fp16, [1, 256]> n_5_cast_fp16 = tanh(x = var_470_cast_fp16)[name = string("n_5_cast_fp16")];
            tensor<fp16, [1, 256]> var_472_cast_fp16 = sub(x = var_30_to_fp16, y = z_5_cast_fp16)[name = string("op_472_cast_fp16")];
            tensor<fp16, [1, 256]> var_473_cast_fp16 = mul(x = var_472_cast_fp16, y = n_5_cast_fp16)[name = string("op_473_cast_fp16")];
            tensor<fp16, [1, 256]> var_474_cast_fp16 = mul(x = z_5_cast_fp16, y = h_5_cast_fp16)[name = string("op_474_cast_fp16")];
            tensor<fp16, [1, 256]> y_5_cast_fp16 = add(x = var_473_cast_fp16, y = var_474_cast_fp16)[name = string("y_5_cast_fp16")];
            tensor<int32, [1]> var_476 = const()[name = string("op_476"), val = tensor<int32, [1]>([-1])];
            tensor<fp16, [256]> gru_state_out_3_cast_fp16 = reshape(shape = var_476, x = y_5_cast_fp16)[name = string("gru_state_out_3_cast_fp16")];
            tensor<int32, [3]> var_485 = const()[name = string("op_485"), val = tensor<int32, [3]>([-1, 16, 16])];
            tensor<fp16, [1, 16, 16]> x_47_cast_fp16 = reshape(shape = var_485, x = y_5_cast_fp16)[name = string("x_47_cast_fp16")];
            tensor<int32, [1]> var_487_axes_0 = const()[name = string("op_487_axes_0"), val = tensor<int32, [1]>([-2])];
            tensor<fp16, [1, 16, 1, 16]> var_487_cast_fp16 = expand_dims(axes = var_487_axes_0, x = x_47_cast_fp16)[name = string("op_487_cast_fp16")];
            bool var_488_transpose_x_0 = const()[name = string("op_488_transpose_x_0"), val = bool(false)];
            bool var_488_transpose_y_0 = const()[name = string("op_488_transpose_y_0"), val = bool(false)];
            tensor<fp16, [16, 16, 32]> model_erb_dec_emb_gru_linear_out_0_weight_to_fp16 = const()[name = string("model_erb_dec_emb_gru_linear_out_0_weight_to_fp16"), val = tensor<fp16, [16, 16, 32]>(BLOBFILE(path = string("@model_path/weights/weight.bin"), offset = uint64(2593984)))];
            tensor<fp16, [1, 16, 1, 32]> var_488_cast_fp16 = matmul(transpose_x = var_488_transpose_x_0, transpose_y = var_488_transpose_y_0, x = var_487_cast_fp16, y = model_erb_dec_emb_gru_linear_out_0_weight_to_fp16)[name = string("op_488_cast_fp16")];
            tensor<int32, [1]> x_49_axes_0 = const()[name = string("x_49_axes_0"), val = tensor<int32, [1]>([-2])];
            tensor<fp16, [1, 16, 32]> x_49_cast_fp16 = squeeze(axes = x_49_axes_0, x = var_488_cast_fp16)[name = string("x_49_cast_fp16")];
            tensor<int32, [2]> var_490 = const()[name = string("op_490"), val = tensor<int32, [2]>([1, 512])];
            tensor<fp16, [1, 512]> x_51_cast_fp16 = reshape(shape = var_490, x = x_49_cast_fp16)[name = string("x_51_cast_fp16")];
            tensor<fp16, [512]> model_erb_dec_emb_gru_linear_out_0_bias_to_fp16 = const()[name = string("model_erb_dec_emb_gru_linear_out_0_bias_to_fp16"), val = tensor<fp16, [512]>(BLOBFILE(path = string("@model_path/weights/weight.bin"), offset = uint64(2610432)))];
            tensor<fp16, [1, 512]> input_61_cast_fp16 = add(x = x_51_cast_fp16, y = model_erb_dec_emb_gru_linear_out_0_bias_to_fp16)[name = string("input_61_cast_fp16")];
            tensor<fp16, [1, 512]> emb_1_cast_fp16 = relu(x = input_61_cast_fp16)[name = string("emb_1_cast_fp16")];
            bool erb_dec_state_out_interleave_0 = const()[name = string("erb_dec_state_out_interleave_0"), val = bool(false)];
            tensor<fp16, [512]> erb_dec_state_out_cast_fp16 = concat(axis = var_38, interleave = erb_dec_state_out_interleave_0, values = (var_442_cast_fp16, gru_state_out_3_cast_fp16))[name = string("erb_dec_state_out_cast_fp16")];
            tensor<int32, [4]> var_499 = const()[name = string("op_499"), val = tensor<int32, [4]>([1, 1, 8, -1])];
            tensor<fp16, [1, 1, 8, 64]> var_500_cast_fp16 = reshape(shape = var_499, x = emb_1_cast_fp16)[name = string("op_500_cast_fp16")];
            tensor<int32, [4]> var_501 = const()[name = string("op_501"), val = tensor<int32, [4]>([0, 3, 1, 2])];
            string input_63_pad_type_0 = const()[name = string("input_63_pad_type_0"), val = string("valid")];
            int32 input_63_groups_0 = const()[name = string("input_63_groups_0"), val = int32(64)];
            tensor<int32, [2]> input_63_strides_0 = const()[name = string("input_63_strides_0"), val = tensor<int32, [2]>([1, 1])];
            tensor<int32, [4]> input_63_pad_0 = const()[name = string("input_63_pad_0"), val = tensor<int32, [4]>([0, 0, 0, 0])];
            tensor<int32, [2]> input_63_dilations_0 = const()[name = string("input_63_dilations_0"), val = tensor<int32, [2]>([1, 1])];
            tensor<fp16, [64, 1, 1, 1]> const_28_to_fp16 = const()[name = string("const_28_to_fp16"), val = tensor<fp16, [64, 1, 1, 1]>(BLOBFILE(path = string("@model_path/weights/weight.bin"), offset = uint64(2611520)))];
            tensor<fp16, [64]> const_29_to_fp16 = const()[name = string("const_29_to_fp16"), val = tensor<fp16, [64]>(BLOBFILE(path = string("@model_path/weights/weight.bin"), offset = uint64(2611712)))];
            tensor<fp16, [1, 64, 1, 8]> input_65_cast_fp16 = conv(bias = const_29_to_fp16, dilations = input_63_dilations_0, groups = input_63_groups_0, pad = input_63_pad_0, pad_type = input_63_pad_type_0, strides = input_63_strides_0, weight = const_28_to_fp16, x = e3_1_cast_fp16)[name = string("input_65_cast_fp16")];
            tensor<fp16, [1, 64, 1, 8]> var_516_cast_fp16 = relu(x = input_65_cast_fp16)[name = string("op_516_cast_fp16")];
            tensor<fp16, [1, 64, 1, 8]> emb_cast_fp16 = transpose(perm = var_501, x = var_500_cast_fp16)[name = string("transpose_13")];
            tensor<fp16, [1, 64, 1, 8]> input_67_cast_fp16 = add(x = var_516_cast_fp16, y = emb_cast_fp16)[name = string("input_67_cast_fp16")];
            string input_69_pad_type_0 = const()[name = string("input_69_pad_type_0"), val = string("custom")];
            tensor<int32, [4]> input_69_pad_0 = const()[name = string("input_69_pad_0"), val = tensor<int32, [4]>([0, 0, 1, 1])];
            int32 input_69_groups_0 = const()[name = string("input_69_groups_0"), val = int32(64)];
            tensor<int32, [2]> input_69_strides_0 = const()[name = string("input_69_strides_0"), val = tensor<int32, [2]>([1, 1])];
            tensor<int32, [2]> input_69_dilations_0 = const()[name = string("input_69_dilations_0"), val = tensor<int32, [2]>([1, 1])];
            tensor<fp16, [64, 1, 1, 3]> model_erb_dec_convt3_0_weight_to_fp16 = const()[name = string("model_erb_dec_convt3_0_weight_to_fp16"), val = tensor<fp16, [64, 1, 1, 3]>(BLOBFILE(path = string("@model_path/weights/weight.bin"), offset = uint64(2611904)))];
            tensor<fp16, [1, 64, 1, 8]> input_69_cast_fp16 = conv(dilations = input_69_dilations_0, groups = input_69_groups_0, pad = input_69_pad_0, pad_type = input_69_pad_type_0, strides = input_69_strides_0, weight = model_erb_dec_convt3_0_weight_to_fp16, x = input_67_cast_fp16)[name = string("input_69_cast_fp16")];
            string input_71_pad_type_0 = const()[name = string("input_71_pad_type_0"), val = string("valid")];
            tensor<int32, [2]> input_71_strides_0 = const()[name = string("input_71_strides_0"), val = tensor<int32, [2]>([1, 1])];
            tensor<int32, [4]> input_71_pad_0 = const()[name = string("input_71_pad_0"), val = tensor<int32, [4]>([0, 0, 0, 0])];
            tensor<int32, [2]> input_71_dilations_0 = const()[name = string("input_71_dilations_0"), val = tensor<int32, [2]>([1, 1])];
            int32 input_71_groups_0 = const()[name = string("input_71_groups_0"), val = int32(1)];
            tensor<fp16, [64, 64, 1, 1]> const_30_to_fp16 = const()[name = string("const_30_to_fp16"), val = tensor<fp16, [64, 64, 1, 1]>(BLOBFILE(path = string("@model_path/weights/weight.bin"), offset = uint64(2612352)))];
            tensor<fp16, [64]> const_31_to_fp16 = const()[name = string("const_31_to_fp16"), val = tensor<fp16, [64]>(BLOBFILE(path = string("@model_path/weights/weight.bin"), offset = uint64(2620608)))];
            tensor<fp16, [1, 64, 1, 8]> input_73_cast_fp16 = conv(bias = const_31_to_fp16, dilations = input_71_dilations_0, groups = input_71_groups_0, pad = input_71_pad_0, pad_type = input_71_pad_type_0, strides = input_71_strides_0, weight = const_30_to_fp16, x = input_69_cast_fp16)[name = string("input_73_cast_fp16")];
            tensor<fp16, [1, 64, 1, 8]> e3_cast_fp16 = relu(x = input_73_cast_fp16)[name = string("e3_cast_fp16")];
            string input_75_pad_type_0 = const()[name = string("input_75_pad_type_0"), val = string("valid")];
            int32 input_75_groups_0 = const()[name = string("input_75_groups_0"), val = int32(64)];
            tensor<int32, [2]> input_75_strides_0 = const()[name = string("input_75_strides_0"), val = tensor<int32, [2]>([1, 1])];
            tensor<int32, [4]> input_75_pad_0 = const()[name = string("input_75_pad_0"), val = tensor<int32, [4]>([0, 0, 0, 0])];
            tensor<int32, [2]> input_75_dilations_0 = const()[name = string("input_75_dilations_0"), val = tensor<int32, [2]>([1, 1])];
            tensor<fp16, [64, 1, 1, 1]> const_32_to_fp16 = const()[name = string("const_32_to_fp16"), val = tensor<fp16, [64, 1, 1, 1]>(BLOBFILE(path = string("@model_path/weights/weight.bin"), offset = uint64(2620800)))];
            tensor<fp16, [64]> const_33_to_fp16 = const()[name = string("const_33_to_fp16"), val = tensor<fp16, [64]>(BLOBFILE(path = string("@model_path/weights/weight.bin"), offset = uint64(2620992)))];
            tensor<fp16, [1, 64, 1, 8]> input_77_cast_fp16 = conv(bias = const_33_to_fp16, dilations = input_75_dilations_0, groups = input_75_groups_0, pad = input_75_pad_0, pad_type = input_75_pad_type_0, strides = input_75_strides_0, weight = const_32_to_fp16, x = input_23_cast_fp16)[name = string("input_77_cast_fp16")];
            tensor<fp16, [1, 64, 1, 8]> var_552_cast_fp16 = relu(x = input_77_cast_fp16)[name = string("op_552_cast_fp16")];
            tensor<fp16, [1, 64, 1, 8]> input_79_cast_fp16 = add(x = var_552_cast_fp16, y = e3_cast_fp16)[name = string("input_79_cast_fp16")];
            string var_566_pad_type_0 = const()[name = string("op_566_pad_type_0"), val = string("custom")];
            tensor<int32, [4]> var_566_pad_0 = const()[name = string("op_566_pad_0"), val = tensor<int32, [4]>([0, 0, 1, 1])];
            int32 var_566_groups_0 = const()[name = string("op_566_groups_0"), val = int32(64)];
            tensor<int32, [2]> var_566_strides_0 = const()[name = string("op_566_strides_0"), val = tensor<int32, [2]>([1, 1])];
            tensor<int32, [2]> var_566_dilations_0 = const()[name = string("op_566_dilations_0"), val = tensor<int32, [2]>([1, 1])];
            tensor<fp16, [64, 1, 1, 3]> model_erb_dec_convt2_0_convs_0_weight_to_fp16 = const()[name = string("model_erb_dec_convt2_0_convs_0_weight_to_fp16"), val = tensor<fp16, [64, 1, 1, 3]>(BLOBFILE(path = string("@model_path/weights/weight.bin"), offset = uint64(2621184)))];
            tensor<fp16, [1, 64, 1, 8]> var_566_cast_fp16 = conv(dilations = var_566_dilations_0, groups = var_566_groups_0, pad = var_566_pad_0, pad_type = var_566_pad_type_0, strides = var_566_strides_0, weight = model_erb_dec_convt2_0_convs_0_weight_to_fp16, x = input_79_cast_fp16)[name = string("op_566_cast_fp16")];
            string var_572_pad_type_0 = const()[name = string("op_572_pad_type_0"), val = string("custom")];
            tensor<int32, [4]> var_572_pad_0 = const()[name = string("op_572_pad_0"), val = tensor<int32, [4]>([0, 0, 1, 1])];
            int32 var_572_groups_0 = const()[name = string("op_572_groups_0"), val = int32(64)];
            tensor<int32, [2]> var_572_strides_0 = const()[name = string("op_572_strides_0"), val = tensor<int32, [2]>([1, 1])];
            tensor<int32, [2]> var_572_dilations_0 = const()[name = string("op_572_dilations_0"), val = tensor<int32, [2]>([1, 1])];
            tensor<fp16, [64, 1, 1, 3]> model_erb_dec_convt2_0_convs_1_weight_to_fp16 = const()[name = string("model_erb_dec_convt2_0_convs_1_weight_to_fp16"), val = tensor<fp16, [64, 1, 1, 3]>(BLOBFILE(path = string("@model_path/weights/weight.bin"), offset = uint64(2621632)))];
            tensor<fp16, [1, 64, 1, 8]> var_572_cast_fp16 = conv(dilations = var_572_dilations_0, groups = var_572_groups_0, pad = var_572_pad_0, pad_type = var_572_pad_type_0, strides = var_572_strides_0, weight = model_erb_dec_convt2_0_convs_1_weight_to_fp16, x = input_79_cast_fp16)[name = string("op_572_cast_fp16")];
            bool var_574_interleave_0 = const()[name = string("op_574_interleave_0"), val = bool(false)];
            tensor<fp16, [1, 128, 1, 8]> var_574_cast_fp16 = concat(axis = var_39, interleave = var_574_interleave_0, values = (var_566_cast_fp16, var_572_cast_fp16))[name = string("op_574_cast_fp16")];
            tensor<int32, [5]> concat_2 = const()[name = string("concat_2"), val = tensor<int32, [5]>([1, 2, 64, 1, 8])];
            tensor<fp16, [1, 2, 64, 1, 8]> out_1_cast_fp16 = reshape(shape = concat_2, x = var_574_cast_fp16)[name = string("out_1_cast_fp16")];
            tensor<int32, [5]> var_577 = const()[name = string("op_577"), val = tensor<int32, [5]>([0, 2, 3, 4, 1])];
            tensor<int32, [4]> concat_3 = const()[name = string("concat_3"), val = tensor<int32, [4]>([1, 64, 1, 16])];
            tensor<fp16, [1, 64, 1, 8, 2]> out_3_cast_fp16 = transpose(perm = var_577, x = out_1_cast_fp16)[name = string("transpose_12")];
            tensor<fp16, [1, 64, 1, 16]> input_81_cast_fp16 = reshape(shape = concat_3, x = out_3_cast_fp16)[name = string("input_81_cast_fp16")];
            string input_83_pad_type_0 = const()[name = string("input_83_pad_type_0"), val = string("valid")];
            tensor<int32, [2]> input_83_strides_0 = const()[name = string("input_83_strides_0"), val = tensor<int32, [2]>([1, 1])];
            tensor<int32, [4]> input_83_pad_0 = const()[name = string("input_83_pad_0"), val = tensor<int32, [4]>([0, 0, 0, 0])];
            tensor<int32, [2]> input_83_dilations_0 = const()[name = string("input_83_dilations_0"), val = tensor<int32, [2]>([1, 1])];
            int32 input_83_groups_0 = const()[name = string("input_83_groups_0"), val = int32(1)];
            tensor<fp16, [64, 64, 1, 1]> const_34_to_fp16 = const()[name = string("const_34_to_fp16"), val = tensor<fp16, [64, 64, 1, 1]>(BLOBFILE(path = string("@model_path/weights/weight.bin"), offset = uint64(2622080)))];
            tensor<fp16, [64]> const_35_to_fp16 = const()[name = string("const_35_to_fp16"), val = tensor<fp16, [64]>(BLOBFILE(path = string("@model_path/weights/weight.bin"), offset = uint64(2630336)))];
            tensor<fp16, [1, 64, 1, 16]> input_85_cast_fp16 = conv(bias = const_35_to_fp16, dilations = input_83_dilations_0, groups = input_83_groups_0, pad = input_83_pad_0, pad_type = input_83_pad_type_0, strides = input_83_strides_0, weight = const_34_to_fp16, x = input_81_cast_fp16)[name = string("input_85_cast_fp16")];
            tensor<fp16, [1, 64, 1, 16]> e2_cast_fp16 = relu(x = input_85_cast_fp16)[name = string("e2_cast_fp16")];
            string input_87_pad_type_0 = const()[name = string("input_87_pad_type_0"), val = string("valid")];
            int32 input_87_groups_0 = const()[name = string("input_87_groups_0"), val = int32(64)];
            tensor<int32, [2]> input_87_strides_0 = const()[name = string("input_87_strides_0"), val = tensor<int32, [2]>([1, 1])];
            tensor<int32, [4]> input_87_pad_0 = const()[name = string("input_87_pad_0"), val = tensor<int32, [4]>([0, 0, 0, 0])];
            tensor<int32, [2]> input_87_dilations_0 = const()[name = string("input_87_dilations_0"), val = tensor<int32, [2]>([1, 1])];
            tensor<fp16, [64, 1, 1, 1]> const_36_to_fp16 = const()[name = string("const_36_to_fp16"), val = tensor<fp16, [64, 1, 1, 1]>(BLOBFILE(path = string("@model_path/weights/weight.bin"), offset = uint64(2630528)))];
            tensor<fp16, [64]> const_37_to_fp16 = const()[name = string("const_37_to_fp16"), val = tensor<fp16, [64]>(BLOBFILE(path = string("@model_path/weights/weight.bin"), offset = uint64(2630720)))];
            tensor<fp16, [1, 64, 1, 16]> input_89_cast_fp16 = conv(bias = const_37_to_fp16, dilations = input_87_dilations_0, groups = input_87_groups_0, pad = input_87_pad_0, pad_type = input_87_pad_type_0, strides = input_87_strides_0, weight = const_36_to_fp16, x = input_15_cast_fp16)[name = string("input_89_cast_fp16")];
            tensor<fp16, [1, 64, 1, 16]> var_605_cast_fp16 = relu(x = input_89_cast_fp16)[name = string("op_605_cast_fp16")];
            tensor<fp16, [1, 64, 1, 16]> input_91_cast_fp16 = add(x = var_605_cast_fp16, y = e2_cast_fp16)[name = string("input_91_cast_fp16")];
            string var_619_pad_type_0 = const()[name = string("op_619_pad_type_0"), val = string("custom")];
            tensor<int32, [4]> var_619_pad_0 = const()[name = string("op_619_pad_0"), val = tensor<int32, [4]>([0, 0, 1, 1])];
            int32 var_619_groups_0 = const()[name = string("op_619_groups_0"), val = int32(64)];
            tensor<int32, [2]> var_619_strides_0 = const()[name = string("op_619_strides_0"), val = tensor<int32, [2]>([1, 1])];
            tensor<int32, [2]> var_619_dilations_0 = const()[name = string("op_619_dilations_0"), val = tensor<int32, [2]>([1, 1])];
            tensor<fp16, [64, 1, 1, 3]> model_erb_dec_convt1_0_convs_0_weight_to_fp16 = const()[name = string("model_erb_dec_convt1_0_convs_0_weight_to_fp16"), val = tensor<fp16, [64, 1, 1, 3]>(BLOBFILE(path = string("@model_path/weights/weight.bin"), offset = uint64(2630912)))];
            tensor<fp16, [1, 64, 1, 16]> var_619_cast_fp16 = conv(dilations = var_619_dilations_0, groups = var_619_groups_0, pad = var_619_pad_0, pad_type = var_619_pad_type_0, strides = var_619_strides_0, weight = model_erb_dec_convt1_0_convs_0_weight_to_fp16, x = input_91_cast_fp16)[name = string("op_619_cast_fp16")];
            string var_625_pad_type_0 = const()[name = string("op_625_pad_type_0"), val = string("custom")];
            tensor<int32, [4]> var_625_pad_0 = const()[name = string("op_625_pad_0"), val = tensor<int32, [4]>([0, 0, 1, 1])];
            int32 var_625_groups_0 = const()[name = string("op_625_groups_0"), val = int32(64)];
            tensor<int32, [2]> var_625_strides_0 = const()[name = string("op_625_strides_0"), val = tensor<int32, [2]>([1, 1])];
            tensor<int32, [2]> var_625_dilations_0 = const()[name = string("op_625_dilations_0"), val = tensor<int32, [2]>([1, 1])];
            tensor<fp16, [64, 1, 1, 3]> model_erb_dec_convt1_0_convs_1_weight_to_fp16 = const()[name = string("model_erb_dec_convt1_0_convs_1_weight_to_fp16"), val = tensor<fp16, [64, 1, 1, 3]>(BLOBFILE(path = string("@model_path/weights/weight.bin"), offset = uint64(2631360)))];
            tensor<fp16, [1, 64, 1, 16]> var_625_cast_fp16 = conv(dilations = var_625_dilations_0, groups = var_625_groups_0, pad = var_625_pad_0, pad_type = var_625_pad_type_0, strides = var_625_strides_0, weight = model_erb_dec_convt1_0_convs_1_weight_to_fp16, x = input_91_cast_fp16)[name = string("op_625_cast_fp16")];
            bool var_627_interleave_0 = const()[name = string("op_627_interleave_0"), val = bool(false)];
            tensor<fp16, [1, 128, 1, 16]> var_627_cast_fp16 = concat(axis = var_39, interleave = var_627_interleave_0, values = (var_619_cast_fp16, var_625_cast_fp16))[name = string("op_627_cast_fp16")];
            tensor<int32, [5]> concat_4 = const()[name = string("concat_4"), val = tensor<int32, [5]>([1, 2, 64, 1, 16])];
            tensor<fp16, [1, 2, 64, 1, 16]> out_5_cast_fp16 = reshape(shape = concat_4, x = var_627_cast_fp16)[name = string("out_5_cast_fp16")];
            tensor<int32, [5]> var_630 = const()[name = string("op_630"), val = tensor<int32, [5]>([0, 2, 3, 4, 1])];
            tensor<int32, [4]> concat_5 = const()[name = string("concat_5"), val = tensor<int32, [4]>([1, 64, 1, 32])];
            tensor<fp16, [1, 64, 1, 16, 2]> out_cast_fp16 = transpose(perm = var_630, x = out_5_cast_fp16)[name = string("transpose_11")];
            tensor<fp16, [1, 64, 1, 32]> input_93_cast_fp16 = reshape(shape = concat_5, x = out_cast_fp16)[name = string("input_93_cast_fp16")];
            string input_95_pad_type_0 = const()[name = string("input_95_pad_type_0"), val = string("valid")];
            tensor<int32, [2]> input_95_strides_0 = const()[name = string("input_95_strides_0"), val = tensor<int32, [2]>([1, 1])];
            tensor<int32, [4]> input_95_pad_0 = const()[name = string("input_95_pad_0"), val = tensor<int32, [4]>([0, 0, 0, 0])];
            tensor<int32, [2]> input_95_dilations_0 = const()[name = string("input_95_dilations_0"), val = tensor<int32, [2]>([1, 1])];
            int32 input_95_groups_0 = const()[name = string("input_95_groups_0"), val = int32(1)];
            tensor<fp16, [64, 64, 1, 1]> const_38_to_fp16 = const()[name = string("const_38_to_fp16"), val = tensor<fp16, [64, 64, 1, 1]>(BLOBFILE(path = string("@model_path/weights/weight.bin"), offset = uint64(2631808)))];
            tensor<fp16, [64]> const_39_to_fp16 = const()[name = string("const_39_to_fp16"), val = tensor<fp16, [64]>(BLOBFILE(path = string("@model_path/weights/weight.bin"), offset = uint64(2640064)))];
            tensor<fp16, [1, 64, 1, 32]> input_97_cast_fp16 = conv(bias = const_39_to_fp16, dilations = input_95_dilations_0, groups = input_95_groups_0, pad = input_95_pad_0, pad_type = input_95_pad_type_0, strides = input_95_strides_0, weight = const_38_to_fp16, x = input_93_cast_fp16)[name = string("input_97_cast_fp16")];
            tensor<fp16, [1, 64, 1, 32]> e1_cast_fp16 = relu(x = input_97_cast_fp16)[name = string("e1_cast_fp16")];
            string input_99_pad_type_0 = const()[name = string("input_99_pad_type_0"), val = string("valid")];
            int32 input_99_groups_0 = const()[name = string("input_99_groups_0"), val = int32(64)];
            tensor<int32, [2]> input_99_strides_0 = const()[name = string("input_99_strides_0"), val = tensor<int32, [2]>([1, 1])];
            tensor<int32, [4]> input_99_pad_0 = const()[name = string("input_99_pad_0"), val = tensor<int32, [4]>([0, 0, 0, 0])];
            tensor<int32, [2]> input_99_dilations_0 = const()[name = string("input_99_dilations_0"), val = tensor<int32, [2]>([1, 1])];
            tensor<fp16, [64, 1, 1, 1]> const_40_to_fp16 = const()[name = string("const_40_to_fp16"), val = tensor<fp16, [64, 1, 1, 1]>(BLOBFILE(path = string("@model_path/weights/weight.bin"), offset = uint64(2640256)))];
            tensor<fp16, [64]> const_41_to_fp16 = const()[name = string("const_41_to_fp16"), val = tensor<fp16, [64]>(BLOBFILE(path = string("@model_path/weights/weight.bin"), offset = uint64(2640448)))];
            tensor<fp16, [1, 64, 1, 32]> input_101_cast_fp16 = conv(bias = const_41_to_fp16, dilations = input_99_dilations_0, groups = input_99_groups_0, pad = input_99_pad_0, pad_type = input_99_pad_type_0, strides = input_99_strides_0, weight = const_40_to_fp16, x = input_7_cast_fp16)[name = string("input_101_cast_fp16")];
            tensor<fp16, [1, 64, 1, 32]> var_658_cast_fp16 = relu(x = input_101_cast_fp16)[name = string("op_658_cast_fp16")];
            tensor<fp16, [1, 64, 1, 32]> input_103_cast_fp16 = add(x = var_658_cast_fp16, y = e1_cast_fp16)[name = string("input_103_cast_fp16")];
            string input_105_pad_type_0 = const()[name = string("input_105_pad_type_0"), val = string("custom")];
            tensor<int32, [4]> input_105_pad_0 = const()[name = string("input_105_pad_0"), val = tensor<int32, [4]>([0, 0, 1, 1])];
            tensor<int32, [2]> input_105_strides_0 = const()[name = string("input_105_strides_0"), val = tensor<int32, [2]>([1, 1])];
            tensor<int32, [2]> input_105_dilations_0 = const()[name = string("input_105_dilations_0"), val = tensor<int32, [2]>([1, 1])];
            int32 input_105_groups_0 = const()[name = string("input_105_groups_0"), val = int32(1)];
            tensor<fp16, [1, 64, 1, 3]> const_42_to_fp16 = const()[name = string("const_42_to_fp16"), val = tensor<fp16, [1, 64, 1, 3]>(BLOBFILE(path = string("@model_path/weights/weight.bin"), offset = uint64(2640640)))];
            tensor<fp16, [1]> const_43_to_fp16 = const()[name = string("const_43_to_fp16"), val = tensor<fp16, [1]>([-0x1.2a4p-3])];
            tensor<fp16, [1, 1, 1, 32]> input_107_cast_fp16 = conv(bias = const_43_to_fp16, dilations = input_105_dilations_0, groups = input_105_groups_0, pad = input_105_pad_0, pad_type = input_105_pad_type_0, strides = input_105_strides_0, weight = const_42_to_fp16, x = input_103_cast_fp16)[name = string("input_107_cast_fp16")];
            tensor<fp16, [1, 1, 1, 32]> mask_1_cast_fp16 = sigmoid(x = input_107_cast_fp16)[name = string("mask_1_cast_fp16")];
            tensor<int32, [3]> var_691 = const()[name = string("op_691"), val = tensor<int32, [3]>([-1, 8, 64])];
            tensor<fp16, [1, 8, 64]> x_53_cast_fp16 = reshape(shape = var_691, x = input_55_cast_fp16)[name = string("x_53_cast_fp16")];
            tensor<int32, [1]> var_693_axes_0 = const()[name = string("op_693_axes_0"), val = tensor<int32, [1]>([-2])];
            tensor<fp16, [1, 8, 1, 64]> var_693_cast_fp16 = expand_dims(axes = var_693_axes_0, x = x_53_cast_fp16)[name = string("op_693_cast_fp16")];
            bool var_694_transpose_x_0 = const()[name = string("op_694_transpose_x_0"), val = bool(false)];
            bool var_694_transpose_y_0 = const()[name = string("op_694_transpose_y_0"), val = bool(false)];
            tensor<fp16, [8, 64, 32]> model_df_dec_df_gru_linear_in_0_weight_to_fp16 = const()[name = string("model_df_dec_df_gru_linear_in_0_weight_to_fp16"), val = tensor<fp16, [8, 64, 32]>(BLOBFILE(path = string("@model_path/weights/weight.bin"), offset = uint64(2641088)))];
            tensor<fp16, [1, 8, 1, 32]> var_694_cast_fp16 = matmul(transpose_x = var_694_transpose_x_0, transpose_y = var_694_transpose_y_0, x = var_693_cast_fp16, y = model_df_dec_df_gru_linear_in_0_weight_to_fp16)[name = string("op_694_cast_fp16")];
            tensor<int32, [1]> x_55_axes_0 = const()[name = string("x_55_axes_0"), val = tensor<int32, [1]>([-2])];
            tensor<fp16, [1, 8, 32]> x_55_cast_fp16 = squeeze(axes = x_55_axes_0, x = var_694_cast_fp16)[name = string("x_55_cast_fp16")];
            tensor<int32, [2]> var_696 = const()[name = string("op_696"), val = tensor<int32, [2]>([1, 256])];
            tensor<fp16, [1, 256]> x_57_cast_fp16 = reshape(shape = var_696, x = x_55_cast_fp16)[name = string("x_57_cast_fp16")];
            tensor<fp16, [256]> model_df_dec_df_gru_linear_in_0_bias_to_fp16 = const()[name = string("model_df_dec_df_gru_linear_in_0_bias_to_fp16"), val = tensor<fp16, [256]>(BLOBFILE(path = string("@model_path/weights/weight.bin"), offset = uint64(2673920)))];
            tensor<fp16, [1, 256]> input_109_cast_fp16 = add(x = x_57_cast_fp16, y = model_df_dec_df_gru_linear_in_0_bias_to_fp16)[name = string("input_109_cast_fp16")];
            tensor<fp16, [1, 256]> x_59_cast_fp16 = relu(x = input_109_cast_fp16)[name = string("x_59_cast_fp16")];
            tensor<int32, [1]> h_flat_7_begin_0 = const()[name = string("h_flat_7_begin_0"), val = tensor<int32, [1]>([1568])];
            tensor<int32, [1]> h_flat_7_end_0 = const()[name = string("h_flat_7_end_0"), val = tensor<int32, [1]>([1824])];
            tensor<bool, [1]> h_flat_7_end_mask_0 = const()[name = string("h_flat_7_end_mask_0"), val = tensor<bool, [1]>([false])];
            tensor<fp16, [256]> h_flat_7_cast_fp16 = slice_by_index(begin = h_flat_7_begin_0, end = h_flat_7_end_0, end_mask = h_flat_7_end_mask_0, x = state_in_to_fp16)[name = string("h_flat_7_cast_fp16")];
            tensor<int32, [2]> var_709 = const()[name = string("op_709"), val = tensor<int32, [2]>([1, 256])];
            tensor<fp16, [1, 256]> h_7_cast_fp16 = reshape(shape = var_709, x = h_flat_7_cast_fp16)[name = string("h_7_cast_fp16")];
            tensor<fp16, [768, 256]> model_df_dec_df_gru_gru_0_grucell_weight_ih_to_fp16 = const()[name = string("model_df_dec_df_gru_gru_0_grucell_weight_ih_to_fp16"), val = tensor<fp16, [768, 256]>(BLOBFILE(path = string("@model_path/weights/weight.bin"), offset = uint64(2674496)))];
            tensor<fp16, [768]> model_df_dec_df_gru_gru_0_grucell_bias_ih_to_fp16 = const()[name = string("model_df_dec_df_gru_gru_0_grucell_bias_ih_to_fp16"), val = tensor<fp16, [768]>(BLOBFILE(path = string("@model_path/weights/weight.bin"), offset = uint64(3067776)))];
            tensor<fp16, [1, 768]> linear_6_cast_fp16 = linear(bias = model_df_dec_df_gru_gru_0_grucell_bias_ih_to_fp16, weight = model_df_dec_df_gru_gru_0_grucell_weight_ih_to_fp16, x = x_59_cast_fp16)[name = string("linear_6_cast_fp16")];
            tensor<fp16, [768, 256]> model_df_dec_df_gru_gru_0_grucell_weight_hh_to_fp16 = const()[name = string("model_df_dec_df_gru_gru_0_grucell_weight_hh_to_fp16"), val = tensor<fp16, [768, 256]>(BLOBFILE(path = string("@model_path/weights/weight.bin"), offset = uint64(3069376)))];
            tensor<fp16, [768]> model_df_dec_df_gru_gru_0_grucell_bias_hh_to_fp16 = const()[name = string("model_df_dec_df_gru_gru_0_grucell_bias_hh_to_fp16"), val = tensor<fp16, [768]>(BLOBFILE(path = string("@model_path/weights/weight.bin"), offset = uint64(3462656)))];
            tensor<fp16, [1, 768]> linear_7_cast_fp16 = linear(bias = model_df_dec_df_gru_gru_0_grucell_bias_hh_to_fp16, weight = model_df_dec_df_gru_gru_0_grucell_weight_hh_to_fp16, x = h_7_cast_fp16)[name = string("linear_7_cast_fp16")];
            tensor<int32, [2]> var_713_begin_0 = const()[name = string("op_713_begin_0"), val = tensor<int32, [2]>([0, 0])];
            tensor<int32, [2]> var_713_end_0 = const()[name = string("op_713_end_0"), val = tensor<int32, [2]>([1, 256])];
            tensor<fp16, [1, 256]> var_713_cast_fp16 = slice_by_index(begin = var_713_begin_0, end = var_713_end_0, x = linear_6_cast_fp16)[name = string("op_713_cast_fp16")];
            tensor<int32, [2]> var_714_begin_0 = const()[name = string("op_714_begin_0"), val = tensor<int32, [2]>([0, 0])];
            tensor<int32, [2]> var_714_end_0 = const()[name = string("op_714_end_0"), val = tensor<int32, [2]>([1, 256])];
            tensor<fp16, [1, 256]> var_714_cast_fp16 = slice_by_index(begin = var_714_begin_0, end = var_714_end_0, x = linear_7_cast_fp16)[name = string("op_714_cast_fp16")];
            tensor<fp16, [1, 256]> var_715_cast_fp16 = add(x = var_713_cast_fp16, y = var_714_cast_fp16)[name = string("op_715_cast_fp16")];
            tensor<fp16, [1, 256]> r_7_cast_fp16 = sigmoid(x = var_715_cast_fp16)[name = string("r_7_cast_fp16")];
            tensor<int32, [2]> var_717_begin_0 = const()[name = string("op_717_begin_0"), val = tensor<int32, [2]>([0, 256])];
            tensor<int32, [2]> var_717_end_0 = const()[name = string("op_717_end_0"), val = tensor<int32, [2]>([1, 512])];
            tensor<fp16, [1, 256]> var_717_cast_fp16 = slice_by_index(begin = var_717_begin_0, end = var_717_end_0, x = linear_6_cast_fp16)[name = string("op_717_cast_fp16")];
            tensor<int32, [2]> var_718_begin_0 = const()[name = string("op_718_begin_0"), val = tensor<int32, [2]>([0, 256])];
            tensor<int32, [2]> var_718_end_0 = const()[name = string("op_718_end_0"), val = tensor<int32, [2]>([1, 512])];
            tensor<fp16, [1, 256]> var_718_cast_fp16 = slice_by_index(begin = var_718_begin_0, end = var_718_end_0, x = linear_7_cast_fp16)[name = string("op_718_cast_fp16")];
            tensor<fp16, [1, 256]> var_719_cast_fp16 = add(x = var_717_cast_fp16, y = var_718_cast_fp16)[name = string("op_719_cast_fp16")];
            tensor<fp16, [1, 256]> z_7_cast_fp16 = sigmoid(x = var_719_cast_fp16)[name = string("z_7_cast_fp16")];
            tensor<int32, [2]> var_721_begin_0 = const()[name = string("op_721_begin_0"), val = tensor<int32, [2]>([0, 512])];
            tensor<int32, [2]> var_721_end_0 = const()[name = string("op_721_end_0"), val = tensor<int32, [2]>([1, 768])];
            tensor<fp16, [1, 256]> var_721_cast_fp16 = slice_by_index(begin = var_721_begin_0, end = var_721_end_0, x = linear_6_cast_fp16)[name = string("op_721_cast_fp16")];
            tensor<int32, [2]> var_722_begin_0 = const()[name = string("op_722_begin_0"), val = tensor<int32, [2]>([0, 512])];
            tensor<int32, [2]> var_722_end_0 = const()[name = string("op_722_end_0"), val = tensor<int32, [2]>([1, 768])];
            tensor<fp16, [1, 256]> var_722_cast_fp16 = slice_by_index(begin = var_722_begin_0, end = var_722_end_0, x = linear_7_cast_fp16)[name = string("op_722_cast_fp16")];
            tensor<fp16, [1, 256]> var_723_cast_fp16 = mul(x = r_7_cast_fp16, y = var_722_cast_fp16)[name = string("op_723_cast_fp16")];
            tensor<fp16, [1, 256]> var_724_cast_fp16 = add(x = var_721_cast_fp16, y = var_723_cast_fp16)[name = string("op_724_cast_fp16")];
            tensor<fp16, [1, 256]> n_7_cast_fp16 = tanh(x = var_724_cast_fp16)[name = string("n_7_cast_fp16")];
            tensor<fp16, [1, 256]> var_726_cast_fp16 = sub(x = var_30_to_fp16, y = z_7_cast_fp16)[name = string("op_726_cast_fp16")];
            tensor<fp16, [1, 256]> var_727_cast_fp16 = mul(x = var_726_cast_fp16, y = n_7_cast_fp16)[name = string("op_727_cast_fp16")];
            tensor<fp16, [1, 256]> var_728_cast_fp16 = mul(x = z_7_cast_fp16, y = h_7_cast_fp16)[name = string("op_728_cast_fp16")];
            tensor<fp16, [1, 256]> y_7_cast_fp16 = add(x = var_727_cast_fp16, y = var_728_cast_fp16)[name = string("y_7_cast_fp16")];
            tensor<int32, [1]> var_730 = const()[name = string("op_730"), val = tensor<int32, [1]>([-1])];
            tensor<fp16, [256]> var_731_cast_fp16 = reshape(shape = var_730, x = y_7_cast_fp16)[name = string("op_731_cast_fp16")];
            tensor<int32, [1]> h_flat_begin_0 = const()[name = string("h_flat_begin_0"), val = tensor<int32, [1]>([1824])];
            tensor<int32, [1]> h_flat_end_0 = const()[name = string("h_flat_end_0"), val = tensor<int32, [1]>([2080])];
            tensor<bool, [1]> h_flat_end_mask_0 = const()[name = string("h_flat_end_mask_0"), val = tensor<bool, [1]>([false])];
            tensor<fp16, [256]> h_flat_cast_fp16 = slice_by_index(begin = h_flat_begin_0, end = h_flat_end_0, end_mask = h_flat_end_mask_0, x = state_in_to_fp16)[name = string("h_flat_cast_fp16")];
            tensor<int32, [2]> var_744 = const()[name = string("op_744"), val = tensor<int32, [2]>([1, 256])];
            tensor<fp16, [1, 256]> h_cast_fp16 = reshape(shape = var_744, x = h_flat_cast_fp16)[name = string("h_cast_fp16")];
            tensor<fp16, [768, 256]> model_df_dec_df_gru_gru_1_grucell_weight_ih_to_fp16 = const()[name = string("model_df_dec_df_gru_gru_1_grucell_weight_ih_to_fp16"), val = tensor<fp16, [768, 256]>(BLOBFILE(path = string("@model_path/weights/weight.bin"), offset = uint64(3464256)))];
            tensor<fp16, [768]> model_df_dec_df_gru_gru_1_grucell_bias_ih_to_fp16 = const()[name = string("model_df_dec_df_gru_gru_1_grucell_bias_ih_to_fp16"), val = tensor<fp16, [768]>(BLOBFILE(path = string("@model_path/weights/weight.bin"), offset = uint64(3857536)))];
            tensor<fp16, [1, 768]> linear_8_cast_fp16 = linear(bias = model_df_dec_df_gru_gru_1_grucell_bias_ih_to_fp16, weight = model_df_dec_df_gru_gru_1_grucell_weight_ih_to_fp16, x = y_7_cast_fp16)[name = string("linear_8_cast_fp16")];
            tensor<fp16, [768, 256]> model_df_dec_df_gru_gru_1_grucell_weight_hh_to_fp16 = const()[name = string("model_df_dec_df_gru_gru_1_grucell_weight_hh_to_fp16"), val = tensor<fp16, [768, 256]>(BLOBFILE(path = string("@model_path/weights/weight.bin"), offset = uint64(3859136)))];
            tensor<fp16, [768]> model_df_dec_df_gru_gru_1_grucell_bias_hh_to_fp16 = const()[name = string("model_df_dec_df_gru_gru_1_grucell_bias_hh_to_fp16"), val = tensor<fp16, [768]>(BLOBFILE(path = string("@model_path/weights/weight.bin"), offset = uint64(4252416)))];
            tensor<fp16, [1, 768]> linear_9_cast_fp16 = linear(bias = model_df_dec_df_gru_gru_1_grucell_bias_hh_to_fp16, weight = model_df_dec_df_gru_gru_1_grucell_weight_hh_to_fp16, x = h_cast_fp16)[name = string("linear_9_cast_fp16")];
            tensor<int32, [2]> var_748_begin_0 = const()[name = string("op_748_begin_0"), val = tensor<int32, [2]>([0, 0])];
            tensor<int32, [2]> var_748_end_0 = const()[name = string("op_748_end_0"), val = tensor<int32, [2]>([1, 256])];
            tensor<fp16, [1, 256]> var_748_cast_fp16 = slice_by_index(begin = var_748_begin_0, end = var_748_end_0, x = linear_8_cast_fp16)[name = string("op_748_cast_fp16")];
            tensor<int32, [2]> var_749_begin_0 = const()[name = string("op_749_begin_0"), val = tensor<int32, [2]>([0, 0])];
            tensor<int32, [2]> var_749_end_0 = const()[name = string("op_749_end_0"), val = tensor<int32, [2]>([1, 256])];
            tensor<fp16, [1, 256]> var_749_cast_fp16 = slice_by_index(begin = var_749_begin_0, end = var_749_end_0, x = linear_9_cast_fp16)[name = string("op_749_cast_fp16")];
            tensor<fp16, [1, 256]> var_750_cast_fp16 = add(x = var_748_cast_fp16, y = var_749_cast_fp16)[name = string("op_750_cast_fp16")];
            tensor<fp16, [1, 256]> r_cast_fp16 = sigmoid(x = var_750_cast_fp16)[name = string("r_cast_fp16")];
            tensor<int32, [2]> var_752_begin_0 = const()[name = string("op_752_begin_0"), val = tensor<int32, [2]>([0, 256])];
            tensor<int32, [2]> var_752_end_0 = const()[name = string("op_752_end_0"), val = tensor<int32, [2]>([1, 512])];
            tensor<fp16, [1, 256]> var_752_cast_fp16 = slice_by_index(begin = var_752_begin_0, end = var_752_end_0, x = linear_8_cast_fp16)[name = string("op_752_cast_fp16")];
            tensor<int32, [2]> var_753_begin_0 = const()[name = string("op_753_begin_0"), val = tensor<int32, [2]>([0, 256])];
            tensor<int32, [2]> var_753_end_0 = const()[name = string("op_753_end_0"), val = tensor<int32, [2]>([1, 512])];
            tensor<fp16, [1, 256]> var_753_cast_fp16 = slice_by_index(begin = var_753_begin_0, end = var_753_end_0, x = linear_9_cast_fp16)[name = string("op_753_cast_fp16")];
            tensor<fp16, [1, 256]> var_754_cast_fp16 = add(x = var_752_cast_fp16, y = var_753_cast_fp16)[name = string("op_754_cast_fp16")];
            tensor<fp16, [1, 256]> z_cast_fp16 = sigmoid(x = var_754_cast_fp16)[name = string("z_cast_fp16")];
            tensor<int32, [2]> var_756_begin_0 = const()[name = string("op_756_begin_0"), val = tensor<int32, [2]>([0, 512])];
            tensor<int32, [2]> var_756_end_0 = const()[name = string("op_756_end_0"), val = tensor<int32, [2]>([1, 768])];
            tensor<fp16, [1, 256]> var_756_cast_fp16 = slice_by_index(begin = var_756_begin_0, end = var_756_end_0, x = linear_8_cast_fp16)[name = string("op_756_cast_fp16")];
            tensor<int32, [2]> var_757_begin_0 = const()[name = string("op_757_begin_0"), val = tensor<int32, [2]>([0, 512])];
            tensor<int32, [2]> var_757_end_0 = const()[name = string("op_757_end_0"), val = tensor<int32, [2]>([1, 768])];
            tensor<fp16, [1, 256]> var_757_cast_fp16 = slice_by_index(begin = var_757_begin_0, end = var_757_end_0, x = linear_9_cast_fp16)[name = string("op_757_cast_fp16")];
            tensor<fp16, [1, 256]> var_758_cast_fp16 = mul(x = r_cast_fp16, y = var_757_cast_fp16)[name = string("op_758_cast_fp16")];
            tensor<fp16, [1, 256]> var_759_cast_fp16 = add(x = var_756_cast_fp16, y = var_758_cast_fp16)[name = string("op_759_cast_fp16")];
            tensor<fp16, [1, 256]> n_cast_fp16 = tanh(x = var_759_cast_fp16)[name = string("n_cast_fp16")];
            tensor<fp16, [1, 256]> var_761_cast_fp16 = sub(x = var_30_to_fp16, y = z_cast_fp16)[name = string("op_761_cast_fp16")];
            tensor<fp16, [1, 256]> var_762_cast_fp16 = mul(x = var_761_cast_fp16, y = n_cast_fp16)[name = string("op_762_cast_fp16")];
            tensor<fp16, [1, 256]> var_763_cast_fp16 = mul(x = z_cast_fp16, y = h_cast_fp16)[name = string("op_763_cast_fp16")];
            tensor<fp16, [1, 256]> y_cast_fp16 = add(x = var_762_cast_fp16, y = var_763_cast_fp16)[name = string("y_cast_fp16")];
            tensor<int32, [1]> var_765 = const()[name = string("op_765"), val = tensor<int32, [1]>([-1])];
            tensor<fp16, [256]> gru_state_out_cast_fp16 = reshape(shape = var_765, x = y_cast_fp16)[name = string("gru_state_out_cast_fp16")];
            bool df_gru_state_out_interleave_0 = const()[name = string("df_gru_state_out_interleave_0"), val = bool(false)];
            tensor<fp16, [512]> df_gru_state_out_cast_fp16 = concat(axis = var_38, interleave = df_gru_state_out_interleave_0, values = (var_731_cast_fp16, gru_state_out_cast_fp16))[name = string("df_gru_state_out_cast_fp16")];
            bool var_781_transpose_x_0 = const()[name = string("op_781_transpose_x_0"), val = bool(false)];
            bool var_781_transpose_y_0 = const()[name = string("op_781_transpose_y_0"), val = bool(false)];
            tensor<fp16, [16, 32, 16]> model_df_dec_df_skip_weight_to_fp16 = const()[name = string("model_df_dec_df_skip_weight_to_fp16"), val = tensor<fp16, [16, 32, 16]>(BLOBFILE(path = string("@model_path/weights/weight.bin"), offset = uint64(4254016)))];
            tensor<fp16, [1, 16, 1, 16]> var_781_cast_fp16 = matmul(transpose_x = var_781_transpose_x_0, transpose_y = var_781_transpose_y_0, x = var_404_cast_fp16, y = model_df_dec_df_skip_weight_to_fp16)[name = string("op_781_cast_fp16")];
            tensor<int32, [1]> x_63_axes_0 = const()[name = string("x_63_axes_0"), val = tensor<int32, [1]>([-2])];
            tensor<fp16, [1, 16, 16]> x_63_cast_fp16 = squeeze(axes = x_63_axes_0, x = var_781_cast_fp16)[name = string("x_63_cast_fp16")];
            tensor<int32, [2]> var_783 = const()[name = string("op_783"), val = tensor<int32, [2]>([1, 256])];
            tensor<fp16, [1, 256]> x_65_cast_fp16 = reshape(shape = var_783, x = x_63_cast_fp16)[name = string("x_65_cast_fp16")];
            tensor<fp16, [256]> model_df_dec_df_skip_bias_to_fp16 = const()[name = string("model_df_dec_df_skip_bias_to_fp16"), val = tensor<fp16, [256]>(BLOBFILE(path = string("@model_path/weights/weight.bin"), offset = uint64(4270464)))];
            tensor<fp16, [1, 256]> var_785_cast_fp16 = add(x = x_65_cast_fp16, y = model_df_dec_df_skip_bias_to_fp16)[name = string("op_785_cast_fp16")];
            tensor<fp16, [1, 256]> x_69_cast_fp16 = add(x = y_cast_fp16, y = var_785_cast_fp16)[name = string("x_69_cast_fp16")];
            tensor<int32, [4]> var_787 = const()[name = string("op_787"), val = tensor<int32, [4]>([2, 0, 1, 3])];
            tensor<int32, [1]> buf_flat_5_begin_0 = const()[name = string("buf_flat_5_begin_0"), val = tensor<int32, [1]>([2080])];
            tensor<int32, [1]> buf_flat_5_end_0 = const()[name = string("buf_flat_5_end_0"), val = tensor<int32, [1]>([32800])];
            tensor<bool, [1]> buf_flat_5_end_mask_0 = const()[name = string("buf_flat_5_end_mask_0"), val = tensor<bool, [1]>([false])];
            tensor<fp16, [30720]> buf_flat_5_cast_fp16 = slice_by_index(begin = buf_flat_5_begin_0, end = buf_flat_5_end_0, end_mask = buf_flat_5_end_mask_0, x = state_in_to_fp16)[name = string("buf_flat_5_cast_fp16")];
            tensor<int32, [4]> var_790 = const()[name = string("op_790"), val = tensor<int32, [4]>([5, 1, 64, 96])];
            tensor<fp16, [5, 1, 64, 96]> buf_5_cast_fp16 = reshape(shape = var_790, x = buf_flat_5_cast_fp16)[name = string("buf_5_cast_fp16")];
            tensor<int32, [4]> var_792_begin_0 = const()[name = string("op_792_begin_0"), val = tensor<int32, [4]>([1, 0, 0, 0])];
            tensor<int32, [4]> var_792_end_0 = const()[name = string("op_792_end_0"), val = tensor<int32, [4]>([5, 1, 64, 96])];
            tensor<bool, [4]> var_792_end_mask_0 = const()[name = string("op_792_end_mask_0"), val = tensor<bool, [4]>([true, true, true, true])];
            tensor<fp16, [4, 1, 64, 96]> var_792_cast_fp16 = slice_by_index(begin = var_792_begin_0, end = var_792_end_0, end_mask = var_792_end_mask_0, x = buf_5_cast_fp16)[name = string("op_792_cast_fp16")];
            bool buf_next_5_interleave_0 = const()[name = string("buf_next_5_interleave_0"), val = bool(false)];
            tensor<fp16, [1, 1, 64, 96]> x_tf_5_cast_fp16 = transpose(perm = var_787, x = input_41_cast_fp16)[name = string("transpose_10")];
            tensor<fp16, [5, 1, 64, 96]> buf_next_5_cast_fp16 = concat(axis = var_38, interleave = buf_next_5_interleave_0, values = (var_792_cast_fp16, x_tf_5_cast_fp16))[name = string("buf_next_5_cast_fp16")];
            tensor<int32, [4]> var_796 = const()[name = string("op_796"), val = tensor<int32, [4]>([1, 2, 0, 3])];
            tensor<int32, [1]> var_798 = const()[name = string("op_798"), val = tensor<int32, [1]>([-1])];
            tensor<fp16, [30720]> df_convp_state_out_cast_fp16 = reshape(shape = var_798, x = buf_next_5_cast_fp16)[name = string("df_convp_state_out_cast_fp16")];
            tensor<int32, [2]> var_810_split_sizes_0 = const()[name = string("op_810_split_sizes_0"), val = tensor<int32, [2]>([32, 32])];
            int32 var_810_axis_0 = const()[name = string("op_810_axis_0"), val = int32(1)];
            tensor<fp16, [1, 64, 5, 96]> x_67_cast_fp16 = transpose(perm = var_796, x = buf_next_5_cast_fp16)[name = string("transpose_9")];
            tensor<fp16, [1, 32, 5, 96]> var_810_cast_fp16_0, tensor<fp16, [1, 32, 5, 96]> var_810_cast_fp16_1 = split(axis = var_810_axis_0, split_sizes = var_810_split_sizes_0, x = x_67_cast_fp16)[name = string("op_810_cast_fp16")];
            string var_817_pad_type_0 = const()[name = string("op_817_pad_type_0"), val = string("valid")];
            tensor<int32, [2]> var_817_strides_0 = const()[name = string("op_817_strides_0"), val = tensor<int32, [2]>([1, 1])];
            tensor<int32, [4]> var_817_pad_0 = const()[name = string("op_817_pad_0"), val = tensor<int32, [4]>([0, 0, 0, 0])];
            tensor<int32, [2]> var_817_dilations_0 = const()[name = string("op_817_dilations_0"), val = tensor<int32, [2]>([1, 1])];
            int32 var_817_groups_0 = const()[name = string("op_817_groups_0"), val = int32(1)];
            tensor<fp16, [5, 32, 5, 1]> model_df_dec_df_convp_1_convs_0_weight_to_fp16 = const()[name = string("model_df_dec_df_convp_1_convs_0_weight_to_fp16"), val = tensor<fp16, [5, 32, 5, 1]>(BLOBFILE(path = string("@model_path/weights/weight.bin"), offset = uint64(4271040)))];
            tensor<fp16, [1, 5, 1, 96]> var_817_cast_fp16 = conv(dilations = var_817_dilations_0, groups = var_817_groups_0, pad = var_817_pad_0, pad_type = var_817_pad_type_0, strides = var_817_strides_0, weight = model_df_dec_df_convp_1_convs_0_weight_to_fp16, x = var_810_cast_fp16_0)[name = string("op_817_cast_fp16")];
            string var_823_pad_type_0 = const()[name = string("op_823_pad_type_0"), val = string("valid")];
            tensor<int32, [2]> var_823_strides_0 = const()[name = string("op_823_strides_0"), val = tensor<int32, [2]>([1, 1])];
            tensor<int32, [4]> var_823_pad_0 = const()[name = string("op_823_pad_0"), val = tensor<int32, [4]>([0, 0, 0, 0])];
            tensor<int32, [2]> var_823_dilations_0 = const()[name = string("op_823_dilations_0"), val = tensor<int32, [2]>([1, 1])];
            int32 var_823_groups_0 = const()[name = string("op_823_groups_0"), val = int32(1)];
            tensor<fp16, [5, 32, 5, 1]> model_df_dec_df_convp_1_convs_1_weight_to_fp16 = const()[name = string("model_df_dec_df_convp_1_convs_1_weight_to_fp16"), val = tensor<fp16, [5, 32, 5, 1]>(BLOBFILE(path = string("@model_path/weights/weight.bin"), offset = uint64(4272704)))];
            tensor<fp16, [1, 5, 1, 96]> var_823_cast_fp16 = conv(dilations = var_823_dilations_0, groups = var_823_groups_0, pad = var_823_pad_0, pad_type = var_823_pad_type_0, strides = var_823_strides_0, weight = model_df_dec_df_convp_1_convs_1_weight_to_fp16, x = var_810_cast_fp16_1)[name = string("op_823_cast_fp16")];
            bool input_115_interleave_0 = const()[name = string("input_115_interleave_0"), val = bool(false)];
            tensor<fp16, [1, 10, 1, 96]> input_115_cast_fp16 = concat(axis = var_39, interleave = input_115_interleave_0, values = (var_817_cast_fp16, var_823_cast_fp16))[name = string("input_115_cast_fp16")];
            string input_117_pad_type_0 = const()[name = string("input_117_pad_type_0"), val = string("valid")];
            tensor<int32, [2]> input_117_strides_0 = const()[name = string("input_117_strides_0"), val = tensor<int32, [2]>([1, 1])];
            tensor<int32, [4]> input_117_pad_0 = const()[name = string("input_117_pad_0"), val = tensor<int32, [4]>([0, 0, 0, 0])];
            tensor<int32, [2]> input_117_dilations_0 = const()[name = string("input_117_dilations_0"), val = tensor<int32, [2]>([1, 1])];
            int32 input_117_groups_0 = const()[name = string("input_117_groups_0"), val = int32(1)];
            tensor<fp16, [10, 10, 1, 1]> const_44_to_fp16 = const()[name = string("const_44_to_fp16"), val = tensor<fp16, [10, 10, 1, 1]>(BLOBFILE(path = string("@model_path/weights/weight.bin"), offset = uint64(4274368)))];
            tensor<fp16, [10]> const_45_to_fp16 = const()[name = string("const_45_to_fp16"), val = tensor<fp16, [10]>(BLOBFILE(path = string("@model_path/weights/weight.bin"), offset = uint64(4274688)))];
            tensor<fp16, [1, 10, 1, 96]> input_119_cast_fp16 = conv(bias = const_45_to_fp16, dilations = input_117_dilations_0, groups = input_117_groups_0, pad = input_117_pad_0, pad_type = input_117_pad_type_0, strides = input_117_strides_0, weight = const_44_to_fp16, x = input_115_cast_fp16)[name = string("input_119_cast_fp16")];
            tensor<fp16, [1, 10, 1, 96]> var_837_cast_fp16 = relu(x = input_119_cast_fp16)[name = string("op_837_cast_fp16")];
            tensor<int32, [4]> var_838 = const()[name = string("op_838"), val = tensor<int32, [4]>([0, 2, 3, 1])];
            tensor<int32, [3]> var_845 = const()[name = string("op_845"), val = tensor<int32, [3]>([-1, 16, 16])];
            tensor<fp16, [1, 16, 16]> x_71_cast_fp16 = reshape(shape = var_845, x = x_69_cast_fp16)[name = string("x_71_cast_fp16")];
            tensor<int32, [1]> var_847_axes_0 = const()[name = string("op_847_axes_0"), val = tensor<int32, [1]>([-2])];
            tensor<fp16, [1, 16, 1, 16]> var_847_cast_fp16 = expand_dims(axes = var_847_axes_0, x = x_71_cast_fp16)[name = string("op_847_cast_fp16")];
            bool var_848_transpose_x_0 = const()[name = string("op_848_transpose_x_0"), val = bool(false)];
            bool var_848_transpose_y_0 = const()[name = string("op_848_transpose_y_0"), val = bool(false)];
            tensor<fp16, [16, 16, 60]> model_df_dec_df_out_0_weight_to_fp16 = const()[name = string("model_df_dec_df_out_0_weight_to_fp16"), val = tensor<fp16, [16, 16, 60]>(BLOBFILE(path = string("@model_path/weights/weight.bin"), offset = uint64(4274816)))];
            tensor<fp16, [1, 16, 1, 60]> var_848_cast_fp16 = matmul(transpose_x = var_848_transpose_x_0, transpose_y = var_848_transpose_y_0, x = var_847_cast_fp16, y = model_df_dec_df_out_0_weight_to_fp16)[name = string("op_848_cast_fp16")];
            tensor<int32, [1]> x_73_axes_0 = const()[name = string("x_73_axes_0"), val = tensor<int32, [1]>([-2])];
            tensor<fp16, [1, 16, 60]> x_73_cast_fp16 = squeeze(axes = x_73_axes_0, x = var_848_cast_fp16)[name = string("x_73_cast_fp16")];
            tensor<int32, [2]> var_850 = const()[name = string("op_850"), val = tensor<int32, [2]>([1, 960])];
            tensor<fp16, [1, 960]> x_75_cast_fp16 = reshape(shape = var_850, x = x_73_cast_fp16)[name = string("x_75_cast_fp16")];
            tensor<fp16, [960]> model_df_dec_df_out_0_bias_to_fp16 = const()[name = string("model_df_dec_df_out_0_bias_to_fp16"), val = tensor<fp16, [960]>(BLOBFILE(path = string("@model_path/weights/weight.bin"), offset = uint64(4305600)))];
            tensor<fp16, [1, 960]> input_cast_fp16 = add(x = x_75_cast_fp16, y = model_df_dec_df_out_0_bias_to_fp16)[name = string("input_cast_fp16")];
            tensor<fp16, [1, 960]> c_1_cast_fp16 = tanh(x = input_cast_fp16)[name = string("c_1_cast_fp16")];
            tensor<int32, [1]> c_axes_0 = const()[name = string("c_axes_0"), val = tensor<int32, [1]>([1])];
            tensor<fp16, [1, 1, 960]> c_cast_fp16 = expand_dims(axes = c_axes_0, x = c_1_cast_fp16)[name = string("c_cast_fp16")];
            tensor<int32, [4]> var_855 = const()[name = string("op_855"), val = tensor<int32, [4]>([1, 1, 96, 10])];
            tensor<fp16, [1, 1, 96, 10]> var_856_cast_fp16 = reshape(shape = var_855, x = c_cast_fp16)[name = string("op_856_cast_fp16")];
            tensor<fp16, [1, 1, 96, 10]> c0_cast_fp16 = transpose(perm = var_838, x = var_837_cast_fp16)[name = string("transpose_8")];
            tensor<fp16, [1, 1, 96, 10]> coefs_1_cast_fp16 = add(x = var_856_cast_fp16, y = c0_cast_fp16)[name = string("coefs_1_cast_fp16")];
            bool df_dec_state_out_interleave_0 = const()[name = string("df_dec_state_out_interleave_0"), val = bool(false)];
            tensor<fp16, [31232]> df_dec_state_out_cast_fp16 = concat(axis = var_38, interleave = df_dec_state_out_interleave_0, values = (df_gru_state_out_cast_fp16, df_convp_state_out_cast_fp16))[name = string("df_dec_state_out_cast_fp16")];
            tensor<int32, [5]> var_866 = const()[name = string("op_866"), val = tensor<int32, [5]>([1, 1, 96, -1, 2])];
            tensor<fp16, [1, 1, 96, 5, 2]> coefs_3_cast_fp16 = reshape(shape = var_866, x = coefs_1_cast_fp16)[name = string("coefs_3_cast_fp16")];
            tensor<int32, [5]> transpose_2_perm_0 = const()[name = string("transpose_2_perm_0"), val = tensor<int32, [5]>([1, 0, 3, 2, 4])];
            bool mask_3_transpose_x_0 = const()[name = string("mask_3_transpose_x_0"), val = bool(false)];
            bool mask_3_transpose_y_0 = const()[name = string("mask_3_transpose_y_0"), val = bool(false)];
            tensor<fp16, [32, 161]> model_erb_inv_fb_to_fp16 = const()[name = string("model_erb_inv_fb_to_fp16"), val = tensor<fp16, [32, 161]>(BLOBFILE(path = string("@model_path/weights/weight.bin"), offset = uint64(4307584)))];
            tensor<fp16, [1, 1, 1, 161]> mask_3_cast_fp16 = matmul(transpose_x = mask_3_transpose_x_0, transpose_y = mask_3_transpose_y_0, x = mask_1_cast_fp16, y = model_erb_inv_fb_to_fp16)[name = string("mask_3_cast_fp16")];
            tensor<int32, [1]> mask_5_axes_0 = const()[name = string("mask_5_axes_0"), val = tensor<int32, [1]>([4])];
            tensor<fp16, [1, 1, 1, 161, 1]> mask_5_cast_fp16 = expand_dims(axes = mask_5_axes_0, x = mask_3_cast_fp16)[name = string("mask_5_cast_fp16")];
            tensor<int32, [5]> var_872 = const()[name = string("op_872"), val = tensor<int32, [5]>([2, 0, 1, 3, 4])];
            tensor<int32, [1]> buf_flat_7_begin_0 = const()[name = string("buf_flat_7_begin_0"), val = tensor<int32, [1]>([32800])];
            tensor<int32, [1]> buf_flat_7_end_0 = const()[name = string("buf_flat_7_end_0"), val = tensor<int32, [1]>([33766])];
            tensor<bool, [1]> buf_flat_7_end_mask_0 = const()[name = string("buf_flat_7_end_mask_0"), val = tensor<bool, [1]>([false])];
            tensor<fp16, [966]> buf_flat_7_cast_fp16 = slice_by_index(begin = buf_flat_7_begin_0, end = buf_flat_7_end_0, end_mask = buf_flat_7_end_mask_0, x = state_in_to_fp16)[name = string("buf_flat_7_cast_fp16")];
            tensor<int32, [5]> var_875 = const()[name = string("op_875"), val = tensor<int32, [5]>([3, 1, 1, 161, 2])];
            tensor<fp16, [3, 1, 1, 161, 2]> buf_7_cast_fp16 = reshape(shape = var_875, x = buf_flat_7_cast_fp16)[name = string("buf_7_cast_fp16")];
            tensor<int32, [5]> var_877_begin_0 = const()[name = string("op_877_begin_0"), val = tensor<int32, [5]>([1, 0, 0, 0, 0])];
            tensor<int32, [5]> var_877_end_0 = const()[name = string("op_877_end_0"), val = tensor<int32, [5]>([3, 1, 1, 161, 2])];
            tensor<bool, [5]> var_877_end_mask_0 = const()[name = string("op_877_end_mask_0"), val = tensor<bool, [5]>([true, true, true, true, true])];
            tensor<fp16, [2, 1, 1, 161, 2]> var_877_cast_fp16 = slice_by_index(begin = var_877_begin_0, end = var_877_end_0, end_mask = var_877_end_mask_0, x = buf_7_cast_fp16)[name = string("op_877_cast_fp16")];
            bool buf_next_7_interleave_0 = const()[name = string("buf_next_7_interleave_0"), val = bool(false)];
            tensor<fp16, [1, 1, 1, 161, 2]> x_tf_7_cast_fp16 = transpose(perm = var_872, x = x_77_cast_fp16)[name = string("transpose_6")];
            tensor<fp16, [3, 1, 1, 161, 2]> buf_next_7_cast_fp16 = concat(axis = var_38, interleave = buf_next_7_interleave_0, values = (var_877_cast_fp16, x_tf_7_cast_fp16))[name = string("buf_next_7_cast_fp16")];
            tensor<int32, [5]> out_tf_7_begin_0 = const()[name = string("out_tf_7_begin_0"), val = tensor<int32, [5]>([0, 0, 0, 0, 0])];
            tensor<int32, [5]> out_tf_7_end_0 = const()[name = string("out_tf_7_end_0"), val = tensor<int32, [5]>([1, 1, 1, 161, 2])];
            tensor<bool, [5]> out_tf_7_end_mask_0 = const()[name = string("out_tf_7_end_mask_0"), val = tensor<bool, [5]>([false, true, true, true, true])];
            tensor<fp16, [1, 1, 1, 161, 2]> out_tf_7_cast_fp16 = slice_by_index(begin = out_tf_7_begin_0, end = out_tf_7_end_0, end_mask = out_tf_7_end_mask_0, x = buf_next_7_cast_fp16)[name = string("out_tf_7_cast_fp16")];
            tensor<int32, [1]> var_883 = const()[name = string("op_883"), val = tensor<int32, [1]>([-1])];
            tensor<fp16, [966]> mask_state_out_cast_fp16 = reshape(shape = var_883, x = buf_next_7_cast_fp16)[name = string("mask_state_out_cast_fp16")];
            tensor<fp16, [1, 1, 1, 161, 2]> spec_3_cast_fp16 = mul(x = out_tf_7_cast_fp16, y = mask_5_cast_fp16)[name = string("spec_3_cast_fp16")];
            tensor<int32, [1]> buf_flat_9_begin_0 = const()[name = string("buf_flat_9_begin_0"), val = tensor<int32, [1]>([33766])];
            tensor<int32, [1]> buf_flat_9_end_0 = const()[name = string("buf_flat_9_end_0"), val = tensor<int32, [1]>([36646])];
            tensor<bool, [1]> buf_flat_9_end_mask_0 = const()[name = string("buf_flat_9_end_mask_0"), val = tensor<bool, [1]>([false])];
            tensor<fp16, [2880]> buf_flat_9_cast_fp16 = slice_by_index(begin = buf_flat_9_begin_0, end = buf_flat_9_end_0, end_mask = buf_flat_9_end_mask_0, x = state_in_to_fp16)[name = string("buf_flat_9_cast_fp16")];
            tensor<int32, [5]> var_896 = const()[name = string("op_896"), val = tensor<int32, [5]>([3, 1, 5, 96, 2])];
            tensor<fp16, [3, 1, 5, 96, 2]> buf_9_cast_fp16 = reshape(shape = var_896, x = buf_flat_9_cast_fp16)[name = string("buf_9_cast_fp16")];
            tensor<int32, [5]> var_898_begin_0 = const()[name = string("op_898_begin_0"), val = tensor<int32, [5]>([1, 0, 0, 0, 0])];
            tensor<int32, [5]> var_898_end_0 = const()[name = string("op_898_end_0"), val = tensor<int32, [5]>([3, 1, 5, 96, 2])];
            tensor<bool, [5]> var_898_end_mask_0 = const()[name = string("op_898_end_mask_0"), val = tensor<bool, [5]>([true, true, true, true, true])];
            tensor<fp16, [2, 1, 5, 96, 2]> var_898_cast_fp16 = slice_by_index(begin = var_898_begin_0, end = var_898_end_0, end_mask = var_898_end_mask_0, x = buf_9_cast_fp16)[name = string("op_898_cast_fp16")];
            bool buf_next_9_interleave_0 = const()[name = string("buf_next_9_interleave_0"), val = bool(false)];
            tensor<fp16, [1, 1, 5, 96, 2]> transpose_2_cast_fp16 = transpose(perm = transpose_2_perm_0, x = coefs_3_cast_fp16)[name = string("transpose_7")];
            tensor<fp16, [3, 1, 5, 96, 2]> buf_next_9_cast_fp16 = concat(axis = var_38, interleave = buf_next_9_interleave_0, values = (var_898_cast_fp16, transpose_2_cast_fp16))[name = string("buf_next_9_cast_fp16")];
            tensor<int32, [5]> out_tf_9_begin_0 = const()[name = string("out_tf_9_begin_0"), val = tensor<int32, [5]>([0, 0, 0, 0, 0])];
            tensor<int32, [5]> out_tf_9_end_0 = const()[name = string("out_tf_9_end_0"), val = tensor<int32, [5]>([1, 1, 5, 96, 2])];
            tensor<bool, [5]> out_tf_9_end_mask_0 = const()[name = string("out_tf_9_end_mask_0"), val = tensor<bool, [5]>([false, true, true, true, true])];
            tensor<fp16, [1, 1, 5, 96, 2]> out_tf_9_cast_fp16 = slice_by_index(begin = out_tf_9_begin_0, end = out_tf_9_end_0, end_mask = out_tf_9_end_mask_0, x = buf_next_9_cast_fp16)[name = string("out_tf_9_cast_fp16")];
            tensor<int32, [5]> transpose_3_perm_0 = const()[name = string("transpose_3_perm_0"), val = tensor<int32, [5]>([1, 0, 2, 3, 4])];
            tensor<int32, [1]> var_904 = const()[name = string("op_904"), val = tensor<int32, [1]>([-1])];
            tensor<fp16, [2880]> coefs_state_out_cast_fp16 = reshape(shape = var_904, x = buf_next_9_cast_fp16)[name = string("coefs_state_out_cast_fp16")];
            tensor<int32, [1]> buf_flat_begin_0 = const()[name = string("buf_flat_begin_0"), val = tensor<int32, [1]>([36646])];
            tensor<int32, [1]> buf_flat_end_0 = const()[name = string("buf_flat_end_0"), val = tensor<int32, [1]>([1])];
            tensor<bool, [1]> buf_flat_end_mask_0 = const()[name = string("buf_flat_end_mask_0"), val = tensor<bool, [1]>([true])];
            tensor<fp16, [1610]> buf_flat_cast_fp16 = slice_by_index(begin = buf_flat_begin_0, end = buf_flat_end_0, end_mask = buf_flat_end_mask_0, x = state_in_to_fp16)[name = string("buf_flat_cast_fp16")];
            tensor<int32, [5]> var_914 = const()[name = string("op_914"), val = tensor<int32, [5]>([5, 1, 1, 161, 2])];
            tensor<fp16, [5, 1, 1, 161, 2]> buf_cast_fp16 = reshape(shape = var_914, x = buf_flat_cast_fp16)[name = string("buf_cast_fp16")];
            tensor<int32, [5]> var_916_begin_0 = const()[name = string("op_916_begin_0"), val = tensor<int32, [5]>([1, 0, 0, 0, 0])];
            tensor<int32, [5]> var_916_end_0 = const()[name = string("op_916_end_0"), val = tensor<int32, [5]>([5, 1, 1, 161, 2])];
            tensor<bool, [5]> var_916_end_mask_0 = const()[name = string("op_916_end_mask_0"), val = tensor<bool, [5]>([true, true, true, true, true])];
            tensor<fp16, [4, 1, 1, 161, 2]> var_916_cast_fp16 = slice_by_index(begin = var_916_begin_0, end = var_916_end_0, end_mask = var_916_end_mask_0, x = buf_cast_fp16)[name = string("op_916_cast_fp16")];
            bool buf_next_interleave_0 = const()[name = string("buf_next_interleave_0"), val = bool(false)];
            tensor<fp16, [5, 1, 1, 161, 2]> buf_next_cast_fp16 = concat(axis = var_38, interleave = buf_next_interleave_0, values = (var_916_cast_fp16, spec_3_cast_fp16))[name = string("buf_next_cast_fp16")];
            tensor<int32, [5]> var_920 = const()[name = string("op_920"), val = tensor<int32, [5]>([1, 2, 0, 3, 4])];
            tensor<int32, [1]> var_922 = const()[name = string("op_922"), val = tensor<int32, [1]>([-1])];
            tensor<fp16, [1610]> spec_state_out_cast_fp16 = reshape(shape = var_922, x = buf_next_cast_fp16)[name = string("spec_state_out_cast_fp16")];
            tensor<int32, [5]> var_927_begin_0 = const()[name = string("op_927_begin_0"), val = tensor<int32, [5]>([0, 0, 0, 0, 0])];
            tensor<int32, [5]> var_927_end_0 = const()[name = string("op_927_end_0"), val = tensor<int32, [5]>([1, 1, 5, 96, 2])];
            tensor<bool, [5]> var_927_end_mask_0 = const()[name = string("op_927_end_mask_0"), val = tensor<bool, [5]>([true, true, true, false, true])];
            tensor<fp16, [1, 1, 5, 161, 2]> full_spec_buffered_cast_fp16 = transpose(perm = var_920, x = buf_next_cast_fp16)[name = string("transpose_4")];
            tensor<fp16, [1, 1, 5, 96, 2]> var_927_cast_fp16 = slice_by_index(begin = var_927_begin_0, end = var_927_end_0, end_mask = var_927_end_mask_0, x = full_spec_buffered_cast_fp16)[name = string("op_927_cast_fp16")];
            tensor<int32, [5]> full_spec_frame_begin_0 = const()[name = string("full_spec_frame_begin_0"), val = tensor<int32, [5]>([0, 0, 2, 0, 0])];
            tensor<int32, [5]> full_spec_frame_end_0 = const()[name = string("full_spec_frame_end_0"), val = tensor<int32, [5]>([1, 1, 3, 161, 2])];
            tensor<bool, [5]> full_spec_frame_end_mask_0 = const()[name = string("full_spec_frame_end_mask_0"), val = tensor<bool, [5]>([true, true, false, true, true])];
            tensor<fp16, [1, 1, 1, 161, 2]> full_spec_frame_cast_fp16 = slice_by_index(begin = full_spec_frame_begin_0, end = full_spec_frame_end_0, end_mask = full_spec_frame_end_mask_0, x = full_spec_buffered_cast_fp16)[name = string("full_spec_frame_cast_fp16")];
            tensor<int32, [5]> var_932_begin_0 = const()[name = string("op_932_begin_0"), val = tensor<int32, [5]>([0, 0, 0, 0, 0])];
            tensor<int32, [5]> var_932_end_0 = const()[name = string("op_932_end_0"), val = tensor<int32, [5]>([1, 1, 5, 96, 1])];
            tensor<bool, [5]> var_932_end_mask_0 = const()[name = string("op_932_end_mask_0"), val = tensor<bool, [5]>([true, true, true, true, false])];
            tensor<bool, [5]> var_932_squeeze_mask_0 = const()[name = string("op_932_squeeze_mask_0"), val = tensor<bool, [5]>([false, false, false, false, true])];
            tensor<fp16, [1, 1, 5, 96]> var_932_cast_fp16 = slice_by_index(begin = var_932_begin_0, end = var_932_end_0, end_mask = var_932_end_mask_0, squeeze_mask = var_932_squeeze_mask_0, x = var_927_cast_fp16)[name = string("op_932_cast_fp16")];
            tensor<int32, [5]> var_933_begin_0 = const()[name = string("op_933_begin_0"), val = tensor<int32, [5]>([0, 0, 0, 0, 0])];
            tensor<int32, [5]> var_933_end_0 = const()[name = string("op_933_end_0"), val = tensor<int32, [5]>([1, 1, 5, 96, 1])];
            tensor<bool, [5]> var_933_end_mask_0 = const()[name = string("op_933_end_mask_0"), val = tensor<bool, [5]>([true, true, true, true, false])];
            tensor<bool, [5]> var_933_squeeze_mask_0 = const()[name = string("op_933_squeeze_mask_0"), val = tensor<bool, [5]>([false, false, false, false, true])];
            tensor<fp16, [1, 1, 5, 96, 2]> transpose_3_cast_fp16 = transpose(perm = transpose_3_perm_0, x = out_tf_9_cast_fp16)[name = string("transpose_5")];
            tensor<fp16, [1, 1, 5, 96]> var_933_cast_fp16 = slice_by_index(begin = var_933_begin_0, end = var_933_end_0, end_mask = var_933_end_mask_0, squeeze_mask = var_933_squeeze_mask_0, x = transpose_3_cast_fp16)[name = string("op_933_cast_fp16")];
            tensor<fp16, [1, 1, 5, 96]> var_934_cast_fp16 = mul(x = var_932_cast_fp16, y = var_933_cast_fp16)[name = string("op_934_cast_fp16")];
            tensor<int32, [1]> var_936_axes_0 = const()[name = string("op_936_axes_0"), val = tensor<int32, [1]>([2])];
            bool var_936_keep_dims_0 = const()[name = string("op_936_keep_dims_0"), val = bool(false)];
            tensor<fp16, [1, 1, 96]> var_936_cast_fp16 = reduce_sum(axes = var_936_axes_0, keep_dims = var_936_keep_dims_0, x = var_934_cast_fp16)[name = string("op_936_cast_fp16")];
            tensor<int32, [5]> var_937_begin_0 = const()[name = string("op_937_begin_0"), val = tensor<int32, [5]>([0, 0, 0, 0, 1])];
            tensor<int32, [5]> var_937_end_0 = const()[name = string("op_937_end_0"), val = tensor<int32, [5]>([1, 1, 5, 96, 2])];
            tensor<bool, [5]> var_937_end_mask_0 = const()[name = string("op_937_end_mask_0"), val = tensor<bool, [5]>([true, true, true, true, false])];
            tensor<bool, [5]> var_937_squeeze_mask_0 = const()[name = string("op_937_squeeze_mask_0"), val = tensor<bool, [5]>([false, false, false, false, true])];
            tensor<fp16, [1, 1, 5, 96]> var_937_cast_fp16 = slice_by_index(begin = var_937_begin_0, end = var_937_end_0, end_mask = var_937_end_mask_0, squeeze_mask = var_937_squeeze_mask_0, x = var_927_cast_fp16)[name = string("op_937_cast_fp16")];
            tensor<int32, [5]> var_938_begin_0 = const()[name = string("op_938_begin_0"), val = tensor<int32, [5]>([0, 0, 0, 0, 1])];
            tensor<int32, [5]> var_938_end_0 = const()[name = string("op_938_end_0"), val = tensor<int32, [5]>([1, 1, 5, 96, 2])];
            tensor<bool, [5]> var_938_end_mask_0 = const()[name = string("op_938_end_mask_0"), val = tensor<bool, [5]>([true, true, true, true, false])];
            tensor<bool, [5]> var_938_squeeze_mask_0 = const()[name = string("op_938_squeeze_mask_0"), val = tensor<bool, [5]>([false, false, false, false, true])];
            tensor<fp16, [1, 1, 5, 96]> var_938_cast_fp16 = slice_by_index(begin = var_938_begin_0, end = var_938_end_0, end_mask = var_938_end_mask_0, squeeze_mask = var_938_squeeze_mask_0, x = transpose_3_cast_fp16)[name = string("op_938_cast_fp16")];
            tensor<fp16, [1, 1, 5, 96]> var_939_cast_fp16 = mul(x = var_937_cast_fp16, y = var_938_cast_fp16)[name = string("op_939_cast_fp16")];
            tensor<int32, [1]> var_941_axes_0 = const()[name = string("op_941_axes_0"), val = tensor<int32, [1]>([2])];
            bool var_941_keep_dims_0 = const()[name = string("op_941_keep_dims_0"), val = bool(false)];
            tensor<fp16, [1, 1, 96]> var_941_cast_fp16 = reduce_sum(axes = var_941_axes_0, keep_dims = var_941_keep_dims_0, x = var_939_cast_fp16)[name = string("op_941_cast_fp16")];
            tensor<fp16, [1, 1, 96]> real_part_cast_fp16 = sub(x = var_936_cast_fp16, y = var_941_cast_fp16)[name = string("real_part_cast_fp16")];
            tensor<fp16, [1, 1, 5, 96]> var_945_cast_fp16 = mul(x = var_932_cast_fp16, y = var_938_cast_fp16)[name = string("op_945_cast_fp16")];
            tensor<int32, [1]> var_947_axes_0 = const()[name = string("op_947_axes_0"), val = tensor<int32, [1]>([2])];
            bool var_947_keep_dims_0 = const()[name = string("op_947_keep_dims_0"), val = bool(false)];
            tensor<fp16, [1, 1, 96]> var_947_cast_fp16 = reduce_sum(axes = var_947_axes_0, keep_dims = var_947_keep_dims_0, x = var_945_cast_fp16)[name = string("op_947_cast_fp16")];
            tensor<fp16, [1, 1, 5, 96]> var_950_cast_fp16 = mul(x = var_937_cast_fp16, y = var_933_cast_fp16)[name = string("op_950_cast_fp16")];
            tensor<int32, [1]> var_952_axes_0 = const()[name = string("op_952_axes_0"), val = tensor<int32, [1]>([2])];
            bool var_952_keep_dims_0 = const()[name = string("op_952_keep_dims_0"), val = bool(false)];
            tensor<fp16, [1, 1, 96]> var_952_cast_fp16 = reduce_sum(axes = var_952_axes_0, keep_dims = var_952_keep_dims_0, x = var_950_cast_fp16)[name = string("op_952_cast_fp16")];
            tensor<fp16, [1, 1, 96]> imag_part_cast_fp16 = add(x = var_947_cast_fp16, y = var_952_cast_fp16)[name = string("imag_part_cast_fp16")];
            int32 spec_df_1_axis_0 = const()[name = string("spec_df_1_axis_0"), val = int32(-1)];
            tensor<fp16, [1, 1, 96, 2]> spec_df_1_cast_fp16 = stack(axis = spec_df_1_axis_0, values = (real_part_cast_fp16, imag_part_cast_fp16))[name = string("spec_df_1_cast_fp16")];
            tensor<int32, [1]> spec_df_axes_0 = const()[name = string("spec_df_axes_0"), val = tensor<int32, [1]>([1])];
            tensor<fp16, [1, 1, 1, 96, 2]> spec_df_cast_fp16 = expand_dims(axes = spec_df_axes_0, x = spec_df_1_cast_fp16)[name = string("spec_df_cast_fp16")];
            tensor<int32, [5]> var_960_begin_0 = const()[name = string("op_960_begin_0"), val = tensor<int32, [5]>([0, 0, 0, 96, 0])];
            tensor<int32, [5]> var_960_end_0 = const()[name = string("op_960_end_0"), val = tensor<int32, [5]>([1, 1, 1, 161, 2])];
            tensor<bool, [5]> var_960_end_mask_0 = const()[name = string("op_960_end_mask_0"), val = tensor<bool, [5]>([true, true, true, true, true])];
            tensor<fp16, [1, 1, 1, 65, 2]> var_960_cast_fp16 = slice_by_index(begin = var_960_begin_0, end = var_960_end_0, end_mask = var_960_end_mask_0, x = full_spec_frame_cast_fp16)[name = string("op_960_cast_fp16")];
            bool spec_e_1_interleave_0 = const()[name = string("spec_e_1_interleave_0"), val = bool(false)];
            tensor<fp16, [1, 1, 1, 161, 2]> spec_e_1_cast_fp16 = concat(axis = var_36, interleave = spec_e_1_interleave_0, values = (spec_df_cast_fp16, var_960_cast_fp16))[name = string("spec_e_1_cast_fp16")];
            bool df_state_out_interleave_0 = const()[name = string("df_state_out_interleave_0"), val = bool(false)];
            tensor<fp16, [4490]> df_state_out_cast_fp16 = concat(axis = var_38, interleave = df_state_out_interleave_0, values = (coefs_state_out_cast_fp16, spec_state_out_cast_fp16))[name = string("df_state_out_cast_fp16")];
            tensor<int32, [1]> spec_e_axes_0 = const()[name = string("spec_e_axes_0"), val = tensor<int32, [1]>([1])];
            tensor<fp16, [1, 1, 161, 2]> spec_e_cast_fp16 = squeeze(axes = spec_e_axes_0, x = spec_e_1_cast_fp16)[name = string("spec_e_cast_fp16")];
            bool var_970_interleave_0 = const()[name = string("op_970_interleave_0"), val = bool(false)];
            tensor<fp16, [38256]> var_970_cast_fp16 = concat(axis = var_38, interleave = var_970_interleave_0, values = (erb_norm_state_out_cast_fp16, spec_norm_state_out_cast_fp16, enc_state_out_cast_fp16, erb_dec_state_out_cast_fp16, df_dec_state_out_cast_fp16, mask_state_out_cast_fp16, df_state_out_cast_fp16))[name = string("op_970_cast_fp16")];
            string var_970_cast_fp16_to_fp32_dtype_0 = const()[name = string("op_970_cast_fp16_to_fp32_dtype_0"), val = string("fp32")];
            fp16 inv_wnorm_to_fp16 = const()[name = string("inv_wnorm_to_fp16"), val = fp16(0x1.4p+8)];
            tensor<fp16, [1, 1, 161, 2]> var_974_cast_fp16 = mul(x = spec_e_cast_fp16, y = inv_wnorm_to_fp16)[name = string("op_974_cast_fp16")];
            string var_974_cast_fp16_to_fp32_dtype_0 = const()[name = string("op_974_cast_fp16_to_fp32_dtype_0"), val = string("fp32")];
            tensor<fp32, [1, 1, 161, 2]> spec_e = cast(dtype = var_974_cast_fp16_to_fp32_dtype_0, x = var_974_cast_fp16)[name = string("cast_57")];
            tensor<fp32, [38256]> state_out = cast(dtype = var_970_cast_fp16_to_fp32_dtype_0, x = var_970_cast_fp16)[name = string("cast_58")];
        } -> (spec_e, state_out);
}