program(1.3)
[buildInfo = dict<string, string>({{"coremlc-component-MIL", "3510.2.1"}, {"coremlc-version", "3500.32.1"}, {"coremltools-component-torch", "2.11.0"}, {"coremltools-source-dialect", "TorchScript"}, {"coremltools-version", "9.0"}})]
{
    func main<ios18>(tensor<fp32, [1, 1, 161, 2]> spec, tensor<fp32, [45424]> state_in) {
            string spec_to_fp16_dtype_0 = const()[name = string("spec_to_fp16_dtype_0"), val = string("fp16")];
            fp16 wnorm_to_fp16 = const()[name = string("wnorm_to_fp16"), val = fp16(0x1.998p-9)];
            tensor<fp16, [1, 1, 161, 2]> spec_to_fp16 = cast(dtype = spec_to_fp16_dtype_0, x = spec)[name = string("cast_100")];
            tensor<fp16, [1, 1, 161, 2]> x_1_cast_fp16 = mul(x = spec_to_fp16, y = wnorm_to_fp16)[name = string("x_1_cast_fp16")];
            int32 var_44 = const()[name = string("op_44"), val = int32(3)];
            int32 var_46 = const()[name = string("op_46"), val = int32(0)];
            int32 var_47 = const()[name = string("op_47"), val = int32(1)];
            int32 var_50 = const()[name = string("op_50"), val = int32(-1)];
            fp16 var_51_promoted_to_fp16 = const()[name = string("op_51_promoted_to_fp16"), val = fp16(0x1p+1)];
            tensor<fp16, [1, 1, 161, 2]> var_57_cast_fp16 = pow(x = x_1_cast_fp16, y = var_51_promoted_to_fp16)[name = string("op_57_cast_fp16")];
            tensor<int32, [1]> var_59_axes_0 = const()[name = string("op_59_axes_0"), val = tensor<int32, [1]>([-1])];
            bool var_59_keep_dims_0 = const()[name = string("op_59_keep_dims_0"), val = bool(false)];
            tensor<fp16, [1, 1, 161]> var_59_cast_fp16 = reduce_sum(axes = var_59_axes_0, keep_dims = var_59_keep_dims_0, x = var_57_cast_fp16)[name = string("op_59_cast_fp16")];
            tensor<fp16, [32, 161]> transpose_0_to_fp16 = const()[name = string("transpose_0_to_fp16"), val = tensor<fp16, [32, 161]>(BLOBFILE(path = string("@model_path/weights/weight.bin"), offset = uint64(64)))];
            tensor<fp16, [32]> x_3_bias_0_to_fp16 = const()[name = string("x_3_bias_0_to_fp16"), val = tensor<fp16, [32]>(BLOBFILE(path = string("@model_path/weights/weight.bin"), offset = uint64(10432)))];
            tensor<fp16, [1, 1, 32]> x_3_cast_fp16 = linear(bias = x_3_bias_0_to_fp16, weight = transpose_0_to_fp16, x = var_59_cast_fp16)[name = string("x_3_cast_fp16")];
            fp16 var_61_to_fp16 = const()[name = string("op_61_to_fp16"), val = fp16(0x1p-24)];
            tensor<fp16, [1, 1, 32]> var_62_cast_fp16 = add(x = x_3_cast_fp16, y = var_61_to_fp16)[name = string("op_62_cast_fp16")];
            fp32 log_0_epsilon_0 = const()[name = string("log_0_epsilon_0"), val = fp32(0x1p-149)];
            tensor<fp16, [1, 1, 32]> log_0_cast_fp16 = log(epsilon = log_0_epsilon_0, x = var_62_cast_fp16)[name = string("log_0_cast_fp16")];
            fp16 mul_0_y_0_to_fp16 = const()[name = string("mul_0_y_0_to_fp16"), val = fp16(0x1.bccp-2)];
            tensor<fp16, [1, 1, 32]> mul_0_cast_fp16 = mul(x = log_0_cast_fp16, y = mul_0_y_0_to_fp16)[name = string("mul_0_cast_fp16")];
            fp16 var_64_promoted_to_fp16 = const()[name = string("op_64_promoted_to_fp16"), val = fp16(0x1.4p+3)];
            tensor<fp16, [1, 1, 32]> x_5_cast_fp16 = mul(x = mul_0_cast_fp16, y = var_64_promoted_to_fp16)[name = string("x_5_cast_fp16")];
            tensor<int32, [4]> var_66_begin_0 = const()[name = string("op_66_begin_0"), val = tensor<int32, [4]>([0, 0, 0, 0])];
            tensor<int32, [4]> var_66_end_0 = const()[name = string("op_66_end_0"), val = tensor<int32, [4]>([1, 1, 96, 2])];
            tensor<bool, [4]> var_66_end_mask_0 = const()[name = string("op_66_end_mask_0"), val = tensor<bool, [4]>([true, true, false, true])];
            tensor<fp16, [1, 1, 96, 2]> var_66_cast_fp16 = slice_by_index(begin = var_66_begin_0, end = var_66_end_0, end_mask = var_66_end_mask_0, x = x_1_cast_fp16)[name = string("op_66_cast_fp16")];
            tensor<int32, [1]> mu_flat_begin_0 = const()[name = string("mu_flat_begin_0"), val = tensor<int32, [1]>([0])];
            tensor<int32, [1]> mu_flat_end_0 = const()[name = string("mu_flat_end_0"), val = tensor<int32, [1]>([32])];
            tensor<bool, [1]> mu_flat_end_mask_0 = const()[name = string("mu_flat_end_mask_0"), val = tensor<bool, [1]>([false])];
            string state_in_to_fp16_dtype_0 = const()[name = string("state_in_to_fp16_dtype_0"), val = string("fp16")];
            tensor<fp16, [45424]> state_in_to_fp16 = cast(dtype = state_in_to_fp16_dtype_0, x = state_in)[name = string("cast_99")];
            tensor<fp16, [32]> mu_flat_cast_fp16 = slice_by_index(begin = mu_flat_begin_0, end = mu_flat_end_0, end_mask = mu_flat_end_mask_0, x = state_in_to_fp16)[name = string("mu_flat_cast_fp16")];
            tensor<int32, [3]> var_69 = const()[name = string("op_69"), val = tensor<int32, [3]>([1, 1, 32])];
            tensor<fp16, [1, 1, 32]> mu_prev_cast_fp16 = reshape(shape = var_69, x = mu_flat_cast_fp16)[name = string("mu_prev_cast_fp16")];
            fp16 var_71_to_fp16 = const()[name = string("op_71_to_fp16"), val = fp16(0x1.f5cp-1)];
            tensor<fp16, [1, 1, 32]> var_72_cast_fp16 = mul(x = mu_prev_cast_fp16, y = var_71_to_fp16)[name = string("op_72_cast_fp16")];
            fp16 var_73_to_fp16 = const()[name = string("op_73_to_fp16"), val = fp16(0x1.47cp-6)];
            tensor<fp16, [1, 1, 32]> var_74_cast_fp16 = mul(x = x_5_cast_fp16, y = var_73_to_fp16)[name = string("op_74_cast_fp16")];
            tensor<fp16, [1, 1, 32]> mu_next_cast_fp16 = add(x = var_72_cast_fp16, y = var_74_cast_fp16)[name = string("mu_next_cast_fp16")];
            tensor<fp16, [1, 1, 32]> var_76_cast_fp16 = sub(x = x_5_cast_fp16, y = mu_next_cast_fp16)[name = string("op_76_cast_fp16")];
            fp16 _inversed_feat_erb_y_0_to_fp16 = const()[name = string("_inversed_feat_erb_y_0_to_fp16"), val = fp16(0x1.998p-6)];
            tensor<fp16, [1, 1, 32]> _inversed_feat_erb_cast_fp16 = mul(x = var_76_cast_fp16, y = _inversed_feat_erb_y_0_to_fp16)[name = string("_inversed_feat_erb_cast_fp16")];
            tensor<int32, [1]> var_79 = const()[name = string("op_79"), val = tensor<int32, [1]>([-1])];
            tensor<fp16, [32]> erb_norm_state_out_cast_fp16 = reshape(shape = var_79, x = mu_next_cast_fp16)[name = string("erb_norm_state_out_cast_fp16")];
            fp16 var_51_promoted_1_to_fp16 = const()[name = string("op_51_promoted_1_to_fp16"), val = fp16(0x1p+1)];
            tensor<fp16, [1, 1, 96, 2]> var_84_cast_fp16 = pow(x = var_66_cast_fp16, y = var_51_promoted_1_to_fp16)[name = string("op_84_cast_fp16")];
            tensor<int32, [1]> var_86_axes_0 = const()[name = string("op_86_axes_0"), val = tensor<int32, [1]>([-1])];
            bool var_86_keep_dims_0 = const()[name = string("op_86_keep_dims_0"), val = bool(false)];
            tensor<fp16, [1, 1, 96]> var_86_cast_fp16 = reduce_sum(axes = var_86_axes_0, keep_dims = var_86_keep_dims_0, x = var_84_cast_fp16)[name = string("op_86_cast_fp16")];
            tensor<fp16, [1, 1, 96]> x_abs_cast_fp16 = sqrt(x = var_86_cast_fp16)[name = string("x_abs_cast_fp16")];
            tensor<int32, [1]> s_flat_begin_0 = const()[name = string("s_flat_begin_0"), val = tensor<int32, [1]>([32])];
            tensor<int32, [1]> s_flat_end_0 = const()[name = string("s_flat_end_0"), val = tensor<int32, [1]>([128])];
            tensor<bool, [1]> s_flat_end_mask_0 = const()[name = string("s_flat_end_mask_0"), val = tensor<bool, [1]>([false])];
            tensor<fp16, [96]> s_flat_cast_fp16 = slice_by_index(begin = s_flat_begin_0, end = s_flat_end_0, end_mask = s_flat_end_mask_0, x = state_in_to_fp16)[name = string("s_flat_cast_fp16")];
            tensor<int32, [3]> var_89 = const()[name = string("op_89"), val = tensor<int32, [3]>([1, 1, 96])];
            tensor<fp16, [1, 1, 96]> s_prev_cast_fp16 = reshape(shape = var_89, x = s_flat_cast_fp16)[name = string("s_prev_cast_fp16")];
            fp16 var_91_to_fp16 = const()[name = string("op_91_to_fp16"), val = fp16(0x1.f5cp-1)];
            tensor<fp16, [1, 1, 96]> var_92_cast_fp16 = mul(x = s_prev_cast_fp16, y = var_91_to_fp16)[name = string("op_92_cast_fp16")];
            fp16 var_93_to_fp16 = const()[name = string("op_93_to_fp16"), val = fp16(0x1.47cp-6)];
            tensor<fp16, [1, 1, 96]> var_94_cast_fp16 = mul(x = x_abs_cast_fp16, y = var_93_to_fp16)[name = string("op_94_cast_fp16")];
            tensor<fp16, [1, 1, 96]> s_next_cast_fp16 = add(x = var_92_cast_fp16, y = var_94_cast_fp16)[name = string("s_next_cast_fp16")];
            fp16 var_96_to_fp16 = const()[name = string("op_96_to_fp16"), val = fp16(0x1p-24)];
            tensor<fp16, [1, 1, 96]> var_97_cast_fp16 = add(x = s_next_cast_fp16, y = var_96_to_fp16)[name = string("op_97_cast_fp16")];
            tensor<fp16, [1, 1, 96]> denom_cast_fp16 = sqrt(x = var_97_cast_fp16)[name = string("denom_cast_fp16")];
            tensor<int32, [4]> var_99_begin_0 = const()[name = string("op_99_begin_0"), val = tensor<int32, [4]>([0, 0, 0, 0])];
            tensor<int32, [4]> var_99_end_0 = const()[name = string("op_99_end_0"), val = tensor<int32, [4]>([1, 1, 96, 1])];
            tensor<bool, [4]> var_99_end_mask_0 = const()[name = string("op_99_end_mask_0"), val = tensor<bool, [4]>([true, true, true, false])];
            tensor<bool, [4]> var_99_squeeze_mask_0 = const()[name = string("op_99_squeeze_mask_0"), val = tensor<bool, [4]>([false, false, false, true])];
            tensor<fp16, [1, 1, 96]> var_99_cast_fp16 = slice_by_index(begin = var_99_begin_0, end = var_99_end_0, end_mask = var_99_end_mask_0, squeeze_mask = var_99_squeeze_mask_0, x = var_66_cast_fp16)[name = string("op_99_cast_fp16")];
            tensor<fp16, [1, 1, 96]> x_r_norm_cast_fp16 = real_div(x = var_99_cast_fp16, y = denom_cast_fp16)[name = string("x_r_norm_cast_fp16")];
            tensor<int32, [4]> var_101_begin_0 = const()[name = string("op_101_begin_0"), val = tensor<int32, [4]>([0, 0, 0, 1])];
            tensor<int32, [4]> var_101_end_0 = const()[name = string("op_101_end_0"), val = tensor<int32, [4]>([1, 1, 96, 2])];
            tensor<bool, [4]> var_101_end_mask_0 = const()[name = string("op_101_end_mask_0"), val = tensor<bool, [4]>([true, true, true, false])];
            tensor<bool, [4]> var_101_squeeze_mask_0 = const()[name = string("op_101_squeeze_mask_0"), val = tensor<bool, [4]>([false, false, false, true])];
            tensor<fp16, [1, 1, 96]> var_101_cast_fp16 = slice_by_index(begin = var_101_begin_0, end = var_101_end_0, end_mask = var_101_end_mask_0, squeeze_mask = var_101_squeeze_mask_0, x = var_66_cast_fp16)[name = string("op_101_cast_fp16")];
            tensor<fp16, [1, 1, 96]> x_i_norm_cast_fp16 = real_div(x = var_101_cast_fp16, y = denom_cast_fp16)[name = string("x_i_norm_cast_fp16")];
            int32 feat_spec_axis_0 = const()[name = string("feat_spec_axis_0"), val = int32(-1)];
            tensor<fp16, [1, 1, 96, 2]> feat_spec_cast_fp16 = stack(axis = feat_spec_axis_0, values = (x_r_norm_cast_fp16, x_i_norm_cast_fp16))[name = string("feat_spec_cast_fp16")];
            tensor<int32, [1]> var_105 = const()[name = string("op_105"), val = tensor<int32, [1]>([-1])];
            tensor<fp16, [96]> spec_norm_state_out_cast_fp16 = reshape(shape = var_105, x = s_next_cast_fp16)[name = string("spec_norm_state_out_cast_fp16")];
            tensor<int32, [1]> x_93_axes_0 = const()[name = string("x_93_axes_0"), val = tensor<int32, [1]>([1])];
            tensor<fp16, [1, 1, 1, 161, 2]> x_93_cast_fp16 = expand_dims(axes = x_93_axes_0, x = x_1_cast_fp16)[name = string("x_93_cast_fp16")];
            tensor<int32, [1]> x_9_axes_0 = const()[name = string("x_9_axes_0"), val = tensor<int32, [1]>([1])];
            tensor<fp16, [1, 1, 1, 32]> x_9_cast_fp16 = expand_dims(axes = x_9_axes_0, x = _inversed_feat_erb_cast_fp16)[name = string("x_9_cast_fp16")];
            tensor<int32, [4]> transpose_5_perm_0 = const()[name = string("transpose_5_perm_0"), val = tensor<int32, [4]>([1, 0, 3, 2])];
            tensor<int32, [4]> var_124 = const()[name = string("op_124"), val = tensor<int32, [4]>([2, 0, 1, 3])];
            tensor<int32, [1]> buf_flat_1_begin_0 = const()[name = string("buf_flat_1_begin_0"), val = tensor<int32, [1]>([128])];
            tensor<int32, [1]> buf_flat_1_end_0 = const()[name = string("buf_flat_1_end_0"), val = tensor<int32, [1]>([224])];
            tensor<bool, [1]> buf_flat_1_end_mask_0 = const()[name = string("buf_flat_1_end_mask_0"), val = tensor<bool, [1]>([false])];
            tensor<fp16, [96]> buf_flat_1_cast_fp16 = slice_by_index(begin = buf_flat_1_begin_0, end = buf_flat_1_end_0, end_mask = buf_flat_1_end_mask_0, x = state_in_to_fp16)[name = string("buf_flat_1_cast_fp16")];
            tensor<int32, [4]> var_127 = const()[name = string("op_127"), val = tensor<int32, [4]>([3, 1, 1, 32])];
            tensor<fp16, [3, 1, 1, 32]> buf_1_cast_fp16 = reshape(shape = var_127, x = buf_flat_1_cast_fp16)[name = string("buf_1_cast_fp16")];
            tensor<int32, [4]> var_129_begin_0 = const()[name = string("op_129_begin_0"), val = tensor<int32, [4]>([1, 0, 0, 0])];
            tensor<int32, [4]> var_129_end_0 = const()[name = string("op_129_end_0"), val = tensor<int32, [4]>([3, 1, 1, 32])];
            tensor<bool, [4]> var_129_end_mask_0 = const()[name = string("op_129_end_mask_0"), val = tensor<bool, [4]>([true, true, true, true])];
            tensor<fp16, [2, 1, 1, 32]> var_129_cast_fp16 = slice_by_index(begin = var_129_begin_0, end = var_129_end_0, end_mask = var_129_end_mask_0, x = buf_1_cast_fp16)[name = string("op_129_cast_fp16")];
            bool buf_next_1_interleave_0 = const()[name = string("buf_next_1_interleave_0"), val = bool(false)];
            tensor<fp16, [1, 1, 1, 32]> x_tf_1_cast_fp16 = transpose(perm = var_124, x = x_9_cast_fp16)[name = string("transpose_48")];
            tensor<fp16, [3, 1, 1, 32]> buf_next_1_cast_fp16 = concat(axis = var_46, interleave = buf_next_1_interleave_0, values = (var_129_cast_fp16, x_tf_1_cast_fp16))[name = string("buf_next_1_cast_fp16")];
            tensor<int32, [4]> var_133 = const()[name = string("op_133"), val = tensor<int32, [4]>([1, 2, 0, 3])];
            tensor<int32, [1]> var_135 = const()[name = string("op_135"), val = tensor<int32, [1]>([-1])];
            tensor<fp16, [96]> erb_conv0_state_out_cast_fp16 = reshape(shape = var_135, x = buf_next_1_cast_fp16)[name = string("erb_conv0_state_out_cast_fp16")];
            string input_3_pad_type_0 = const()[name = string("input_3_pad_type_0"), val = string("custom")];
            tensor<int32, [4]> input_3_pad_0 = const()[name = string("input_3_pad_0"), val = tensor<int32, [4]>([0, 0, 1, 1])];
            tensor<int32, [2]> input_3_strides_0 = const()[name = string("input_3_strides_0"), val = tensor<int32, [2]>([1, 1])];
            tensor<int32, [2]> input_3_dilations_0 = const()[name = string("input_3_dilations_0"), val = tensor<int32, [2]>([1, 1])];
            int32 input_3_groups_0 = const()[name = string("input_3_groups_0"), val = int32(1)];
            tensor<fp16, [64, 1, 3, 3]> const_20_to_fp16 = const()[name = string("const_20_to_fp16"), val = tensor<fp16, [64, 1, 3, 3]>(BLOBFILE(path = string("@model_path/weights/weight.bin"), offset = uint64(10560)))];
            tensor<fp16, [64]> const_21_to_fp16 = const()[name = string("const_21_to_fp16"), val = tensor<fp16, [64]>(BLOBFILE(path = string("@model_path/weights/weight.bin"), offset = uint64(11776)))];
            tensor<fp16, [1, 1, 3, 32]> input_1_cast_fp16 = transpose(perm = var_133, x = buf_next_1_cast_fp16)[name = string("transpose_47")];
            tensor<fp16, [1, 64, 1, 32]> input_5_cast_fp16 = conv(bias = const_21_to_fp16, dilations = input_3_dilations_0, groups = input_3_groups_0, pad = input_3_pad_0, pad_type = input_3_pad_type_0, strides = input_3_strides_0, weight = const_20_to_fp16, x = input_1_cast_fp16)[name = string("input_5_cast_fp16")];
            tensor<fp16, [1, 64, 1, 32]> input_7_cast_fp16 = relu(x = input_5_cast_fp16)[name = string("input_7_cast_fp16")];
            string input_9_pad_type_0 = const()[name = string("input_9_pad_type_0"), val = string("custom")];
            tensor<int32, [4]> input_9_pad_0 = const()[name = string("input_9_pad_0"), val = tensor<int32, [4]>([0, 0, 1, 1])];
            tensor<int32, [2]> input_9_strides_0 = const()[name = string("input_9_strides_0"), val = tensor<int32, [2]>([1, 2])];
            int32 input_9_groups_0 = const()[name = string("input_9_groups_0"), val = int32(64)];
            tensor<int32, [2]> input_9_dilations_0 = const()[name = string("input_9_dilations_0"), val = tensor<int32, [2]>([1, 1])];
            tensor<fp16, [64, 1, 1, 3]> model_enc_erb_conv1_0_weight_to_fp16 = const()[name = string("model_enc_erb_conv1_0_weight_to_fp16"), val = tensor<fp16, [64, 1, 1, 3]>(BLOBFILE(path = string("@model_path/weights/weight.bin"), offset = uint64(11968)))];
            tensor<fp16, [1, 64, 1, 16]> input_9_cast_fp16 = conv(dilations = input_9_dilations_0, groups = input_9_groups_0, pad = input_9_pad_0, pad_type = input_9_pad_type_0, strides = input_9_strides_0, weight = model_enc_erb_conv1_0_weight_to_fp16, x = input_7_cast_fp16)[name = string("input_9_cast_fp16")];
            string input_11_pad_type_0 = const()[name = string("input_11_pad_type_0"), val = string("valid")];
            tensor<int32, [2]> input_11_strides_0 = const()[name = string("input_11_strides_0"), val = tensor<int32, [2]>([1, 1])];
            tensor<int32, [4]> input_11_pad_0 = const()[name = string("input_11_pad_0"), val = tensor<int32, [4]>([0, 0, 0, 0])];
            tensor<int32, [2]> input_11_dilations_0 = const()[name = string("input_11_dilations_0"), val = tensor<int32, [2]>([1, 1])];
            int32 input_11_groups_0 = const()[name = string("input_11_groups_0"), val = int32(1)];
            tensor<fp16, [64, 64, 1, 1]> const_22_to_fp16 = const()[name = string("const_22_to_fp16"), val = tensor<fp16, [64, 64, 1, 1]>(BLOBFILE(path = string("@model_path/weights/weight.bin"), offset = uint64(12416)))];
            tensor<fp16, [64]> const_23_to_fp16 = const()[name = string("const_23_to_fp16"), val = tensor<fp16, [64]>(BLOBFILE(path = string("@model_path/weights/weight.bin"), offset = uint64(20672)))];
            tensor<fp16, [1, 64, 1, 16]> input_13_cast_fp16 = conv(bias = const_23_to_fp16, dilations = input_11_dilations_0, groups = input_11_groups_0, pad = input_11_pad_0, pad_type = input_11_pad_type_0, strides = input_11_strides_0, weight = const_22_to_fp16, x = input_9_cast_fp16)[name = string("input_13_cast_fp16")];
            tensor<fp16, [1, 64, 1, 16]> input_15_cast_fp16 = relu(x = input_13_cast_fp16)[name = string("input_15_cast_fp16")];
            string input_17_pad_type_0 = const()[name = string("input_17_pad_type_0"), val = string("custom")];
            tensor<int32, [4]> input_17_pad_0 = const()[name = string("input_17_pad_0"), val = tensor<int32, [4]>([0, 0, 1, 1])];
            tensor<int32, [2]> input_17_strides_0 = const()[name = string("input_17_strides_0"), val = tensor<int32, [2]>([1, 2])];
            int32 input_17_groups_0 = const()[name = string("input_17_groups_0"), val = int32(64)];
            tensor<int32, [2]> input_17_dilations_0 = const()[name = string("input_17_dilations_0"), val = tensor<int32, [2]>([1, 1])];
            tensor<fp16, [64, 1, 1, 3]> model_enc_erb_conv2_0_weight_to_fp16 = const()[name = string("model_enc_erb_conv2_0_weight_to_fp16"), val = tensor<fp16, [64, 1, 1, 3]>(BLOBFILE(path = string("@model_path/weights/weight.bin"), offset = uint64(20864)))];
            tensor<fp16, [1, 64, 1, 8]> input_17_cast_fp16 = conv(dilations = input_17_dilations_0, groups = input_17_groups_0, pad = input_17_pad_0, pad_type = input_17_pad_type_0, strides = input_17_strides_0, weight = model_enc_erb_conv2_0_weight_to_fp16, x = input_15_cast_fp16)[name = string("input_17_cast_fp16")];
            string input_19_pad_type_0 = const()[name = string("input_19_pad_type_0"), val = string("valid")];
            tensor<int32, [2]> input_19_strides_0 = const()[name = string("input_19_strides_0"), val = tensor<int32, [2]>([1, 1])];
            tensor<int32, [4]> input_19_pad_0 = const()[name = string("input_19_pad_0"), val = tensor<int32, [4]>([0, 0, 0, 0])];
            tensor<int32, [2]> input_19_dilations_0 = const()[name = string("input_19_dilations_0"), val = tensor<int32, [2]>([1, 1])];
            int32 input_19_groups_0 = const()[name = string("input_19_groups_0"), val = int32(1)];
            tensor<fp16, [64, 64, 1, 1]> const_24_to_fp16 = const()[name = string("const_24_to_fp16"), val = tensor<fp16, [64, 64, 1, 1]>(BLOBFILE(path = string("@model_path/weights/weight.bin"), offset = uint64(21312)))];
            tensor<fp16, [64]> const_25_to_fp16 = const()[name = string("const_25_to_fp16"), val = tensor<fp16, [64]>(BLOBFILE(path = string("@model_path/weights/weight.bin"), offset = uint64(29568)))];
            tensor<fp16, [1, 64, 1, 8]> input_21_cast_fp16 = conv(bias = const_25_to_fp16, dilations = input_19_dilations_0, groups = input_19_groups_0, pad = input_19_pad_0, pad_type = input_19_pad_type_0, strides = input_19_strides_0, weight = const_24_to_fp16, x = input_17_cast_fp16)[name = string("input_21_cast_fp16")];
            tensor<fp16, [1, 64, 1, 8]> input_23_cast_fp16 = relu(x = input_21_cast_fp16)[name = string("input_23_cast_fp16")];
            string input_25_pad_type_0 = const()[name = string("input_25_pad_type_0"), val = string("custom")];
            tensor<int32, [4]> input_25_pad_0 = const()[name = string("input_25_pad_0"), val = tensor<int32, [4]>([0, 0, 1, 1])];
            int32 input_25_groups_0 = const()[name = string("input_25_groups_0"), val = int32(64)];
            tensor<int32, [2]> input_25_strides_0 = const()[name = string("input_25_strides_0"), val = tensor<int32, [2]>([1, 1])];
            tensor<int32, [2]> input_25_dilations_0 = const()[name = string("input_25_dilations_0"), val = tensor<int32, [2]>([1, 1])];
            tensor<fp16, [64, 1, 1, 3]> model_enc_erb_conv3_0_weight_to_fp16 = const()[name = string("model_enc_erb_conv3_0_weight_to_fp16"), val = tensor<fp16, [64, 1, 1, 3]>(BLOBFILE(path = string("@model_path/weights/weight.bin"), offset = uint64(29760)))];
            tensor<fp16, [1, 64, 1, 8]> input_25_cast_fp16 = conv(dilations = input_25_dilations_0, groups = input_25_groups_0, pad = input_25_pad_0, pad_type = input_25_pad_type_0, strides = input_25_strides_0, weight = model_enc_erb_conv3_0_weight_to_fp16, x = input_23_cast_fp16)[name = string("input_25_cast_fp16")];
            string input_27_pad_type_0 = const()[name = string("input_27_pad_type_0"), val = string("valid")];
            tensor<int32, [2]> input_27_strides_0 = const()[name = string("input_27_strides_0"), val = tensor<int32, [2]>([1, 1])];
            tensor<int32, [4]> input_27_pad_0 = const()[name = string("input_27_pad_0"), val = tensor<int32, [4]>([0, 0, 0, 0])];
            tensor<int32, [2]> input_27_dilations_0 = const()[name = string("input_27_dilations_0"), val = tensor<int32, [2]>([1, 1])];
            int32 input_27_groups_0 = const()[name = string("input_27_groups_0"), val = int32(1)];
            tensor<fp16, [64, 64, 1, 1]> const_26_to_fp16 = const()[name = string("const_26_to_fp16"), val = tensor<fp16, [64, 64, 1, 1]>(BLOBFILE(path = string("@model_path/weights/weight.bin"), offset = uint64(30208)))];
            tensor<fp16, [64]> const_27_to_fp16 = const()[name = string("const_27_to_fp16"), val = tensor<fp16, [64]>(BLOBFILE(path = string("@model_path/weights/weight.bin"), offset = uint64(38464)))];
            tensor<fp16, [1, 64, 1, 8]> input_29_cast_fp16 = conv(bias = const_27_to_fp16, dilations = input_27_dilations_0, groups = input_27_groups_0, pad = input_27_pad_0, pad_type = input_27_pad_type_0, strides = input_27_strides_0, weight = const_26_to_fp16, x = input_25_cast_fp16)[name = string("input_29_cast_fp16")];
            tensor<fp16, [1, 64, 1, 8]> inputs_1_cast_fp16 = relu(x = input_29_cast_fp16)[name = string("inputs_1_cast_fp16")];
            tensor<int32, [1]> var_227_axes_0 = const()[name = string("op_227_axes_0"), val = tensor<int32, [1]>([2])];
            tensor<fp16, [1, 64, 8]> var_227_cast_fp16 = squeeze(axes = var_227_axes_0, x = inputs_1_cast_fp16)[name = string("op_227_cast_fp16")];
            tensor<int32, [3]> transpose_6_perm_0 = const()[name = string("transpose_6_perm_0"), val = tensor<int32, [3]>([2, 0, 1])];
            tensor<int32, [1]> slice_by_index_1 = const()[name = string("slice_by_index_1"), val = tensor<int32, [1]>([8])];
            tensor<fp32, [9, 1, 64]> concat_1 = const()[name = string("concat_1"), val = tensor<fp32, [9, 1, 64]>(BLOBFILE(path = string("@model_path/weights/weight.bin"), offset = uint64(38656)))];
            tensor<int32, [1]> while_loop_0_loop_vars0_0 = const()[name = string("while_loop_0_loop_vars0_0"), val = tensor<int32, [1]>([0])];
            tensor<fp16, [8, 1, 64]> transpose_6_cast_fp16 = transpose(perm = transpose_6_perm_0, x = var_227_cast_fp16)[name = string("transpose_46")];
            tensor<int32, [1]> while_loop_0_0, tensor<fp32, [9, 1, 64]> while_loop_0_1 = while_loop(loop_vars = (while_loop_0_loop_vars0_0, concat_1))[name = string("while_loop_0")]
                (tensor<int32, [1]> while_loop_0_loop_vars0_0_x0_1_1_1_0, tensor<fp32, [9, 1, 64]> concat_1_x0_1_1_1_0) {
                    tensor<bool, [1]> less_1 = less(x = while_loop_0_loop_vars0_0_x0_1_1_1_0, y = slice_by_index_1)[name = string("less_1")];
                } -> (less_1)
                (tensor<int32, [1]> while_loop_0_loop_vars0_0_x0_1_1_1_1, tensor<fp32, [9, 1, 64]> concat_1_x0_1_1_1_1) {
                    int32 gather_2_axis_0 = const()[name = string("gather_2_axis_0"), val = int32(0)];
                    int32 gather_2_batch_dims_0 = const()[name = string("gather_2_batch_dims_0"), val = int32(0)];
                    bool gather_2_validate_indices_0 = const()[name = string("gather_2_validate_indices_0"), val = bool(false)];
                    string while_loop_0_loop_vars0_0_x0_1_to_uint16_dtype_0 = const()[name = string("while_loop_0_loop_vars0_0_x0_1_to_uint16_dtype_0"), val = string("uint16")];
                    tensor<uint16, [1]> while_loop_0_loop_vars0_0_x0_1_to_uint16 = cast(dtype = while_loop_0_loop_vars0_0_x0_1_to_uint16_dtype_0, x = while_loop_0_loop_vars0_0_x0_1_1_1_1)[name = string("cast_98")];
                    tensor<fp16, [1, 1, 64]> gather_2_cast_fp16_cast_uint16 = gather(axis = gather_2_axis_0, batch_dims = gather_2_batch_dims_0, indices = while_loop_0_loop_vars0_0_x0_1_to_uint16, validate_indices = gather_2_validate_indices_0, x = transpose_6_cast_fp16)[name = string("gather_2_cast_fp16_cast_uint16")];
                    int32 gather_3_axis_0 = const()[name = string("gather_3_axis_0"), val = int32(0)];
                    int32 gather_3_batch_dims_0 = const()[name = string("gather_3_batch_dims_0"), val = int32(0)];
                    bool gather_3_validate_indices_0 = const()[name = string("gather_3_validate_indices_0"), val = bool(false)];
                    string concat_1_x0_1_to_fp16_dtype_0 = const()[name = string("concat_1_x0_1_to_fp16_dtype_0"), val = string("fp16")];
                    tensor<fp16, [9, 1, 64]> concat_1_x0_1_to_fp16 = cast(dtype = concat_1_x0_1_to_fp16_dtype_0, x = concat_1_x0_1_1_1_1)[name = string("cast_97")];
                    tensor<fp16, [1, 1, 64]> gather_3_cast_fp16_cast_uint16 = gather(axis = gather_3_axis_0, batch_dims = gather_3_batch_dims_0, indices = while_loop_0_loop_vars0_0_x0_1_to_uint16, validate_indices = gather_3_validate_indices_0, x = concat_1_x0_1_to_fp16)[name = string("gather_3_cast_fp16_cast_uint16")];
                    tensor<int32, [1]> squeeze_2_axes_0 = const()[name = string("squeeze_2_axes_0"), val = tensor<int32, [1]>([0])];
                    tensor<fp16, [1, 64]> squeeze_2_cast_fp16 = squeeze(axes = squeeze_2_axes_0, x = gather_2_cast_fp16_cast_uint16)[name = string("squeeze_2_cast_fp16")];
                    tensor<int32, [1]> squeeze_3_axes_0 = const()[name = string("squeeze_3_axes_0"), val = tensor<int32, [1]>([0])];
                    tensor<fp16, [1, 64]> squeeze_3_cast_fp16 = squeeze(axes = squeeze_3_axes_0, x = gather_3_cast_fp16_cast_uint16)[name = string("squeeze_3_cast_fp16")];
                    tensor<fp16, [64, 64]> linear_6_weight_0_to_fp16 = const()[name = string("linear_6_weight_0_to_fp16"), val = tensor<fp16, [64, 64]>(BLOBFILE(path = string("@model_path/weights/weight.bin"), offset = uint64(41024)))];
                    tensor<fp16, [64]> linear_6_bias_0_to_fp16 = const()[name = string("linear_6_bias_0_to_fp16"), val = tensor<fp16, [64]>(BLOBFILE(path = string("@model_path/weights/weight.bin"), offset = uint64(49280)))];
                    tensor<fp16, [1, 64]> linear_6_cast_fp16 = linear(bias = linear_6_bias_0_to_fp16, weight = linear_6_weight_0_to_fp16, x = squeeze_2_cast_fp16)[name = string("linear_6_cast_fp16")];
                    tensor<fp16, [64, 64]> linear_7_weight_0_to_fp16 = const()[name = string("linear_7_weight_0_to_fp16"), val = tensor<fp16, [64, 64]>(BLOBFILE(path = string("@model_path/weights/weight.bin"), offset = uint64(49472)))];
                    tensor<fp16, [64]> linear_7_bias_0_to_fp16 = const()[name = string("linear_7_bias_0_to_fp16"), val = tensor<fp16, [64]>(BLOBFILE(path = string("@model_path/weights/weight.bin"), offset = uint64(57728)))];
                    tensor<fp16, [1, 64]> linear_7_cast_fp16 = linear(bias = linear_7_bias_0_to_fp16, weight = linear_7_weight_0_to_fp16, x = squeeze_3_cast_fp16)[name = string("linear_7_cast_fp16")];
                    tensor<fp16, [1, 64]> add_5_cast_fp16 = add(x = linear_6_cast_fp16, y = linear_7_cast_fp16)[name = string("add_5_cast_fp16")];
                    tensor<fp16, [1, 64]> sigmoid_2_cast_fp16 = sigmoid(x = add_5_cast_fp16)[name = string("sigmoid_2_cast_fp16")];
                    tensor<fp16, [64, 64]> linear_8_weight_0_to_fp16 = const()[name = string("linear_8_weight_0_to_fp16"), val = tensor<fp16, [64, 64]>(BLOBFILE(path = string("@model_path/weights/weight.bin"), offset = uint64(57920)))];
                    tensor<fp16, [64]> linear_8_bias_0_to_fp16 = const()[name = string("linear_8_bias_0_to_fp16"), val = tensor<fp16, [64]>(BLOBFILE(path = string("@model_path/weights/weight.bin"), offset = uint64(66176)))];
                    tensor<fp16, [1, 64]> linear_8_cast_fp16 = linear(bias = linear_8_bias_0_to_fp16, weight = linear_8_weight_0_to_fp16, x = squeeze_2_cast_fp16)[name = string("linear_8_cast_fp16")];
                    tensor<fp16, [64, 64]> linear_9_weight_0_to_fp16 = const()[name = string("linear_9_weight_0_to_fp16"), val = tensor<fp16, [64, 64]>(BLOBFILE(path = string("@model_path/weights/weight.bin"), offset = uint64(66368)))];
                    tensor<fp16, [64]> linear_9_bias_0_to_fp16 = const()[name = string("linear_9_bias_0_to_fp16"), val = tensor<fp16, [64]>(BLOBFILE(path = string("@model_path/weights/weight.bin"), offset = uint64(74624)))];
                    tensor<fp16, [1, 64]> linear_9_cast_fp16 = linear(bias = linear_9_bias_0_to_fp16, weight = linear_9_weight_0_to_fp16, x = squeeze_3_cast_fp16)[name = string("linear_9_cast_fp16")];
                    tensor<fp16, [1, 64]> add_6_cast_fp16 = add(x = linear_8_cast_fp16, y = linear_9_cast_fp16)[name = string("add_6_cast_fp16")];
                    tensor<fp16, [1, 64]> sigmoid_3_cast_fp16 = sigmoid(x = add_6_cast_fp16)[name = string("sigmoid_3_cast_fp16")];
                    tensor<fp16, [64, 64]> linear_10_weight_0_to_fp16 = const()[name = string("linear_10_weight_0_to_fp16"), val = tensor<fp16, [64, 64]>(BLOBFILE(path = string("@model_path/weights/weight.bin"), offset = uint64(74816)))];
                    tensor<fp16, [64]> linear_10_bias_0_to_fp16 = const()[name = string("linear_10_bias_0_to_fp16"), val = tensor<fp16, [64]>(BLOBFILE(path = string("@model_path/weights/weight.bin"), offset = uint64(83072)))];
                    tensor<fp16, [1, 64]> linear_10_cast_fp16 = linear(bias = linear_10_bias_0_to_fp16, weight = linear_10_weight_0_to_fp16, x = squeeze_2_cast_fp16)[name = string("linear_10_cast_fp16")];
                    tensor<fp16, [64, 64]> linear_11_weight_0_to_fp16 = const()[name = string("linear_11_weight_0_to_fp16"), val = tensor<fp16, [64, 64]>(BLOBFILE(path = string("@model_path/weights/weight.bin"), offset = uint64(83264)))];
                    tensor<fp16, [64]> linear_11_bias_0_to_fp16 = const()[name = string("linear_11_bias_0_to_fp16"), val = tensor<fp16, [64]>(BLOBFILE(path = string("@model_path/weights/weight.bin"), offset = uint64(91520)))];
                    tensor<fp16, [1, 64]> linear_11_cast_fp16 = linear(bias = linear_11_bias_0_to_fp16, weight = linear_11_weight_0_to_fp16, x = squeeze_3_cast_fp16)[name = string("linear_11_cast_fp16")];
                    tensor<fp16, [1, 64]> mul_4_cast_fp16 = mul(x = sigmoid_2_cast_fp16, y = linear_11_cast_fp16)[name = string("mul_4_cast_fp16")];
                    tensor<fp16, [1, 64]> add_7_cast_fp16 = add(x = linear_10_cast_fp16, y = mul_4_cast_fp16)[name = string("add_7_cast_fp16")];
                    tensor<fp16, [1, 64]> tanh_1_cast_fp16 = tanh(x = add_7_cast_fp16)[name = string("tanh_1_cast_fp16")];
                    fp16 sub_1_x_0_to_fp16 = const()[name = string("sub_1_x_0_to_fp16"), val = fp16(0x1p+0)];
                    tensor<fp16, [1, 64]> sub_1_cast_fp16 = sub(x = sub_1_x_0_to_fp16, y = sigmoid_3_cast_fp16)[name = string("sub_1_cast_fp16")];
                    tensor<fp16, [1, 64]> mul_5_cast_fp16 = mul(x = sub_1_cast_fp16, y = tanh_1_cast_fp16)[name = string("mul_5_cast_fp16")];
                    tensor<fp16, [1, 64]> mul_6_cast_fp16 = mul(x = sigmoid_3_cast_fp16, y = squeeze_3_cast_fp16)[name = string("mul_6_cast_fp16")];
                    tensor<fp16, [1, 64]> add_8_cast_fp16 = add(x = mul_5_cast_fp16, y = mul_6_cast_fp16)[name = string("add_8_cast_fp16")];
                    int32 add_9_y_0 = const()[name = string("add_9_y_0"), val = int32(1)];
                    tensor<int32, [1]> add_9 = add(x = while_loop_0_loop_vars0_0_x0_1_1_1_1, y = add_9_y_0)[name = string("add_9")];
                    tensor<int32, [1]> expand_dims_1_axes_0 = const()[name = string("expand_dims_1_axes_0"), val = tensor<int32, [1]>([0])];
                    tensor<fp16, [1, 1, 64]> expand_dims_1_cast_fp16 = expand_dims(axes = expand_dims_1_axes_0, x = add_8_cast_fp16)[name = string("expand_dims_1_cast_fp16")];
                    int32 scatter_1_axis_0 = const()[name = string("scatter_1_axis_0"), val = int32(0)];
                    string scatter_1_mode_0 = const()[name = string("scatter_1_mode_0"), val = string("add")];
                    bool scatter_1_validate_indices_0 = const()[name = string("scatter_1_validate_indices_0"), val = bool(false)];
                    tensor<fp16, [9, 1, 64]> scatter_1_cast_fp16 = scatter(axis = scatter_1_axis_0, data = concat_1_x0_1_to_fp16, indices = add_9, mode = scatter_1_mode_0, updates = expand_dims_1_cast_fp16, validate_indices = scatter_1_validate_indices_0)[name = string("scatter_1_cast_fp16")];
                    string scatter_1_cast_fp16_to_fp32_dtype_0 = const()[name = string("scatter_1_cast_fp16_to_fp32_dtype_0"), val = string("fp32")];
                    tensor<fp32, [9, 1, 64]> scatter_1_cast_fp16_to_fp32 = cast(dtype = scatter_1_cast_fp16_to_fp32_dtype_0, x = scatter_1_cast_fp16)[name = string("cast_96")];
                } -> (add_9, scatter_1_cast_fp16_to_fp32);
            tensor<int32, [3]> input_33_tmp_forward_begin_0 = const()[name = string("input_33_tmp_forward_begin_0"), val = tensor<int32, [3]>([1, 0, 0])];
            tensor<int32, [3]> input_33_tmp_forward_end_0 = const()[name = string("input_33_tmp_forward_end_0"), val = tensor<int32, [3]>([0, 0, 0])];
            tensor<bool, [3]> input_33_tmp_forward_begin_mask_0 = const()[name = string("input_33_tmp_forward_begin_mask_0"), val = tensor<bool, [3]>([false, true, true])];
            tensor<bool, [3]> input_33_tmp_forward_end_mask_0 = const()[name = string("input_33_tmp_forward_end_mask_0"), val = tensor<bool, [3]>([true, true, true])];
            string while_loop_0_1_to_fp16_dtype_0 = const()[name = string("while_loop_0_1_to_fp16_dtype_0"), val = string("fp16")];
            tensor<fp16, [9, 1, 64]> while_loop_0_1_to_fp16 = cast(dtype = while_loop_0_1_to_fp16_dtype_0, x = while_loop_0_1)[name = string("cast_95")];
            tensor<fp16, [8, 1, 64]> input_33_tmp_forward_cast_fp16 = slice_by_index(begin = input_33_tmp_forward_begin_0, begin_mask = input_33_tmp_forward_begin_mask_0, end = input_33_tmp_forward_end_0, end_mask = input_33_tmp_forward_end_mask_0, x = while_loop_0_1_to_fp16)[name = string("input_33_tmp_forward_cast_fp16")];
            tensor<int32, [1]> reverse_0_axes_0 = const()[name = string("reverse_0_axes_0"), val = tensor<int32, [1]>([0])];
            tensor<fp16, [8, 1, 64]> reverse_0_cast_fp16 = reverse(axes = reverse_0_axes_0, x = transpose_6_cast_fp16)[name = string("reverse_0_cast_fp16")];
            tensor<int32, [1]> slice_by_index_4 = const()[name = string("slice_by_index_4"), val = tensor<int32, [1]>([8])];
            tensor<int32, [1]> while_loop_1_loop_vars0_0 = const()[name = string("while_loop_1_loop_vars0_0"), val = tensor<int32, [1]>([0])];
            tensor<int32, [1]> while_loop_1_0, tensor<fp32, [9, 1, 64]> while_loop_1_1 = while_loop(loop_vars = (while_loop_1_loop_vars0_0, concat_1))[name = string("while_loop_1")]
                (tensor<int32, [1]> while_loop_1_loop_vars0_0_x0_1_1_1_0, tensor<fp32, [9, 1, 64]> concat_3_x0_1_1_1_0) {
                    tensor<bool, [1]> less_3 = less(x = while_loop_1_loop_vars0_0_x0_1_1_1_0, y = slice_by_index_4)[name = string("less_3")];
                } -> (less_3)
                (tensor<int32, [1]> while_loop_1_loop_vars0_0_x0_1_1_1_1, tensor<fp32, [9, 1, 64]> concat_3_x0_1_1_1_1) {
                    int32 gather_6_axis_0 = const()[name = string("gather_6_axis_0"), val = int32(0)];
                    int32 gather_6_batch_dims_0 = const()[name = string("gather_6_batch_dims_0"), val = int32(0)];
                    bool gather_6_validate_indices_0 = const()[name = string("gather_6_validate_indices_0"), val = bool(false)];
                    string while_loop_1_loop_vars0_0_x0_1_to_uint16_dtype_0 = const()[name = string("while_loop_1_loop_vars0_0_x0_1_to_uint16_dtype_0"), val = string("uint16")];
                    tensor<uint16, [1]> while_loop_1_loop_vars0_0_x0_1_to_uint16 = cast(dtype = while_loop_1_loop_vars0_0_x0_1_to_uint16_dtype_0, x = while_loop_1_loop_vars0_0_x0_1_1_1_1)[name = string("cast_94")];
                    tensor<fp16, [1, 1, 64]> gather_6_cast_fp16_cast_uint16 = gather(axis = gather_6_axis_0, batch_dims = gather_6_batch_dims_0, indices = while_loop_1_loop_vars0_0_x0_1_to_uint16, validate_indices = gather_6_validate_indices_0, x = reverse_0_cast_fp16)[name = string("gather_6_cast_fp16_cast_uint16")];
                    int32 gather_7_axis_0 = const()[name = string("gather_7_axis_0"), val = int32(0)];
                    int32 gather_7_batch_dims_0 = const()[name = string("gather_7_batch_dims_0"), val = int32(0)];
                    bool gather_7_validate_indices_0 = const()[name = string("gather_7_validate_indices_0"), val = bool(false)];
                    string concat_3_x0_1_to_fp16_dtype_0 = const()[name = string("concat_3_x0_1_to_fp16_dtype_0"), val = string("fp16")];
                    tensor<fp16, [9, 1, 64]> concat_3_x0_1_to_fp16 = cast(dtype = concat_3_x0_1_to_fp16_dtype_0, x = concat_3_x0_1_1_1_1)[name = string("cast_93")];
                    tensor<fp16, [1, 1, 64]> gather_7_cast_fp16_cast_uint16 = gather(axis = gather_7_axis_0, batch_dims = gather_7_batch_dims_0, indices = while_loop_1_loop_vars0_0_x0_1_to_uint16, validate_indices = gather_7_validate_indices_0, x = concat_3_x0_1_to_fp16)[name = string("gather_7_cast_fp16_cast_uint16")];
                    tensor<int32, [1]> squeeze_6_axes_0 = const()[name = string("squeeze_6_axes_0"), val = tensor<int32, [1]>([0])];
                    tensor<fp16, [1, 64]> squeeze_6_cast_fp16 = squeeze(axes = squeeze_6_axes_0, x = gather_6_cast_fp16_cast_uint16)[name = string("squeeze_6_cast_fp16")];
                    tensor<int32, [1]> squeeze_7_axes_0 = const()[name = string("squeeze_7_axes_0"), val = tensor<int32, [1]>([0])];
                    tensor<fp16, [1, 64]> squeeze_7_cast_fp16 = squeeze(axes = squeeze_7_axes_0, x = gather_7_cast_fp16_cast_uint16)[name = string("squeeze_7_cast_fp16")];
                    tensor<fp16, [64, 64]> linear_18_weight_0_to_fp16 = const()[name = string("linear_18_weight_0_to_fp16"), val = tensor<fp16, [64, 64]>(BLOBFILE(path = string("@model_path/weights/weight.bin"), offset = uint64(91712)))];
                    tensor<fp16, [64]> linear_18_bias_0_to_fp16 = const()[name = string("linear_18_bias_0_to_fp16"), val = tensor<fp16, [64]>(BLOBFILE(path = string("@model_path/weights/weight.bin"), offset = uint64(99968)))];
                    tensor<fp16, [1, 64]> linear_18_cast_fp16 = linear(bias = linear_18_bias_0_to_fp16, weight = linear_18_weight_0_to_fp16, x = squeeze_6_cast_fp16)[name = string("linear_18_cast_fp16")];
                    tensor<fp16, [64, 64]> linear_19_weight_0_to_fp16 = const()[name = string("linear_19_weight_0_to_fp16"), val = tensor<fp16, [64, 64]>(BLOBFILE(path = string("@model_path/weights/weight.bin"), offset = uint64(100160)))];
                    tensor<fp16, [64]> linear_19_bias_0_to_fp16 = const()[name = string("linear_19_bias_0_to_fp16"), val = tensor<fp16, [64]>(BLOBFILE(path = string("@model_path/weights/weight.bin"), offset = uint64(108416)))];
                    tensor<fp16, [1, 64]> linear_19_cast_fp16 = linear(bias = linear_19_bias_0_to_fp16, weight = linear_19_weight_0_to_fp16, x = squeeze_7_cast_fp16)[name = string("linear_19_cast_fp16")];
                    tensor<fp16, [1, 64]> add_15_cast_fp16 = add(x = linear_18_cast_fp16, y = linear_19_cast_fp16)[name = string("add_15_cast_fp16")];
                    tensor<fp16, [1, 64]> sigmoid_6_cast_fp16 = sigmoid(x = add_15_cast_fp16)[name = string("sigmoid_6_cast_fp16")];
                    tensor<fp16, [64, 64]> linear_20_weight_0_to_fp16 = const()[name = string("linear_20_weight_0_to_fp16"), val = tensor<fp16, [64, 64]>(BLOBFILE(path = string("@model_path/weights/weight.bin"), offset = uint64(108608)))];
                    tensor<fp16, [64]> linear_20_bias_0_to_fp16 = const()[name = string("linear_20_bias_0_to_fp16"), val = tensor<fp16, [64]>(BLOBFILE(path = string("@model_path/weights/weight.bin"), offset = uint64(116864)))];
                    tensor<fp16, [1, 64]> linear_20_cast_fp16 = linear(bias = linear_20_bias_0_to_fp16, weight = linear_20_weight_0_to_fp16, x = squeeze_6_cast_fp16)[name = string("linear_20_cast_fp16")];
                    tensor<fp16, [64, 64]> linear_21_weight_0_to_fp16 = const()[name = string("linear_21_weight_0_to_fp16"), val = tensor<fp16, [64, 64]>(BLOBFILE(path = string("@model_path/weights/weight.bin"), offset = uint64(117056)))];
                    tensor<fp16, [64]> linear_21_bias_0_to_fp16 = const()[name = string("linear_21_bias_0_to_fp16"), val = tensor<fp16, [64]>(BLOBFILE(path = string("@model_path/weights/weight.bin"), offset = uint64(125312)))];
                    tensor<fp16, [1, 64]> linear_21_cast_fp16 = linear(bias = linear_21_bias_0_to_fp16, weight = linear_21_weight_0_to_fp16, x = squeeze_7_cast_fp16)[name = string("linear_21_cast_fp16")];
                    tensor<fp16, [1, 64]> add_16_cast_fp16 = add(x = linear_20_cast_fp16, y = linear_21_cast_fp16)[name = string("add_16_cast_fp16")];
                    tensor<fp16, [1, 64]> sigmoid_7_cast_fp16 = sigmoid(x = add_16_cast_fp16)[name = string("sigmoid_7_cast_fp16")];
                    tensor<fp16, [64, 64]> linear_22_weight_0_to_fp16 = const()[name = string("linear_22_weight_0_to_fp16"), val = tensor<fp16, [64, 64]>(BLOBFILE(path = string("@model_path/weights/weight.bin"), offset = uint64(125504)))];
                    tensor<fp16, [64]> linear_22_bias_0_to_fp16 = const()[name = string("linear_22_bias_0_to_fp16"), val = tensor<fp16, [64]>(BLOBFILE(path = string("@model_path/weights/weight.bin"), offset = uint64(133760)))];
                    tensor<fp16, [1, 64]> linear_22_cast_fp16 = linear(bias = linear_22_bias_0_to_fp16, weight = linear_22_weight_0_to_fp16, x = squeeze_6_cast_fp16)[name = string("linear_22_cast_fp16")];
                    tensor<fp16, [64, 64]> linear_23_weight_0_to_fp16 = const()[name = string("linear_23_weight_0_to_fp16"), val = tensor<fp16, [64, 64]>(BLOBFILE(path = string("@model_path/weights/weight.bin"), offset = uint64(133952)))];
                    tensor<fp16, [64]> linear_23_bias_0_to_fp16 = const()[name = string("linear_23_bias_0_to_fp16"), val = tensor<fp16, [64]>(BLOBFILE(path = string("@model_path/weights/weight.bin"), offset = uint64(142208)))];
                    tensor<fp16, [1, 64]> linear_23_cast_fp16 = linear(bias = linear_23_bias_0_to_fp16, weight = linear_23_weight_0_to_fp16, x = squeeze_7_cast_fp16)[name = string("linear_23_cast_fp16")];
                    tensor<fp16, [1, 64]> mul_10_cast_fp16 = mul(x = sigmoid_6_cast_fp16, y = linear_23_cast_fp16)[name = string("mul_10_cast_fp16")];
                    tensor<fp16, [1, 64]> add_17_cast_fp16 = add(x = linear_22_cast_fp16, y = mul_10_cast_fp16)[name = string("add_17_cast_fp16")];
                    tensor<fp16, [1, 64]> tanh_3_cast_fp16 = tanh(x = add_17_cast_fp16)[name = string("tanh_3_cast_fp16")];
                    fp16 sub_3_x_0_to_fp16 = const()[name = string("sub_3_x_0_to_fp16"), val = fp16(0x1p+0)];
                    tensor<fp16, [1, 64]> sub_3_cast_fp16 = sub(x = sub_3_x_0_to_fp16, y = sigmoid_7_cast_fp16)[name = string("sub_3_cast_fp16")];
                    tensor<fp16, [1, 64]> mul_11_cast_fp16 = mul(x = sub_3_cast_fp16, y = tanh_3_cast_fp16)[name = string("mul_11_cast_fp16")];
                    tensor<fp16, [1, 64]> mul_12_cast_fp16 = mul(x = sigmoid_7_cast_fp16, y = squeeze_7_cast_fp16)[name = string("mul_12_cast_fp16")];
                    tensor<fp16, [1, 64]> add_18_cast_fp16 = add(x = mul_11_cast_fp16, y = mul_12_cast_fp16)[name = string("add_18_cast_fp16")];
                    int32 add_19_y_0 = const()[name = string("add_19_y_0"), val = int32(1)];
                    tensor<int32, [1]> add_19 = add(x = while_loop_1_loop_vars0_0_x0_1_1_1_1, y = add_19_y_0)[name = string("add_19")];
                    tensor<int32, [1]> expand_dims_3_axes_0 = const()[name = string("expand_dims_3_axes_0"), val = tensor<int32, [1]>([0])];
                    tensor<fp16, [1, 1, 64]> expand_dims_3_cast_fp16 = expand_dims(axes = expand_dims_3_axes_0, x = add_18_cast_fp16)[name = string("expand_dims_3_cast_fp16")];
                    int32 scatter_3_axis_0 = const()[name = string("scatter_3_axis_0"), val = int32(0)];
                    string scatter_3_mode_0 = const()[name = string("scatter_3_mode_0"), val = string("add")];
                    bool scatter_3_validate_indices_0 = const()[name = string("scatter_3_validate_indices_0"), val = bool(false)];
                    tensor<fp16, [9, 1, 64]> scatter_3_cast_fp16 = scatter(axis = scatter_3_axis_0, data = concat_3_x0_1_to_fp16, indices = add_19, mode = scatter_3_mode_0, updates = expand_dims_3_cast_fp16, validate_indices = scatter_3_validate_indices_0)[name = string("scatter_3_cast_fp16")];
                    string scatter_3_cast_fp16_to_fp32_dtype_0 = const()[name = string("scatter_3_cast_fp16_to_fp32_dtype_0"), val = string("fp32")];
                    tensor<fp32, [9, 1, 64]> scatter_3_cast_fp16_to_fp32 = cast(dtype = scatter_3_cast_fp16_to_fp32_dtype_0, x = scatter_3_cast_fp16)[name = string("cast_92")];
                } -> (add_19, scatter_3_cast_fp16_to_fp32);
            tensor<int32, [3]> input_33_tmp_backward_reverse_begin_0 = const()[name = string("input_33_tmp_backward_reverse_begin_0"), val = tensor<int32, [3]>([1, 0, 0])];
            tensor<int32, [3]> input_33_tmp_backward_reverse_end_0 = const()[name = string("input_33_tmp_backward_reverse_end_0"), val = tensor<int32, [3]>([0, 0, 0])];
            tensor<bool, [3]> input_33_tmp_backward_reverse_begin_mask_0 = const()[name = string("input_33_tmp_backward_reverse_begin_mask_0"), val = tensor<bool, [3]>([false, true, true])];
            tensor<bool, [3]> input_33_tmp_backward_reverse_end_mask_0 = const()[name = string("input_33_tmp_backward_reverse_end_mask_0"), val = tensor<bool, [3]>([true, true, true])];
            string while_loop_1_1_to_fp16_dtype_0 = const()[name = string("while_loop_1_1_to_fp16_dtype_0"), val = string("fp16")];
            tensor<fp16, [9, 1, 64]> while_loop_1_1_to_fp16 = cast(dtype = while_loop_1_1_to_fp16_dtype_0, x = while_loop_1_1)[name = string("cast_91")];
            tensor<fp16, [8, 1, 64]> input_33_tmp_backward_reverse_cast_fp16 = slice_by_index(begin = input_33_tmp_backward_reverse_begin_0, begin_mask = input_33_tmp_backward_reverse_begin_mask_0, end = input_33_tmp_backward_reverse_end_0, end_mask = input_33_tmp_backward_reverse_end_mask_0, x = while_loop_1_1_to_fp16)[name = string("input_33_tmp_backward_reverse_cast_fp16")];
            tensor<int32, [1]> input_33_tmp_backward_axes_0 = const()[name = string("input_33_tmp_backward_axes_0"), val = tensor<int32, [1]>([0])];
            tensor<fp16, [8, 1, 64]> input_33_tmp_backward_cast_fp16 = reverse(axes = input_33_tmp_backward_axes_0, x = input_33_tmp_backward_reverse_cast_fp16)[name = string("input_33_tmp_backward_cast_fp16")];
            int32 input_33_tmp_axis_0 = const()[name = string("input_33_tmp_axis_0"), val = int32(2)];
            bool input_33_tmp_interleave_0 = const()[name = string("input_33_tmp_interleave_0"), val = bool(false)];
            tensor<fp16, [8, 1, 128]> input_33_tmp_cast_fp16 = concat(axis = input_33_tmp_axis_0, interleave = input_33_tmp_interleave_0, values = (input_33_tmp_forward_cast_fp16, input_33_tmp_backward_cast_fp16))[name = string("input_33_tmp_cast_fp16")];
            tensor<int32, [3]> input_33_perm_0 = const()[name = string("input_33_perm_0"), val = tensor<int32, [3]>([1, 0, 2])];
            tensor<fp16, [64, 128]> model_enc_dprnn_erb_blocks_0_fc_intra_weight_to_fp16 = const()[name = string("model_enc_dprnn_erb_blocks_0_fc_intra_weight_to_fp16"), val = tensor<fp16, [64, 128]>(BLOBFILE(path = string("@model_path/weights/weight.bin"), offset = uint64(142400)))];
            tensor<fp16, [64]> model_enc_dprnn_erb_blocks_0_fc_intra_bias_to_fp16 = const()[name = string("model_enc_dprnn_erb_blocks_0_fc_intra_bias_to_fp16"), val = tensor<fp16, [64]>(BLOBFILE(path = string("@model_path/weights/weight.bin"), offset = uint64(158848)))];
            tensor<fp16, [1, 8, 128]> input_33_cast_fp16 = transpose(perm = input_33_perm_0, x = input_33_tmp_cast_fp16)[name = string("transpose_45")];
            tensor<fp16, [1, 8, 64]> linear_24_cast_fp16 = linear(bias = model_enc_dprnn_erb_blocks_0_fc_intra_bias_to_fp16, weight = model_enc_dprnn_erb_blocks_0_fc_intra_weight_to_fp16, x = input_33_cast_fp16)[name = string("linear_24_cast_fp16")];
            tensor<int32, [1]> x_intra_1_axes_0 = const()[name = string("x_intra_1_axes_0"), val = tensor<int32, [1]>([-1])];
            tensor<fp16, [64]> model_enc_dprnn_erb_blocks_0_ln_intra_weight_to_fp16 = const()[name = string("model_enc_dprnn_erb_blocks_0_ln_intra_weight_to_fp16"), val = tensor<fp16, [64]>(BLOBFILE(path = string("@model_path/weights/weight.bin"), offset = uint64(159040)))];
            tensor<fp16, [64]> model_enc_dprnn_erb_blocks_0_ln_intra_bias_to_fp16 = const()[name = string("model_enc_dprnn_erb_blocks_0_ln_intra_bias_to_fp16"), val = tensor<fp16, [64]>(BLOBFILE(path = string("@model_path/weights/weight.bin"), offset = uint64(159232)))];
            fp16 var_22_to_fp16 = const()[name = string("op_22_to_fp16"), val = fp16(0x1.5p-17)];
            tensor<fp16, [1, 8, 64]> x_intra_1_cast_fp16 = layer_norm(axes = x_intra_1_axes_0, beta = model_enc_dprnn_erb_blocks_0_ln_intra_bias_to_fp16, epsilon = var_22_to_fp16, gamma = model_enc_dprnn_erb_blocks_0_ln_intra_weight_to_fp16, x = linear_24_cast_fp16)[name = string("x_intra_1_cast_fp16")];
            tensor<int32, [3]> var_251 = const()[name = string("op_251"), val = tensor<int32, [3]>([0, 2, 1])];
            tensor<int32, [1]> x_intra_3_axes_0 = const()[name = string("x_intra_3_axes_0"), val = tensor<int32, [1]>([2])];
            tensor<fp16, [1, 64, 8]> var_252_cast_fp16 = transpose(perm = var_251, x = x_intra_1_cast_fp16)[name = string("transpose_44")];
            tensor<fp16, [1, 64, 1, 8]> x_intra_3_cast_fp16 = expand_dims(axes = x_intra_3_axes_0, x = var_252_cast_fp16)[name = string("x_intra_3_cast_fp16")];
            tensor<fp16, [1, 64, 1, 8]> x_11_cast_fp16 = add(x = inputs_1_cast_fp16, y = x_intra_3_cast_fp16)[name = string("x_11_cast_fp16")];
            tensor<int32, [1]> var_255_axes_0 = const()[name = string("op_255_axes_0"), val = tensor<int32, [1]>([0])];
            tensor<fp16, [64, 1, 8]> var_255_cast_fp16 = squeeze(axes = var_255_axes_0, x = x_11_cast_fp16)[name = string("op_255_cast_fp16")];
            tensor<int32, [1]> var_256_axes_0 = const()[name = string("op_256_axes_0"), val = tensor<int32, [1]>([1])];
            tensor<fp16, [64, 8]> var_256_cast_fp16 = squeeze(axes = var_256_axes_0, x = var_255_cast_fp16)[name = string("op_256_cast_fp16")];
            tensor<int32, [2]> var_257 = const()[name = string("op_257"), val = tensor<int32, [2]>([1, 0])];
            tensor<int32, [1]> h_flat_1_begin_0 = const()[name = string("h_flat_1_begin_0"), val = tensor<int32, [1]>([224])];
            tensor<int32, [1]> h_flat_1_end_0 = const()[name = string("h_flat_1_end_0"), val = tensor<int32, [1]>([736])];
            tensor<bool, [1]> h_flat_1_end_mask_0 = const()[name = string("h_flat_1_end_mask_0"), val = tensor<bool, [1]>([false])];
            tensor<fp16, [512]> h_flat_1_cast_fp16 = slice_by_index(begin = h_flat_1_begin_0, end = h_flat_1_end_0, end_mask = h_flat_1_end_mask_0, x = state_in_to_fp16)[name = string("h_flat_1_cast_fp16")];
            tensor<int32, [2]> var_268 = const()[name = string("op_268"), val = tensor<int32, [2]>([8, 64])];
            tensor<fp16, [8, 64]> h_1_cast_fp16 = reshape(shape = var_268, x = h_flat_1_cast_fp16)[name = string("h_1_cast_fp16")];
            tensor<fp16, [192, 64]> model_enc_dprnn_erb_blocks_0_inter_gru_grucell_weight_ih_to_fp16 = const()[name = string("model_enc_dprnn_erb_blocks_0_inter_gru_grucell_weight_ih_to_fp16"), val = tensor<fp16, [192, 64]>(BLOBFILE(path = string("@model_path/weights/weight.bin"), offset = uint64(159424)))];
            tensor<fp16, [192]> model_enc_dprnn_erb_blocks_0_inter_gru_grucell_bias_ih_to_fp16 = const()[name = string("model_enc_dprnn_erb_blocks_0_inter_gru_grucell_bias_ih_to_fp16"), val = tensor<fp16, [192]>(BLOBFILE(path = string("@model_path/weights/weight.bin"), offset = uint64(184064)))];
            tensor<fp16, [8, 64]> x_13_cast_fp16 = transpose(perm = var_257, x = var_256_cast_fp16)[name = string("transpose_43")];
            tensor<fp16, [8, 192]> linear_25_cast_fp16 = linear(bias = model_enc_dprnn_erb_blocks_0_inter_gru_grucell_bias_ih_to_fp16, weight = model_enc_dprnn_erb_blocks_0_inter_gru_grucell_weight_ih_to_fp16, x = x_13_cast_fp16)[name = string("linear_25_cast_fp16")];
            tensor<fp16, [192, 64]> model_enc_dprnn_erb_blocks_0_inter_gru_grucell_weight_hh_to_fp16 = const()[name = string("model_enc_dprnn_erb_blocks_0_inter_gru_grucell_weight_hh_to_fp16"), val = tensor<fp16, [192, 64]>(BLOBFILE(path = string("@model_path/weights/weight.bin"), offset = uint64(184512)))];
            tensor<fp16, [192]> model_enc_dprnn_erb_blocks_0_inter_gru_grucell_bias_hh_to_fp16 = const()[name = string("model_enc_dprnn_erb_blocks_0_inter_gru_grucell_bias_hh_to_fp16"), val = tensor<fp16, [192]>(BLOBFILE(path = string("@model_path/weights/weight.bin"), offset = uint64(209152)))];
            tensor<fp16, [8, 192]> linear_26_cast_fp16 = linear(bias = model_enc_dprnn_erb_blocks_0_inter_gru_grucell_bias_hh_to_fp16, weight = model_enc_dprnn_erb_blocks_0_inter_gru_grucell_weight_hh_to_fp16, x = h_1_cast_fp16)[name = string("linear_26_cast_fp16")];
            tensor<int32, [2]> var_272_begin_0 = const()[name = string("op_272_begin_0"), val = tensor<int32, [2]>([0, 0])];
            tensor<int32, [2]> var_272_end_0 = const()[name = string("op_272_end_0"), val = tensor<int32, [2]>([8, 64])];
            tensor<fp16, [8, 64]> var_272_cast_fp16 = slice_by_index(begin = var_272_begin_0, end = var_272_end_0, x = linear_25_cast_fp16)[name = string("op_272_cast_fp16")];
            tensor<int32, [2]> var_273_begin_0 = const()[name = string("op_273_begin_0"), val = tensor<int32, [2]>([0, 0])];
            tensor<int32, [2]> var_273_end_0 = const()[name = string("op_273_end_0"), val = tensor<int32, [2]>([8, 64])];
            tensor<fp16, [8, 64]> var_273_cast_fp16 = slice_by_index(begin = var_273_begin_0, end = var_273_end_0, x = linear_26_cast_fp16)[name = string("op_273_cast_fp16")];
            tensor<fp16, [8, 64]> var_274_cast_fp16 = add(x = var_272_cast_fp16, y = var_273_cast_fp16)[name = string("op_274_cast_fp16")];
            tensor<fp16, [8, 64]> r_1_cast_fp16 = sigmoid(x = var_274_cast_fp16)[name = string("r_1_cast_fp16")];
            tensor<int32, [2]> var_276_begin_0 = const()[name = string("op_276_begin_0"), val = tensor<int32, [2]>([0, 64])];
            tensor<int32, [2]> var_276_end_0 = const()[name = string("op_276_end_0"), val = tensor<int32, [2]>([8, 128])];
            tensor<fp16, [8, 64]> var_276_cast_fp16 = slice_by_index(begin = var_276_begin_0, end = var_276_end_0, x = linear_25_cast_fp16)[name = string("op_276_cast_fp16")];
            tensor<int32, [2]> var_277_begin_0 = const()[name = string("op_277_begin_0"), val = tensor<int32, [2]>([0, 64])];
            tensor<int32, [2]> var_277_end_0 = const()[name = string("op_277_end_0"), val = tensor<int32, [2]>([8, 128])];
            tensor<fp16, [8, 64]> var_277_cast_fp16 = slice_by_index(begin = var_277_begin_0, end = var_277_end_0, x = linear_26_cast_fp16)[name = string("op_277_cast_fp16")];
            tensor<fp16, [8, 64]> var_278_cast_fp16 = add(x = var_276_cast_fp16, y = var_277_cast_fp16)[name = string("op_278_cast_fp16")];
            tensor<fp16, [8, 64]> z_1_cast_fp16 = sigmoid(x = var_278_cast_fp16)[name = string("z_1_cast_fp16")];
            tensor<int32, [2]> var_280_begin_0 = const()[name = string("op_280_begin_0"), val = tensor<int32, [2]>([0, 128])];
            tensor<int32, [2]> var_280_end_0 = const()[name = string("op_280_end_0"), val = tensor<int32, [2]>([8, 192])];
            tensor<fp16, [8, 64]> var_280_cast_fp16 = slice_by_index(begin = var_280_begin_0, end = var_280_end_0, x = linear_25_cast_fp16)[name = string("op_280_cast_fp16")];
            tensor<int32, [2]> var_281_begin_0 = const()[name = string("op_281_begin_0"), val = tensor<int32, [2]>([0, 128])];
            tensor<int32, [2]> var_281_end_0 = const()[name = string("op_281_end_0"), val = tensor<int32, [2]>([8, 192])];
            tensor<fp16, [8, 64]> var_281_cast_fp16 = slice_by_index(begin = var_281_begin_0, end = var_281_end_0, x = linear_26_cast_fp16)[name = string("op_281_cast_fp16")];
            tensor<fp16, [8, 64]> var_282_cast_fp16 = mul(x = r_1_cast_fp16, y = var_281_cast_fp16)[name = string("op_282_cast_fp16")];
            tensor<fp16, [8, 64]> var_283_cast_fp16 = add(x = var_280_cast_fp16, y = var_282_cast_fp16)[name = string("op_283_cast_fp16")];
            tensor<fp16, [8, 64]> n_1_cast_fp16 = tanh(x = var_283_cast_fp16)[name = string("n_1_cast_fp16")];
            fp16 var_29_to_fp16 = const()[name = string("op_29_to_fp16"), val = fp16(0x1p+0)];
            tensor<fp16, [8, 64]> var_285_cast_fp16 = sub(x = var_29_to_fp16, y = z_1_cast_fp16)[name = string("op_285_cast_fp16")];
            tensor<fp16, [8, 64]> var_286_cast_fp16 = mul(x = var_285_cast_fp16, y = n_1_cast_fp16)[name = string("op_286_cast_fp16")];
            tensor<fp16, [8, 64]> var_287_cast_fp16 = mul(x = z_1_cast_fp16, y = h_1_cast_fp16)[name = string("op_287_cast_fp16")];
            tensor<fp16, [8, 64]> y_1_cast_fp16 = add(x = var_286_cast_fp16, y = var_287_cast_fp16)[name = string("y_1_cast_fp16")];
            tensor<int32, [1]> var_289 = const()[name = string("op_289"), val = tensor<int32, [1]>([-1])];
            tensor<fp16, [512]> var_290_cast_fp16 = reshape(shape = var_289, x = y_1_cast_fp16)[name = string("op_290_cast_fp16")];
            tensor<fp16, [64, 64]> model_enc_dprnn_erb_blocks_0_fc_inter_weight_to_fp16 = const()[name = string("model_enc_dprnn_erb_blocks_0_fc_inter_weight_to_fp16"), val = tensor<fp16, [64, 64]>(BLOBFILE(path = string("@model_path/weights/weight.bin"), offset = uint64(209600)))];
            tensor<fp16, [64]> model_enc_dprnn_erb_blocks_0_fc_inter_bias_to_fp16 = const()[name = string("model_enc_dprnn_erb_blocks_0_fc_inter_bias_to_fp16"), val = tensor<fp16, [64]>(BLOBFILE(path = string("@model_path/weights/weight.bin"), offset = uint64(217856)))];
            tensor<fp16, [8, 64]> linear_27_cast_fp16 = linear(bias = model_enc_dprnn_erb_blocks_0_fc_inter_bias_to_fp16, weight = model_enc_dprnn_erb_blocks_0_fc_inter_weight_to_fp16, x = y_1_cast_fp16)[name = string("linear_27_cast_fp16")];
            tensor<int32, [1]> x_inter_1_axes_0 = const()[name = string("x_inter_1_axes_0"), val = tensor<int32, [1]>([-1])];
            tensor<fp16, [64]> model_enc_dprnn_erb_blocks_0_ln_inter_weight_to_fp16 = const()[name = string("model_enc_dprnn_erb_blocks_0_ln_inter_weight_to_fp16"), val = tensor<fp16, [64]>(BLOBFILE(path = string("@model_path/weights/weight.bin"), offset = uint64(218048)))];
            tensor<fp16, [64]> model_enc_dprnn_erb_blocks_0_ln_inter_bias_to_fp16 = const()[name = string("model_enc_dprnn_erb_blocks_0_ln_inter_bias_to_fp16"), val = tensor<fp16, [64]>(BLOBFILE(path = string("@model_path/weights/weight.bin"), offset = uint64(218240)))];
            tensor<fp16, [8, 64]> x_inter_1_cast_fp16 = layer_norm(axes = x_inter_1_axes_0, beta = model_enc_dprnn_erb_blocks_0_ln_inter_bias_to_fp16, epsilon = var_22_to_fp16, gamma = model_enc_dprnn_erb_blocks_0_ln_inter_weight_to_fp16, x = linear_27_cast_fp16)[name = string("x_inter_1_cast_fp16")];
            tensor<int32, [2]> var_301 = const()[name = string("op_301"), val = tensor<int32, [2]>([1, 0])];
            tensor<int32, [1]> var_303_axes_0 = const()[name = string("op_303_axes_0"), val = tensor<int32, [1]>([0])];
            tensor<fp16, [64, 8]> var_302_cast_fp16 = transpose(perm = var_301, x = x_inter_1_cast_fp16)[name = string("transpose_42")];
            tensor<fp16, [1, 64, 8]> var_303_cast_fp16 = expand_dims(axes = var_303_axes_0, x = var_302_cast_fp16)[name = string("op_303_cast_fp16")];
            tensor<int32, [1]> x_inter_3_axes_0 = const()[name = string("x_inter_3_axes_0"), val = tensor<int32, [1]>([2])];
            tensor<fp16, [1, 64, 1, 8]> x_inter_3_cast_fp16 = expand_dims(axes = x_inter_3_axes_0, x = var_303_cast_fp16)[name = string("x_inter_3_cast_fp16")];
            tensor<fp16, [1, 64, 1, 8]> inputs_3_cast_fp16 = add(x = x_11_cast_fp16, y = x_inter_3_cast_fp16)[name = string("inputs_3_cast_fp16")];
            tensor<int32, [1]> var_315_axes_0 = const()[name = string("op_315_axes_0"), val = tensor<int32, [1]>([2])];
            tensor<fp16, [1, 64, 8]> var_315_cast_fp16 = squeeze(axes = var_315_axes_0, x = inputs_3_cast_fp16)[name = string("op_315_cast_fp16")];
            tensor<int32, [3]> transpose_7_perm_0 = const()[name = string("transpose_7_perm_0"), val = tensor<int32, [3]>([2, 0, 1])];
            tensor<int32, [1]> slice_by_index_7 = const()[name = string("slice_by_index_7"), val = tensor<int32, [1]>([8])];
            tensor<int32, [1]> while_loop_2_loop_vars0_0 = const()[name = string("while_loop_2_loop_vars0_0"), val = tensor<int32, [1]>([0])];
            tensor<fp16, [8, 1, 64]> transpose_7_cast_fp16 = transpose(perm = transpose_7_perm_0, x = var_315_cast_fp16)[name = string("transpose_41")];
            tensor<int32, [1]> while_loop_2_0, tensor<fp32, [9, 1, 64]> while_loop_2_1 = while_loop(loop_vars = (while_loop_2_loop_vars0_0, concat_1))[name = string("while_loop_2")]
                (tensor<int32, [1]> while_loop_2_loop_vars0_0_x0_1_1_1_0, tensor<fp32, [9, 1, 64]> concat_5_x0_1_1_1_0) {
                    tensor<bool, [1]> less_5 = less(x = while_loop_2_loop_vars0_0_x0_1_1_1_0, y = slice_by_index_7)[name = string("less_5")];
                } -> (less_5)
                (tensor<int32, [1]> while_loop_2_loop_vars0_0_x0_1_1_1_1, tensor<fp32, [9, 1, 64]> concat_5_x0_1_1_1_1) {
                    int32 gather_10_axis_0 = const()[name = string("gather_10_axis_0"), val = int32(0)];
                    int32 gather_10_batch_dims_0 = const()[name = string("gather_10_batch_dims_0"), val = int32(0)];
                    bool gather_10_validate_indices_0 = const()[name = string("gather_10_validate_indices_0"), val = bool(false)];
                    string while_loop_2_loop_vars0_0_x0_1_to_uint16_dtype_0 = const()[name = string("while_loop_2_loop_vars0_0_x0_1_to_uint16_dtype_0"), val = string("uint16")];
                    tensor<uint16, [1]> while_loop_2_loop_vars0_0_x0_1_to_uint16 = cast(dtype = while_loop_2_loop_vars0_0_x0_1_to_uint16_dtype_0, x = while_loop_2_loop_vars0_0_x0_1_1_1_1)[name = string("cast_90")];
                    tensor<fp16, [1, 1, 64]> gather_10_cast_fp16_cast_uint16 = gather(axis = gather_10_axis_0, batch_dims = gather_10_batch_dims_0, indices = while_loop_2_loop_vars0_0_x0_1_to_uint16, validate_indices = gather_10_validate_indices_0, x = transpose_7_cast_fp16)[name = string("gather_10_cast_fp16_cast_uint16")];
                    int32 gather_11_axis_0 = const()[name = string("gather_11_axis_0"), val = int32(0)];
                    int32 gather_11_batch_dims_0 = const()[name = string("gather_11_batch_dims_0"), val = int32(0)];
                    bool gather_11_validate_indices_0 = const()[name = string("gather_11_validate_indices_0"), val = bool(false)];
                    string concat_5_x0_1_to_fp16_dtype_0 = const()[name = string("concat_5_x0_1_to_fp16_dtype_0"), val = string("fp16")];
                    tensor<fp16, [9, 1, 64]> concat_5_x0_1_to_fp16 = cast(dtype = concat_5_x0_1_to_fp16_dtype_0, x = concat_5_x0_1_1_1_1)[name = string("cast_89")];
                    tensor<fp16, [1, 1, 64]> gather_11_cast_fp16_cast_uint16 = gather(axis = gather_11_axis_0, batch_dims = gather_11_batch_dims_0, indices = while_loop_2_loop_vars0_0_x0_1_to_uint16, validate_indices = gather_11_validate_indices_0, x = concat_5_x0_1_to_fp16)[name = string("gather_11_cast_fp16_cast_uint16")];
                    tensor<int32, [1]> squeeze_10_axes_0 = const()[name = string("squeeze_10_axes_0"), val = tensor<int32, [1]>([0])];
                    tensor<fp16, [1, 64]> squeeze_10_cast_fp16 = squeeze(axes = squeeze_10_axes_0, x = gather_10_cast_fp16_cast_uint16)[name = string("squeeze_10_cast_fp16")];
                    tensor<int32, [1]> squeeze_11_axes_0 = const()[name = string("squeeze_11_axes_0"), val = tensor<int32, [1]>([0])];
                    tensor<fp16, [1, 64]> squeeze_11_cast_fp16 = squeeze(axes = squeeze_11_axes_0, x = gather_11_cast_fp16_cast_uint16)[name = string("squeeze_11_cast_fp16")];
                    tensor<fp16, [64, 64]> linear_34_weight_0_to_fp16 = const()[name = string("linear_34_weight_0_to_fp16"), val = tensor<fp16, [64, 64]>(BLOBFILE(path = string("@model_path/weights/weight.bin"), offset = uint64(218432)))];
                    tensor<fp16, [64]> linear_34_bias_0_to_fp16 = const()[name = string("linear_34_bias_0_to_fp16"), val = tensor<fp16, [64]>(BLOBFILE(path = string("@model_path/weights/weight.bin"), offset = uint64(226688)))];
                    tensor<fp16, [1, 64]> linear_34_cast_fp16 = linear(bias = linear_34_bias_0_to_fp16, weight = linear_34_weight_0_to_fp16, x = squeeze_10_cast_fp16)[name = string("linear_34_cast_fp16")];
                    tensor<fp16, [64, 64]> linear_35_weight_0_to_fp16 = const()[name = string("linear_35_weight_0_to_fp16"), val = tensor<fp16, [64, 64]>(BLOBFILE(path = string("@model_path/weights/weight.bin"), offset = uint64(226880)))];
                    tensor<fp16, [64]> linear_35_bias_0_to_fp16 = const()[name = string("linear_35_bias_0_to_fp16"), val = tensor<fp16, [64]>(BLOBFILE(path = string("@model_path/weights/weight.bin"), offset = uint64(235136)))];
                    tensor<fp16, [1, 64]> linear_35_cast_fp16 = linear(bias = linear_35_bias_0_to_fp16, weight = linear_35_weight_0_to_fp16, x = squeeze_11_cast_fp16)[name = string("linear_35_cast_fp16")];
                    tensor<fp16, [1, 64]> add_25_cast_fp16 = add(x = linear_34_cast_fp16, y = linear_35_cast_fp16)[name = string("add_25_cast_fp16")];
                    tensor<fp16, [1, 64]> sigmoid_10_cast_fp16 = sigmoid(x = add_25_cast_fp16)[name = string("sigmoid_10_cast_fp16")];
                    tensor<fp16, [64, 64]> linear_36_weight_0_to_fp16 = const()[name = string("linear_36_weight_0_to_fp16"), val = tensor<fp16, [64, 64]>(BLOBFILE(path = string("@model_path/weights/weight.bin"), offset = uint64(235328)))];
                    tensor<fp16, [64]> linear_36_bias_0_to_fp16 = const()[name = string("linear_36_bias_0_to_fp16"), val = tensor<fp16, [64]>(BLOBFILE(path = string("@model_path/weights/weight.bin"), offset = uint64(243584)))];
                    tensor<fp16, [1, 64]> linear_36_cast_fp16 = linear(bias = linear_36_bias_0_to_fp16, weight = linear_36_weight_0_to_fp16, x = squeeze_10_cast_fp16)[name = string("linear_36_cast_fp16")];
                    tensor<fp16, [64, 64]> linear_37_weight_0_to_fp16 = const()[name = string("linear_37_weight_0_to_fp16"), val = tensor<fp16, [64, 64]>(BLOBFILE(path = string("@model_path/weights/weight.bin"), offset = uint64(243776)))];
                    tensor<fp16, [64]> linear_37_bias_0_to_fp16 = const()[name = string("linear_37_bias_0_to_fp16"), val = tensor<fp16, [64]>(BLOBFILE(path = string("@model_path/weights/weight.bin"), offset = uint64(252032)))];
                    tensor<fp16, [1, 64]> linear_37_cast_fp16 = linear(bias = linear_37_bias_0_to_fp16, weight = linear_37_weight_0_to_fp16, x = squeeze_11_cast_fp16)[name = string("linear_37_cast_fp16")];
                    tensor<fp16, [1, 64]> add_26_cast_fp16 = add(x = linear_36_cast_fp16, y = linear_37_cast_fp16)[name = string("add_26_cast_fp16")];
                    tensor<fp16, [1, 64]> sigmoid_11_cast_fp16 = sigmoid(x = add_26_cast_fp16)[name = string("sigmoid_11_cast_fp16")];
                    tensor<fp16, [64, 64]> linear_38_weight_0_to_fp16 = const()[name = string("linear_38_weight_0_to_fp16"), val = tensor<fp16, [64, 64]>(BLOBFILE(path = string("@model_path/weights/weight.bin"), offset = uint64(252224)))];
                    tensor<fp16, [64]> linear_38_bias_0_to_fp16 = const()[name = string("linear_38_bias_0_to_fp16"), val = tensor<fp16, [64]>(BLOBFILE(path = string("@model_path/weights/weight.bin"), offset = uint64(260480)))];
                    tensor<fp16, [1, 64]> linear_38_cast_fp16 = linear(bias = linear_38_bias_0_to_fp16, weight = linear_38_weight_0_to_fp16, x = squeeze_10_cast_fp16)[name = string("linear_38_cast_fp16")];
                    tensor<fp16, [64, 64]> linear_39_weight_0_to_fp16 = const()[name = string("linear_39_weight_0_to_fp16"), val = tensor<fp16, [64, 64]>(BLOBFILE(path = string("@model_path/weights/weight.bin"), offset = uint64(260672)))];
                    tensor<fp16, [64]> linear_39_bias_0_to_fp16 = const()[name = string("linear_39_bias_0_to_fp16"), val = tensor<fp16, [64]>(BLOBFILE(path = string("@model_path/weights/weight.bin"), offset = uint64(268928)))];
                    tensor<fp16, [1, 64]> linear_39_cast_fp16 = linear(bias = linear_39_bias_0_to_fp16, weight = linear_39_weight_0_to_fp16, x = squeeze_11_cast_fp16)[name = string("linear_39_cast_fp16")];
                    tensor<fp16, [1, 64]> mul_16_cast_fp16 = mul(x = sigmoid_10_cast_fp16, y = linear_39_cast_fp16)[name = string("mul_16_cast_fp16")];
                    tensor<fp16, [1, 64]> add_27_cast_fp16 = add(x = linear_38_cast_fp16, y = mul_16_cast_fp16)[name = string("add_27_cast_fp16")];
                    tensor<fp16, [1, 64]> tanh_5_cast_fp16 = tanh(x = add_27_cast_fp16)[name = string("tanh_5_cast_fp16")];
                    fp16 sub_5_x_0_to_fp16 = const()[name = string("sub_5_x_0_to_fp16"), val = fp16(0x1p+0)];
                    tensor<fp16, [1, 64]> sub_5_cast_fp16 = sub(x = sub_5_x_0_to_fp16, y = sigmoid_11_cast_fp16)[name = string("sub_5_cast_fp16")];
                    tensor<fp16, [1, 64]> mul_17_cast_fp16 = mul(x = sub_5_cast_fp16, y = tanh_5_cast_fp16)[name = string("mul_17_cast_fp16")];
                    tensor<fp16, [1, 64]> mul_18_cast_fp16 = mul(x = sigmoid_11_cast_fp16, y = squeeze_11_cast_fp16)[name = string("mul_18_cast_fp16")];
                    tensor<fp16, [1, 64]> add_28_cast_fp16 = add(x = mul_17_cast_fp16, y = mul_18_cast_fp16)[name = string("add_28_cast_fp16")];
                    int32 add_29_y_0 = const()[name = string("add_29_y_0"), val = int32(1)];
                    tensor<int32, [1]> add_29 = add(x = while_loop_2_loop_vars0_0_x0_1_1_1_1, y = add_29_y_0)[name = string("add_29")];
                    tensor<int32, [1]> expand_dims_5_axes_0 = const()[name = string("expand_dims_5_axes_0"), val = tensor<int32, [1]>([0])];
                    tensor<fp16, [1, 1, 64]> expand_dims_5_cast_fp16 = expand_dims(axes = expand_dims_5_axes_0, x = add_28_cast_fp16)[name = string("expand_dims_5_cast_fp16")];
                    int32 scatter_5_axis_0 = const()[name = string("scatter_5_axis_0"), val = int32(0)];
                    string scatter_5_mode_0 = const()[name = string("scatter_5_mode_0"), val = string("add")];
                    bool scatter_5_validate_indices_0 = const()[name = string("scatter_5_validate_indices_0"), val = bool(false)];
                    tensor<fp16, [9, 1, 64]> scatter_5_cast_fp16 = scatter(axis = scatter_5_axis_0, data = concat_5_x0_1_to_fp16, indices = add_29, mode = scatter_5_mode_0, updates = expand_dims_5_cast_fp16, validate_indices = scatter_5_validate_indices_0)[name = string("scatter_5_cast_fp16")];
                    string scatter_5_cast_fp16_to_fp32_dtype_0 = const()[name = string("scatter_5_cast_fp16_to_fp32_dtype_0"), val = string("fp32")];
                    tensor<fp32, [9, 1, 64]> scatter_5_cast_fp16_to_fp32 = cast(dtype = scatter_5_cast_fp16_to_fp32_dtype_0, x = scatter_5_cast_fp16)[name = string("cast_88")];
                } -> (add_29, scatter_5_cast_fp16_to_fp32);
            tensor<int32, [3]> input_41_tmp_forward_begin_0 = const()[name = string("input_41_tmp_forward_begin_0"), val = tensor<int32, [3]>([1, 0, 0])];
            tensor<int32, [3]> input_41_tmp_forward_end_0 = const()[name = string("input_41_tmp_forward_end_0"), val = tensor<int32, [3]>([0, 0, 0])];
            tensor<bool, [3]> input_41_tmp_forward_begin_mask_0 = const()[name = string("input_41_tmp_forward_begin_mask_0"), val = tensor<bool, [3]>([false, true, true])];
            tensor<bool, [3]> input_41_tmp_forward_end_mask_0 = const()[name = string("input_41_tmp_forward_end_mask_0"), val = tensor<bool, [3]>([true, true, true])];
            string while_loop_2_1_to_fp16_dtype_0 = const()[name = string("while_loop_2_1_to_fp16_dtype_0"), val = string("fp16")];
            tensor<fp16, [9, 1, 64]> while_loop_2_1_to_fp16 = cast(dtype = while_loop_2_1_to_fp16_dtype_0, x = while_loop_2_1)[name = string("cast_87")];
            tensor<fp16, [8, 1, 64]> input_41_tmp_forward_cast_fp16 = slice_by_index(begin = input_41_tmp_forward_begin_0, begin_mask = input_41_tmp_forward_begin_mask_0, end = input_41_tmp_forward_end_0, end_mask = input_41_tmp_forward_end_mask_0, x = while_loop_2_1_to_fp16)[name = string("input_41_tmp_forward_cast_fp16")];
            tensor<int32, [1]> reverse_1_axes_0 = const()[name = string("reverse_1_axes_0"), val = tensor<int32, [1]>([0])];
            tensor<fp16, [8, 1, 64]> reverse_1_cast_fp16 = reverse(axes = reverse_1_axes_0, x = transpose_7_cast_fp16)[name = string("reverse_1_cast_fp16")];
            tensor<int32, [1]> slice_by_index_10 = const()[name = string("slice_by_index_10"), val = tensor<int32, [1]>([8])];
            tensor<int32, [1]> while_loop_3_loop_vars0_0 = const()[name = string("while_loop_3_loop_vars0_0"), val = tensor<int32, [1]>([0])];
            tensor<int32, [1]> while_loop_3_0, tensor<fp32, [9, 1, 64]> while_loop_3_1 = while_loop(loop_vars = (while_loop_3_loop_vars0_0, concat_1))[name = string("while_loop_3")]
                (tensor<int32, [1]> while_loop_3_loop_vars0_0_x0_1_1_1_0, tensor<fp32, [9, 1, 64]> concat_7_x0_1_1_1_0) {
                    tensor<bool, [1]> less_7 = less(x = while_loop_3_loop_vars0_0_x0_1_1_1_0, y = slice_by_index_10)[name = string("less_7")];
                } -> (less_7)
                (tensor<int32, [1]> while_loop_3_loop_vars0_0_x0_1_1_1_1, tensor<fp32, [9, 1, 64]> concat_7_x0_1_1_1_1) {
                    int32 gather_14_axis_0 = const()[name = string("gather_14_axis_0"), val = int32(0)];
                    int32 gather_14_batch_dims_0 = const()[name = string("gather_14_batch_dims_0"), val = int32(0)];
                    bool gather_14_validate_indices_0 = const()[name = string("gather_14_validate_indices_0"), val = bool(false)];
                    string while_loop_3_loop_vars0_0_x0_1_to_uint16_dtype_0 = const()[name = string("while_loop_3_loop_vars0_0_x0_1_to_uint16_dtype_0"), val = string("uint16")];
                    tensor<uint16, [1]> while_loop_3_loop_vars0_0_x0_1_to_uint16 = cast(dtype = while_loop_3_loop_vars0_0_x0_1_to_uint16_dtype_0, x = while_loop_3_loop_vars0_0_x0_1_1_1_1)[name = string("cast_86")];
                    tensor<fp16, [1, 1, 64]> gather_14_cast_fp16_cast_uint16 = gather(axis = gather_14_axis_0, batch_dims = gather_14_batch_dims_0, indices = while_loop_3_loop_vars0_0_x0_1_to_uint16, validate_indices = gather_14_validate_indices_0, x = reverse_1_cast_fp16)[name = string("gather_14_cast_fp16_cast_uint16")];
                    int32 gather_15_axis_0 = const()[name = string("gather_15_axis_0"), val = int32(0)];
                    int32 gather_15_batch_dims_0 = const()[name = string("gather_15_batch_dims_0"), val = int32(0)];
                    bool gather_15_validate_indices_0 = const()[name = string("gather_15_validate_indices_0"), val = bool(false)];
                    string concat_7_x0_1_to_fp16_dtype_0 = const()[name = string("concat_7_x0_1_to_fp16_dtype_0"), val = string("fp16")];
                    tensor<fp16, [9, 1, 64]> concat_7_x0_1_to_fp16 = cast(dtype = concat_7_x0_1_to_fp16_dtype_0, x = concat_7_x0_1_1_1_1)[name = string("cast_85")];
                    tensor<fp16, [1, 1, 64]> gather_15_cast_fp16_cast_uint16 = gather(axis = gather_15_axis_0, batch_dims = gather_15_batch_dims_0, indices = while_loop_3_loop_vars0_0_x0_1_to_uint16, validate_indices = gather_15_validate_indices_0, x = concat_7_x0_1_to_fp16)[name = string("gather_15_cast_fp16_cast_uint16")];
                    tensor<int32, [1]> squeeze_14_axes_0 = const()[name = string("squeeze_14_axes_0"), val = tensor<int32, [1]>([0])];
                    tensor<fp16, [1, 64]> squeeze_14_cast_fp16 = squeeze(axes = squeeze_14_axes_0, x = gather_14_cast_fp16_cast_uint16)[name = string("squeeze_14_cast_fp16")];
                    tensor<int32, [1]> squeeze_15_axes_0 = const()[name = string("squeeze_15_axes_0"), val = tensor<int32, [1]>([0])];
                    tensor<fp16, [1, 64]> squeeze_15_cast_fp16 = squeeze(axes = squeeze_15_axes_0, x = gather_15_cast_fp16_cast_uint16)[name = string("squeeze_15_cast_fp16")];
                    tensor<fp16, [64, 64]> linear_46_weight_0_to_fp16 = const()[name = string("linear_46_weight_0_to_fp16"), val = tensor<fp16, [64, 64]>(BLOBFILE(path = string("@model_path/weights/weight.bin"), offset = uint64(269120)))];
                    tensor<fp16, [64]> linear_46_bias_0_to_fp16 = const()[name = string("linear_46_bias_0_to_fp16"), val = tensor<fp16, [64]>(BLOBFILE(path = string("@model_path/weights/weight.bin"), offset = uint64(277376)))];
                    tensor<fp16, [1, 64]> linear_46_cast_fp16 = linear(bias = linear_46_bias_0_to_fp16, weight = linear_46_weight_0_to_fp16, x = squeeze_14_cast_fp16)[name = string("linear_46_cast_fp16")];
                    tensor<fp16, [64, 64]> linear_47_weight_0_to_fp16 = const()[name = string("linear_47_weight_0_to_fp16"), val = tensor<fp16, [64, 64]>(BLOBFILE(path = string("@model_path/weights/weight.bin"), offset = uint64(277568)))];
                    tensor<fp16, [64]> linear_47_bias_0_to_fp16 = const()[name = string("linear_47_bias_0_to_fp16"), val = tensor<fp16, [64]>(BLOBFILE(path = string("@model_path/weights/weight.bin"), offset = uint64(285824)))];
                    tensor<fp16, [1, 64]> linear_47_cast_fp16 = linear(bias = linear_47_bias_0_to_fp16, weight = linear_47_weight_0_to_fp16, x = squeeze_15_cast_fp16)[name = string("linear_47_cast_fp16")];
                    tensor<fp16, [1, 64]> add_35_cast_fp16 = add(x = linear_46_cast_fp16, y = linear_47_cast_fp16)[name = string("add_35_cast_fp16")];
                    tensor<fp16, [1, 64]> sigmoid_14_cast_fp16 = sigmoid(x = add_35_cast_fp16)[name = string("sigmoid_14_cast_fp16")];
                    tensor<fp16, [64, 64]> linear_48_weight_0_to_fp16 = const()[name = string("linear_48_weight_0_to_fp16"), val = tensor<fp16, [64, 64]>(BLOBFILE(path = string("@model_path/weights/weight.bin"), offset = uint64(286016)))];
                    tensor<fp16, [64]> linear_48_bias_0_to_fp16 = const()[name = string("linear_48_bias_0_to_fp16"), val = tensor<fp16, [64]>(BLOBFILE(path = string("@model_path/weights/weight.bin"), offset = uint64(294272)))];
                    tensor<fp16, [1, 64]> linear_48_cast_fp16 = linear(bias = linear_48_bias_0_to_fp16, weight = linear_48_weight_0_to_fp16, x = squeeze_14_cast_fp16)[name = string("linear_48_cast_fp16")];
                    tensor<fp16, [64, 64]> linear_49_weight_0_to_fp16 = const()[name = string("linear_49_weight_0_to_fp16"), val = tensor<fp16, [64, 64]>(BLOBFILE(path = string("@model_path/weights/weight.bin"), offset = uint64(294464)))];
                    tensor<fp16, [64]> linear_49_bias_0_to_fp16 = const()[name = string("linear_49_bias_0_to_fp16"), val = tensor<fp16, [64]>(BLOBFILE(path = string("@model_path/weights/weight.bin"), offset = uint64(302720)))];
                    tensor<fp16, [1, 64]> linear_49_cast_fp16 = linear(bias = linear_49_bias_0_to_fp16, weight = linear_49_weight_0_to_fp16, x = squeeze_15_cast_fp16)[name = string("linear_49_cast_fp16")];
                    tensor<fp16, [1, 64]> add_36_cast_fp16 = add(x = linear_48_cast_fp16, y = linear_49_cast_fp16)[name = string("add_36_cast_fp16")];
                    tensor<fp16, [1, 64]> sigmoid_15_cast_fp16 = sigmoid(x = add_36_cast_fp16)[name = string("sigmoid_15_cast_fp16")];
                    tensor<fp16, [64, 64]> linear_50_weight_0_to_fp16 = const()[name = string("linear_50_weight_0_to_fp16"), val = tensor<fp16, [64, 64]>(BLOBFILE(path = string("@model_path/weights/weight.bin"), offset = uint64(302912)))];
                    tensor<fp16, [64]> linear_50_bias_0_to_fp16 = const()[name = string("linear_50_bias_0_to_fp16"), val = tensor<fp16, [64]>(BLOBFILE(path = string("@model_path/weights/weight.bin"), offset = uint64(311168)))];
                    tensor<fp16, [1, 64]> linear_50_cast_fp16 = linear(bias = linear_50_bias_0_to_fp16, weight = linear_50_weight_0_to_fp16, x = squeeze_14_cast_fp16)[name = string("linear_50_cast_fp16")];
                    tensor<fp16, [64, 64]> linear_51_weight_0_to_fp16 = const()[name = string("linear_51_weight_0_to_fp16"), val = tensor<fp16, [64, 64]>(BLOBFILE(path = string("@model_path/weights/weight.bin"), offset = uint64(311360)))];
                    tensor<fp16, [64]> linear_51_bias_0_to_fp16 = const()[name = string("linear_51_bias_0_to_fp16"), val = tensor<fp16, [64]>(BLOBFILE(path = string("@model_path/weights/weight.bin"), offset = uint64(319616)))];
                    tensor<fp16, [1, 64]> linear_51_cast_fp16 = linear(bias = linear_51_bias_0_to_fp16, weight = linear_51_weight_0_to_fp16, x = squeeze_15_cast_fp16)[name = string("linear_51_cast_fp16")];
                    tensor<fp16, [1, 64]> mul_22_cast_fp16 = mul(x = sigmoid_14_cast_fp16, y = linear_51_cast_fp16)[name = string("mul_22_cast_fp16")];
                    tensor<fp16, [1, 64]> add_37_cast_fp16 = add(x = linear_50_cast_fp16, y = mul_22_cast_fp16)[name = string("add_37_cast_fp16")];
                    tensor<fp16, [1, 64]> tanh_7_cast_fp16 = tanh(x = add_37_cast_fp16)[name = string("tanh_7_cast_fp16")];
                    fp16 sub_7_x_0_to_fp16 = const()[name = string("sub_7_x_0_to_fp16"), val = fp16(0x1p+0)];
                    tensor<fp16, [1, 64]> sub_7_cast_fp16 = sub(x = sub_7_x_0_to_fp16, y = sigmoid_15_cast_fp16)[name = string("sub_7_cast_fp16")];
                    tensor<fp16, [1, 64]> mul_23_cast_fp16 = mul(x = sub_7_cast_fp16, y = tanh_7_cast_fp16)[name = string("mul_23_cast_fp16")];
                    tensor<fp16, [1, 64]> mul_24_cast_fp16 = mul(x = sigmoid_15_cast_fp16, y = squeeze_15_cast_fp16)[name = string("mul_24_cast_fp16")];
                    tensor<fp16, [1, 64]> add_38_cast_fp16 = add(x = mul_23_cast_fp16, y = mul_24_cast_fp16)[name = string("add_38_cast_fp16")];
                    int32 add_39_y_0 = const()[name = string("add_39_y_0"), val = int32(1)];
                    tensor<int32, [1]> add_39 = add(x = while_loop_3_loop_vars0_0_x0_1_1_1_1, y = add_39_y_0)[name = string("add_39")];
                    tensor<int32, [1]> expand_dims_7_axes_0 = const()[name = string("expand_dims_7_axes_0"), val = tensor<int32, [1]>([0])];
                    tensor<fp16, [1, 1, 64]> expand_dims_7_cast_fp16 = expand_dims(axes = expand_dims_7_axes_0, x = add_38_cast_fp16)[name = string("expand_dims_7_cast_fp16")];
                    int32 scatter_7_axis_0 = const()[name = string("scatter_7_axis_0"), val = int32(0)];
                    string scatter_7_mode_0 = const()[name = string("scatter_7_mode_0"), val = string("add")];
                    bool scatter_7_validate_indices_0 = const()[name = string("scatter_7_validate_indices_0"), val = bool(false)];
                    tensor<fp16, [9, 1, 64]> scatter_7_cast_fp16 = scatter(axis = scatter_7_axis_0, data = concat_7_x0_1_to_fp16, indices = add_39, mode = scatter_7_mode_0, updates = expand_dims_7_cast_fp16, validate_indices = scatter_7_validate_indices_0)[name = string("scatter_7_cast_fp16")];
                    string scatter_7_cast_fp16_to_fp32_dtype_0 = const()[name = string("scatter_7_cast_fp16_to_fp32_dtype_0"), val = string("fp32")];
                    tensor<fp32, [9, 1, 64]> scatter_7_cast_fp16_to_fp32 = cast(dtype = scatter_7_cast_fp16_to_fp32_dtype_0, x = scatter_7_cast_fp16)[name = string("cast_84")];
                } -> (add_39, scatter_7_cast_fp16_to_fp32);
            tensor<int32, [3]> input_41_tmp_backward_reverse_begin_0 = const()[name = string("input_41_tmp_backward_reverse_begin_0"), val = tensor<int32, [3]>([1, 0, 0])];
            tensor<int32, [3]> input_41_tmp_backward_reverse_end_0 = const()[name = string("input_41_tmp_backward_reverse_end_0"), val = tensor<int32, [3]>([0, 0, 0])];
            tensor<bool, [3]> input_41_tmp_backward_reverse_begin_mask_0 = const()[name = string("input_41_tmp_backward_reverse_begin_mask_0"), val = tensor<bool, [3]>([false, true, true])];
            tensor<bool, [3]> input_41_tmp_backward_reverse_end_mask_0 = const()[name = string("input_41_tmp_backward_reverse_end_mask_0"), val = tensor<bool, [3]>([true, true, true])];
            string while_loop_3_1_to_fp16_dtype_0 = const()[name = string("while_loop_3_1_to_fp16_dtype_0"), val = string("fp16")];
            tensor<fp16, [9, 1, 64]> while_loop_3_1_to_fp16 = cast(dtype = while_loop_3_1_to_fp16_dtype_0, x = while_loop_3_1)[name = string("cast_83")];
            tensor<fp16, [8, 1, 64]> input_41_tmp_backward_reverse_cast_fp16 = slice_by_index(begin = input_41_tmp_backward_reverse_begin_0, begin_mask = input_41_tmp_backward_reverse_begin_mask_0, end = input_41_tmp_backward_reverse_end_0, end_mask = input_41_tmp_backward_reverse_end_mask_0, x = while_loop_3_1_to_fp16)[name = string("input_41_tmp_backward_reverse_cast_fp16")];
            tensor<int32, [1]> input_41_tmp_backward_axes_0 = const()[name = string("input_41_tmp_backward_axes_0"), val = tensor<int32, [1]>([0])];
            tensor<fp16, [8, 1, 64]> input_41_tmp_backward_cast_fp16 = reverse(axes = input_41_tmp_backward_axes_0, x = input_41_tmp_backward_reverse_cast_fp16)[name = string("input_41_tmp_backward_cast_fp16")];
            int32 input_41_tmp_axis_0 = const()[name = string("input_41_tmp_axis_0"), val = int32(2)];
            bool input_41_tmp_interleave_0 = const()[name = string("input_41_tmp_interleave_0"), val = bool(false)];
            tensor<fp16, [8, 1, 128]> input_41_tmp_cast_fp16 = concat(axis = input_41_tmp_axis_0, interleave = input_41_tmp_interleave_0, values = (input_41_tmp_forward_cast_fp16, input_41_tmp_backward_cast_fp16))[name = string("input_41_tmp_cast_fp16")];
            tensor<int32, [3]> input_41_perm_0 = const()[name = string("input_41_perm_0"), val = tensor<int32, [3]>([1, 0, 2])];
            tensor<fp16, [64, 128]> model_enc_dprnn_erb_blocks_1_fc_intra_weight_to_fp16 = const()[name = string("model_enc_dprnn_erb_blocks_1_fc_intra_weight_to_fp16"), val = tensor<fp16, [64, 128]>(BLOBFILE(path = string("@model_path/weights/weight.bin"), offset = uint64(319808)))];
            tensor<fp16, [64]> model_enc_dprnn_erb_blocks_1_fc_intra_bias_to_fp16 = const()[name = string("model_enc_dprnn_erb_blocks_1_fc_intra_bias_to_fp16"), val = tensor<fp16, [64]>(BLOBFILE(path = string("@model_path/weights/weight.bin"), offset = uint64(336256)))];
            tensor<fp16, [1, 8, 128]> input_41_cast_fp16 = transpose(perm = input_41_perm_0, x = input_41_tmp_cast_fp16)[name = string("transpose_40")];
            tensor<fp16, [1, 8, 64]> linear_52_cast_fp16 = linear(bias = model_enc_dprnn_erb_blocks_1_fc_intra_bias_to_fp16, weight = model_enc_dprnn_erb_blocks_1_fc_intra_weight_to_fp16, x = input_41_cast_fp16)[name = string("linear_52_cast_fp16")];
            tensor<int32, [1]> x_intra_5_axes_0 = const()[name = string("x_intra_5_axes_0"), val = tensor<int32, [1]>([-1])];
            tensor<fp16, [64]> model_enc_dprnn_erb_blocks_1_ln_intra_weight_to_fp16 = const()[name = string("model_enc_dprnn_erb_blocks_1_ln_intra_weight_to_fp16"), val = tensor<fp16, [64]>(BLOBFILE(path = string("@model_path/weights/weight.bin"), offset = uint64(336448)))];
            tensor<fp16, [64]> model_enc_dprnn_erb_blocks_1_ln_intra_bias_to_fp16 = const()[name = string("model_enc_dprnn_erb_blocks_1_ln_intra_bias_to_fp16"), val = tensor<fp16, [64]>(BLOBFILE(path = string("@model_path/weights/weight.bin"), offset = uint64(336640)))];
            tensor<fp16, [1, 8, 64]> x_intra_5_cast_fp16 = layer_norm(axes = x_intra_5_axes_0, beta = model_enc_dprnn_erb_blocks_1_ln_intra_bias_to_fp16, epsilon = var_22_to_fp16, gamma = model_enc_dprnn_erb_blocks_1_ln_intra_weight_to_fp16, x = linear_52_cast_fp16)[name = string("x_intra_5_cast_fp16")];
            tensor<int32, [3]> var_339 = const()[name = string("op_339"), val = tensor<int32, [3]>([0, 2, 1])];
            tensor<int32, [1]> x_intra_7_axes_0 = const()[name = string("x_intra_7_axes_0"), val = tensor<int32, [1]>([2])];
            tensor<fp16, [1, 64, 8]> var_340_cast_fp16 = transpose(perm = var_339, x = x_intra_5_cast_fp16)[name = string("transpose_39")];
            tensor<fp16, [1, 64, 1, 8]> x_intra_7_cast_fp16 = expand_dims(axes = x_intra_7_axes_0, x = var_340_cast_fp16)[name = string("x_intra_7_cast_fp16")];
            tensor<fp16, [1, 64, 1, 8]> x_15_cast_fp16 = add(x = inputs_3_cast_fp16, y = x_intra_7_cast_fp16)[name = string("x_15_cast_fp16")];
            tensor<int32, [1]> var_343_axes_0 = const()[name = string("op_343_axes_0"), val = tensor<int32, [1]>([0])];
            tensor<fp16, [64, 1, 8]> var_343_cast_fp16 = squeeze(axes = var_343_axes_0, x = x_15_cast_fp16)[name = string("op_343_cast_fp16")];
            tensor<int32, [1]> var_344_axes_0 = const()[name = string("op_344_axes_0"), val = tensor<int32, [1]>([1])];
            tensor<fp16, [64, 8]> var_344_cast_fp16 = squeeze(axes = var_344_axes_0, x = var_343_cast_fp16)[name = string("op_344_cast_fp16")];
            tensor<int32, [2]> var_345 = const()[name = string("op_345"), val = tensor<int32, [2]>([1, 0])];
            tensor<int32, [1]> h_flat_3_begin_0 = const()[name = string("h_flat_3_begin_0"), val = tensor<int32, [1]>([736])];
            tensor<int32, [1]> h_flat_3_end_0 = const()[name = string("h_flat_3_end_0"), val = tensor<int32, [1]>([1248])];
            tensor<bool, [1]> h_flat_3_end_mask_0 = const()[name = string("h_flat_3_end_mask_0"), val = tensor<bool, [1]>([false])];
            tensor<fp16, [512]> h_flat_3_cast_fp16 = slice_by_index(begin = h_flat_3_begin_0, end = h_flat_3_end_0, end_mask = h_flat_3_end_mask_0, x = state_in_to_fp16)[name = string("h_flat_3_cast_fp16")];
            tensor<int32, [2]> var_356 = const()[name = string("op_356"), val = tensor<int32, [2]>([8, 64])];
            tensor<fp16, [8, 64]> h_3_cast_fp16 = reshape(shape = var_356, x = h_flat_3_cast_fp16)[name = string("h_3_cast_fp16")];
            tensor<fp16, [192, 64]> model_enc_dprnn_erb_blocks_1_inter_gru_grucell_weight_ih_to_fp16 = const()[name = string("model_enc_dprnn_erb_blocks_1_inter_gru_grucell_weight_ih_to_fp16"), val = tensor<fp16, [192, 64]>(BLOBFILE(path = string("@model_path/weights/weight.bin"), offset = uint64(336832)))];
            tensor<fp16, [192]> model_enc_dprnn_erb_blocks_1_inter_gru_grucell_bias_ih_to_fp16 = const()[name = string("model_enc_dprnn_erb_blocks_1_inter_gru_grucell_bias_ih_to_fp16"), val = tensor<fp16, [192]>(BLOBFILE(path = string("@model_path/weights/weight.bin"), offset = uint64(361472)))];
            tensor<fp16, [8, 64]> x_17_cast_fp16 = transpose(perm = var_345, x = var_344_cast_fp16)[name = string("transpose_38")];
            tensor<fp16, [8, 192]> linear_53_cast_fp16 = linear(bias = model_enc_dprnn_erb_blocks_1_inter_gru_grucell_bias_ih_to_fp16, weight = model_enc_dprnn_erb_blocks_1_inter_gru_grucell_weight_ih_to_fp16, x = x_17_cast_fp16)[name = string("linear_53_cast_fp16")];
            tensor<fp16, [192, 64]> model_enc_dprnn_erb_blocks_1_inter_gru_grucell_weight_hh_to_fp16 = const()[name = string("model_enc_dprnn_erb_blocks_1_inter_gru_grucell_weight_hh_to_fp16"), val = tensor<fp16, [192, 64]>(BLOBFILE(path = string("@model_path/weights/weight.bin"), offset = uint64(361920)))];
            tensor<fp16, [192]> model_enc_dprnn_erb_blocks_1_inter_gru_grucell_bias_hh_to_fp16 = const()[name = string("model_enc_dprnn_erb_blocks_1_inter_gru_grucell_bias_hh_to_fp16"), val = tensor<fp16, [192]>(BLOBFILE(path = string("@model_path/weights/weight.bin"), offset = uint64(386560)))];
            tensor<fp16, [8, 192]> linear_54_cast_fp16 = linear(bias = model_enc_dprnn_erb_blocks_1_inter_gru_grucell_bias_hh_to_fp16, weight = model_enc_dprnn_erb_blocks_1_inter_gru_grucell_weight_hh_to_fp16, x = h_3_cast_fp16)[name = string("linear_54_cast_fp16")];
            tensor<int32, [2]> var_360_begin_0 = const()[name = string("op_360_begin_0"), val = tensor<int32, [2]>([0, 0])];
            tensor<int32, [2]> var_360_end_0 = const()[name = string("op_360_end_0"), val = tensor<int32, [2]>([8, 64])];
            tensor<fp16, [8, 64]> var_360_cast_fp16 = slice_by_index(begin = var_360_begin_0, end = var_360_end_0, x = linear_53_cast_fp16)[name = string("op_360_cast_fp16")];
            tensor<int32, [2]> var_361_begin_0 = const()[name = string("op_361_begin_0"), val = tensor<int32, [2]>([0, 0])];
            tensor<int32, [2]> var_361_end_0 = const()[name = string("op_361_end_0"), val = tensor<int32, [2]>([8, 64])];
            tensor<fp16, [8, 64]> var_361_cast_fp16 = slice_by_index(begin = var_361_begin_0, end = var_361_end_0, x = linear_54_cast_fp16)[name = string("op_361_cast_fp16")];
            tensor<fp16, [8, 64]> var_362_cast_fp16 = add(x = var_360_cast_fp16, y = var_361_cast_fp16)[name = string("op_362_cast_fp16")];
            tensor<fp16, [8, 64]> r_3_cast_fp16 = sigmoid(x = var_362_cast_fp16)[name = string("r_3_cast_fp16")];
            tensor<int32, [2]> var_364_begin_0 = const()[name = string("op_364_begin_0"), val = tensor<int32, [2]>([0, 64])];
            tensor<int32, [2]> var_364_end_0 = const()[name = string("op_364_end_0"), val = tensor<int32, [2]>([8, 128])];
            tensor<fp16, [8, 64]> var_364_cast_fp16 = slice_by_index(begin = var_364_begin_0, end = var_364_end_0, x = linear_53_cast_fp16)[name = string("op_364_cast_fp16")];
            tensor<int32, [2]> var_365_begin_0 = const()[name = string("op_365_begin_0"), val = tensor<int32, [2]>([0, 64])];
            tensor<int32, [2]> var_365_end_0 = const()[name = string("op_365_end_0"), val = tensor<int32, [2]>([8, 128])];
            tensor<fp16, [8, 64]> var_365_cast_fp16 = slice_by_index(begin = var_365_begin_0, end = var_365_end_0, x = linear_54_cast_fp16)[name = string("op_365_cast_fp16")];
            tensor<fp16, [8, 64]> var_366_cast_fp16 = add(x = var_364_cast_fp16, y = var_365_cast_fp16)[name = string("op_366_cast_fp16")];
            tensor<fp16, [8, 64]> z_3_cast_fp16 = sigmoid(x = var_366_cast_fp16)[name = string("z_3_cast_fp16")];
            tensor<int32, [2]> var_368_begin_0 = const()[name = string("op_368_begin_0"), val = tensor<int32, [2]>([0, 128])];
            tensor<int32, [2]> var_368_end_0 = const()[name = string("op_368_end_0"), val = tensor<int32, [2]>([8, 192])];
            tensor<fp16, [8, 64]> var_368_cast_fp16 = slice_by_index(begin = var_368_begin_0, end = var_368_end_0, x = linear_53_cast_fp16)[name = string("op_368_cast_fp16")];
            tensor<int32, [2]> var_369_begin_0 = const()[name = string("op_369_begin_0"), val = tensor<int32, [2]>([0, 128])];
            tensor<int32, [2]> var_369_end_0 = const()[name = string("op_369_end_0"), val = tensor<int32, [2]>([8, 192])];
            tensor<fp16, [8, 64]> var_369_cast_fp16 = slice_by_index(begin = var_369_begin_0, end = var_369_end_0, x = linear_54_cast_fp16)[name = string("op_369_cast_fp16")];
            tensor<fp16, [8, 64]> var_370_cast_fp16 = mul(x = r_3_cast_fp16, y = var_369_cast_fp16)[name = string("op_370_cast_fp16")];
            tensor<fp16, [8, 64]> var_371_cast_fp16 = add(x = var_368_cast_fp16, y = var_370_cast_fp16)[name = string("op_371_cast_fp16")];
            tensor<fp16, [8, 64]> n_3_cast_fp16 = tanh(x = var_371_cast_fp16)[name = string("n_3_cast_fp16")];
            tensor<fp16, [8, 64]> var_373_cast_fp16 = sub(x = var_29_to_fp16, y = z_3_cast_fp16)[name = string("op_373_cast_fp16")];
            tensor<fp16, [8, 64]> var_374_cast_fp16 = mul(x = var_373_cast_fp16, y = n_3_cast_fp16)[name = string("op_374_cast_fp16")];
            tensor<fp16, [8, 64]> var_375_cast_fp16 = mul(x = z_3_cast_fp16, y = h_3_cast_fp16)[name = string("op_375_cast_fp16")];
            tensor<fp16, [8, 64]> y_3_cast_fp16 = add(x = var_374_cast_fp16, y = var_375_cast_fp16)[name = string("y_3_cast_fp16")];
            tensor<int32, [1]> var_377 = const()[name = string("op_377"), val = tensor<int32, [1]>([-1])];
            tensor<fp16, [512]> block_state_out_1_cast_fp16 = reshape(shape = var_377, x = y_3_cast_fp16)[name = string("block_state_out_1_cast_fp16")];
            tensor<fp16, [64, 64]> model_enc_dprnn_erb_blocks_1_fc_inter_weight_to_fp16 = const()[name = string("model_enc_dprnn_erb_blocks_1_fc_inter_weight_to_fp16"), val = tensor<fp16, [64, 64]>(BLOBFILE(path = string("@model_path/weights/weight.bin"), offset = uint64(387008)))];
            tensor<fp16, [64]> model_enc_dprnn_erb_blocks_1_fc_inter_bias_to_fp16 = const()[name = string("model_enc_dprnn_erb_blocks_1_fc_inter_bias_to_fp16"), val = tensor<fp16, [64]>(BLOBFILE(path = string("@model_path/weights/weight.bin"), offset = uint64(395264)))];
            tensor<fp16, [8, 64]> linear_55_cast_fp16 = linear(bias = model_enc_dprnn_erb_blocks_1_fc_inter_bias_to_fp16, weight = model_enc_dprnn_erb_blocks_1_fc_inter_weight_to_fp16, x = y_3_cast_fp16)[name = string("linear_55_cast_fp16")];
            tensor<int32, [1]> x_inter_5_axes_0 = const()[name = string("x_inter_5_axes_0"), val = tensor<int32, [1]>([-1])];
            tensor<fp16, [64]> model_enc_dprnn_erb_blocks_1_ln_inter_weight_to_fp16 = const()[name = string("model_enc_dprnn_erb_blocks_1_ln_inter_weight_to_fp16"), val = tensor<fp16, [64]>(BLOBFILE(path = string("@model_path/weights/weight.bin"), offset = uint64(395456)))];
            tensor<fp16, [64]> model_enc_dprnn_erb_blocks_1_ln_inter_bias_to_fp16 = const()[name = string("model_enc_dprnn_erb_blocks_1_ln_inter_bias_to_fp16"), val = tensor<fp16, [64]>(BLOBFILE(path = string("@model_path/weights/weight.bin"), offset = uint64(395648)))];
            tensor<fp16, [8, 64]> x_inter_5_cast_fp16 = layer_norm(axes = x_inter_5_axes_0, beta = model_enc_dprnn_erb_blocks_1_ln_inter_bias_to_fp16, epsilon = var_22_to_fp16, gamma = model_enc_dprnn_erb_blocks_1_ln_inter_weight_to_fp16, x = linear_55_cast_fp16)[name = string("x_inter_5_cast_fp16")];
            tensor<int32, [2]> var_389 = const()[name = string("op_389"), val = tensor<int32, [2]>([1, 0])];
            tensor<int32, [1]> var_391_axes_0 = const()[name = string("op_391_axes_0"), val = tensor<int32, [1]>([0])];
            tensor<fp16, [64, 8]> var_390_cast_fp16 = transpose(perm = var_389, x = x_inter_5_cast_fp16)[name = string("transpose_37")];
            tensor<fp16, [1, 64, 8]> var_391_cast_fp16 = expand_dims(axes = var_391_axes_0, x = var_390_cast_fp16)[name = string("op_391_cast_fp16")];
            tensor<int32, [1]> x_inter_7_axes_0 = const()[name = string("x_inter_7_axes_0"), val = tensor<int32, [1]>([2])];
            tensor<fp16, [1, 64, 1, 8]> x_inter_7_cast_fp16 = expand_dims(axes = x_inter_7_axes_0, x = var_391_cast_fp16)[name = string("x_inter_7_cast_fp16")];
            tensor<fp16, [1, 64, 1, 8]> e3_dprnn_cast_fp16 = add(x = x_15_cast_fp16, y = x_inter_7_cast_fp16)[name = string("e3_dprnn_cast_fp16")];
            bool dprnn_erb_state_out_interleave_0 = const()[name = string("dprnn_erb_state_out_interleave_0"), val = bool(false)];
            tensor<fp16, [1024]> dprnn_erb_state_out_cast_fp16 = concat(axis = var_46, interleave = dprnn_erb_state_out_interleave_0, values = (var_290_cast_fp16, block_state_out_1_cast_fp16))[name = string("dprnn_erb_state_out_cast_fp16")];
            tensor<int32, [1]> buf_flat_3_begin_0 = const()[name = string("buf_flat_3_begin_0"), val = tensor<int32, [1]>([1248])];
            tensor<int32, [1]> buf_flat_3_end_0 = const()[name = string("buf_flat_3_end_0"), val = tensor<int32, [1]>([1824])];
            tensor<bool, [1]> buf_flat_3_end_mask_0 = const()[name = string("buf_flat_3_end_mask_0"), val = tensor<bool, [1]>([false])];
            tensor<fp16, [576]> buf_flat_3_cast_fp16 = slice_by_index(begin = buf_flat_3_begin_0, end = buf_flat_3_end_0, end_mask = buf_flat_3_end_mask_0, x = state_in_to_fp16)[name = string("buf_flat_3_cast_fp16")];
            tensor<int32, [4]> var_405 = const()[name = string("op_405"), val = tensor<int32, [4]>([3, 1, 2, 96])];
            tensor<fp16, [3, 1, 2, 96]> buf_3_cast_fp16 = reshape(shape = var_405, x = buf_flat_3_cast_fp16)[name = string("buf_3_cast_fp16")];
            tensor<int32, [4]> var_407_begin_0 = const()[name = string("op_407_begin_0"), val = tensor<int32, [4]>([1, 0, 0, 0])];
            tensor<int32, [4]> var_407_end_0 = const()[name = string("op_407_end_0"), val = tensor<int32, [4]>([3, 1, 2, 96])];
            tensor<bool, [4]> var_407_end_mask_0 = const()[name = string("op_407_end_mask_0"), val = tensor<bool, [4]>([true, true, true, true])];
            tensor<fp16, [2, 1, 2, 96]> var_407_cast_fp16 = slice_by_index(begin = var_407_begin_0, end = var_407_end_0, end_mask = var_407_end_mask_0, x = buf_3_cast_fp16)[name = string("op_407_cast_fp16")];
            bool buf_next_3_interleave_0 = const()[name = string("buf_next_3_interleave_0"), val = bool(false)];
            tensor<fp16, [1, 1, 2, 96]> transpose_5_cast_fp16 = transpose(perm = transpose_5_perm_0, x = feat_spec_cast_fp16)[name = string("transpose_49")];
            tensor<fp16, [3, 1, 2, 96]> buf_next_3_cast_fp16 = concat(axis = var_46, interleave = buf_next_3_interleave_0, values = (var_407_cast_fp16, transpose_5_cast_fp16))[name = string("buf_next_3_cast_fp16")];
            tensor<int32, [4]> var_411 = const()[name = string("op_411"), val = tensor<int32, [4]>([1, 2, 0, 3])];
            tensor<int32, [1]> var_413 = const()[name = string("op_413"), val = tensor<int32, [1]>([-1])];
            tensor<fp16, [576]> df_conv0_state_out_cast_fp16 = reshape(shape = var_413, x = buf_next_3_cast_fp16)[name = string("df_conv0_state_out_cast_fp16")];
            tensor<int32, [2]> var_425_split_sizes_0 = const()[name = string("op_425_split_sizes_0"), val = tensor<int32, [2]>([1, 1])];
            int32 var_425_axis_0 = const()[name = string("op_425_axis_0"), val = int32(1)];
            tensor<fp16, [1, 2, 3, 96]> x_21_cast_fp16 = transpose(perm = var_411, x = buf_next_3_cast_fp16)[name = string("transpose_36")];
            tensor<fp16, [1, 1, 3, 96]> var_425_cast_fp16_0, tensor<fp16, [1, 1, 3, 96]> var_425_cast_fp16_1 = split(axis = var_425_axis_0, split_sizes = var_425_split_sizes_0, x = x_21_cast_fp16)[name = string("op_425_cast_fp16")];
            string var_432_pad_type_0 = const()[name = string("op_432_pad_type_0"), val = string("custom")];
            tensor<int32, [4]> var_432_pad_0 = const()[name = string("op_432_pad_0"), val = tensor<int32, [4]>([0, 0, 1, 1])];
            tensor<int32, [2]> var_432_strides_0 = const()[name = string("op_432_strides_0"), val = tensor<int32, [2]>([1, 1])];
            tensor<int32, [2]> var_432_dilations_0 = const()[name = string("op_432_dilations_0"), val = tensor<int32, [2]>([1, 1])];
            int32 var_432_groups_0 = const()[name = string("op_432_groups_0"), val = int32(1)];
            tensor<fp16, [32, 1, 3, 3]> model_enc_df_conv0_1_convs_0_weight_to_fp16 = const()[name = string("model_enc_df_conv0_1_convs_0_weight_to_fp16"), val = tensor<fp16, [32, 1, 3, 3]>(BLOBFILE(path = string("@model_path/weights/weight.bin"), offset = uint64(395840)))];
            tensor<fp16, [1, 32, 1, 96]> var_432_cast_fp16 = conv(dilations = var_432_dilations_0, groups = var_432_groups_0, pad = var_432_pad_0, pad_type = var_432_pad_type_0, strides = var_432_strides_0, weight = model_enc_df_conv0_1_convs_0_weight_to_fp16, x = var_425_cast_fp16_0)[name = string("op_432_cast_fp16")];
            string var_438_pad_type_0 = const()[name = string("op_438_pad_type_0"), val = string("custom")];
            tensor<int32, [4]> var_438_pad_0 = const()[name = string("op_438_pad_0"), val = tensor<int32, [4]>([0, 0, 1, 1])];
            tensor<int32, [2]> var_438_strides_0 = const()[name = string("op_438_strides_0"), val = tensor<int32, [2]>([1, 1])];
            tensor<int32, [2]> var_438_dilations_0 = const()[name = string("op_438_dilations_0"), val = tensor<int32, [2]>([1, 1])];
            int32 var_438_groups_0 = const()[name = string("op_438_groups_0"), val = int32(1)];
            tensor<fp16, [32, 1, 3, 3]> model_enc_df_conv0_1_convs_1_weight_to_fp16 = const()[name = string("model_enc_df_conv0_1_convs_1_weight_to_fp16"), val = tensor<fp16, [32, 1, 3, 3]>(BLOBFILE(path = string("@model_path/weights/weight.bin"), offset = uint64(396480)))];
            tensor<fp16, [1, 32, 1, 96]> var_438_cast_fp16 = conv(dilations = var_438_dilations_0, groups = var_438_groups_0, pad = var_438_pad_0, pad_type = var_438_pad_type_0, strides = var_438_strides_0, weight = model_enc_df_conv0_1_convs_1_weight_to_fp16, x = var_425_cast_fp16_1)[name = string("op_438_cast_fp16")];
            bool input_51_interleave_0 = const()[name = string("input_51_interleave_0"), val = bool(false)];
            tensor<fp16, [1, 64, 1, 96]> input_51_cast_fp16 = concat(axis = var_47, interleave = input_51_interleave_0, values = (var_432_cast_fp16, var_438_cast_fp16))[name = string("input_51_cast_fp16")];
            string input_53_pad_type_0 = const()[name = string("input_53_pad_type_0"), val = string("valid")];
            tensor<int32, [2]> input_53_strides_0 = const()[name = string("input_53_strides_0"), val = tensor<int32, [2]>([1, 1])];
            tensor<int32, [4]> input_53_pad_0 = const()[name = string("input_53_pad_0"), val = tensor<int32, [4]>([0, 0, 0, 0])];
            tensor<int32, [2]> input_53_dilations_0 = const()[name = string("input_53_dilations_0"), val = tensor<int32, [2]>([1, 1])];
            int32 input_53_groups_0 = const()[name = string("input_53_groups_0"), val = int32(1)];
            tensor<fp16, [64, 64, 1, 1]> const_28_to_fp16 = const()[name = string("const_28_to_fp16"), val = tensor<fp16, [64, 64, 1, 1]>(BLOBFILE(path = string("@model_path/weights/weight.bin"), offset = uint64(397120)))];
            tensor<fp16, [64]> const_29_to_fp16 = const()[name = string("const_29_to_fp16"), val = tensor<fp16, [64]>(BLOBFILE(path = string("@model_path/weights/weight.bin"), offset = uint64(405376)))];
            tensor<fp16, [1, 64, 1, 96]> input_55_cast_fp16 = conv(bias = const_29_to_fp16, dilations = input_53_dilations_0, groups = input_53_groups_0, pad = input_53_pad_0, pad_type = input_53_pad_type_0, strides = input_53_strides_0, weight = const_28_to_fp16, x = input_51_cast_fp16)[name = string("input_55_cast_fp16")];
            tensor<fp16, [1, 64, 1, 96]> input_57_cast_fp16 = relu(x = input_55_cast_fp16)[name = string("input_57_cast_fp16")];
            string input_59_pad_type_0 = const()[name = string("input_59_pad_type_0"), val = string("custom")];
            tensor<int32, [4]> input_59_pad_0 = const()[name = string("input_59_pad_0"), val = tensor<int32, [4]>([0, 0, 1, 1])];
            tensor<int32, [2]> input_59_strides_0 = const()[name = string("input_59_strides_0"), val = tensor<int32, [2]>([1, 2])];
            int32 input_59_groups_0 = const()[name = string("input_59_groups_0"), val = int32(64)];
            tensor<int32, [2]> input_59_dilations_0 = const()[name = string("input_59_dilations_0"), val = tensor<int32, [2]>([1, 1])];
            tensor<fp16, [64, 1, 1, 3]> model_enc_df_conv1_0_weight_to_fp16 = const()[name = string("model_enc_df_conv1_0_weight_to_fp16"), val = tensor<fp16, [64, 1, 1, 3]>(BLOBFILE(path = string("@model_path/weights/weight.bin"), offset = uint64(405568)))];
            tensor<fp16, [1, 64, 1, 48]> input_59_cast_fp16 = conv(dilations = input_59_dilations_0, groups = input_59_groups_0, pad = input_59_pad_0, pad_type = input_59_pad_type_0, strides = input_59_strides_0, weight = model_enc_df_conv1_0_weight_to_fp16, x = input_57_cast_fp16)[name = string("input_59_cast_fp16")];
            string input_61_pad_type_0 = const()[name = string("input_61_pad_type_0"), val = string("valid")];
            tensor<int32, [2]> input_61_strides_0 = const()[name = string("input_61_strides_0"), val = tensor<int32, [2]>([1, 1])];
            tensor<int32, [4]> input_61_pad_0 = const()[name = string("input_61_pad_0"), val = tensor<int32, [4]>([0, 0, 0, 0])];
            tensor<int32, [2]> input_61_dilations_0 = const()[name = string("input_61_dilations_0"), val = tensor<int32, [2]>([1, 1])];
            int32 input_61_groups_0 = const()[name = string("input_61_groups_0"), val = int32(1)];
            tensor<fp16, [64, 64, 1, 1]> const_30_to_fp16 = const()[name = string("const_30_to_fp16"), val = tensor<fp16, [64, 64, 1, 1]>(BLOBFILE(path = string("@model_path/weights/weight.bin"), offset = uint64(406016)))];
            tensor<fp16, [64]> const_31_to_fp16 = const()[name = string("const_31_to_fp16"), val = tensor<fp16, [64]>(BLOBFILE(path = string("@model_path/weights/weight.bin"), offset = uint64(414272)))];
            tensor<fp16, [1, 64, 1, 48]> input_63_cast_fp16 = conv(bias = const_31_to_fp16, dilations = input_61_dilations_0, groups = input_61_groups_0, pad = input_61_pad_0, pad_type = input_61_pad_type_0, strides = input_61_strides_0, weight = const_30_to_fp16, x = input_59_cast_fp16)[name = string("input_63_cast_fp16")];
            tensor<fp16, [1, 64, 1, 48]> inputs_5_cast_fp16 = relu(x = input_63_cast_fp16)[name = string("inputs_5_cast_fp16")];
            tensor<int32, [1]> var_484_axes_0 = const()[name = string("op_484_axes_0"), val = tensor<int32, [1]>([2])];
            tensor<fp16, [1, 64, 48]> var_484_cast_fp16 = squeeze(axes = var_484_axes_0, x = inputs_5_cast_fp16)[name = string("op_484_cast_fp16")];
            tensor<int32, [3]> transpose_8_perm_0 = const()[name = string("transpose_8_perm_0"), val = tensor<int32, [3]>([2, 0, 1])];
            tensor<int32, [1]> slice_by_index_13 = const()[name = string("slice_by_index_13"), val = tensor<int32, [1]>([48])];
            tensor<fp32, [49, 1, 64]> concat_9 = const()[name = string("concat_9"), val = tensor<fp32, [49, 1, 64]>(BLOBFILE(path = string("@model_path/weights/weight.bin"), offset = uint64(414464)))];
            tensor<int32, [1]> while_loop_4_loop_vars0_0 = const()[name = string("while_loop_4_loop_vars0_0"), val = tensor<int32, [1]>([0])];
            tensor<fp16, [48, 1, 64]> transpose_8_cast_fp16 = transpose(perm = transpose_8_perm_0, x = var_484_cast_fp16)[name = string("transpose_35")];
            tensor<int32, [1]> while_loop_4_0, tensor<fp32, [49, 1, 64]> while_loop_4_1 = while_loop(loop_vars = (while_loop_4_loop_vars0_0, concat_9))[name = string("while_loop_4")]
                (tensor<int32, [1]> while_loop_4_loop_vars0_0_x0_1_1_1_0, tensor<fp32, [49, 1, 64]> concat_9_x0_1_1_1_0) {
                    tensor<bool, [1]> less_9 = less(x = while_loop_4_loop_vars0_0_x0_1_1_1_0, y = slice_by_index_13)[name = string("less_9")];
                } -> (less_9)
                (tensor<int32, [1]> while_loop_4_loop_vars0_0_x0_1_1_1_1, tensor<fp32, [49, 1, 64]> concat_9_x0_1_1_1_1) {
                    int32 gather_18_axis_0 = const()[name = string("gather_18_axis_0"), val = int32(0)];
                    int32 gather_18_batch_dims_0 = const()[name = string("gather_18_batch_dims_0"), val = int32(0)];
                    bool gather_18_validate_indices_0 = const()[name = string("gather_18_validate_indices_0"), val = bool(false)];
                    string while_loop_4_loop_vars0_0_x0_1_to_uint16_dtype_0 = const()[name = string("while_loop_4_loop_vars0_0_x0_1_to_uint16_dtype_0"), val = string("uint16")];
                    tensor<uint16, [1]> while_loop_4_loop_vars0_0_x0_1_to_uint16 = cast(dtype = while_loop_4_loop_vars0_0_x0_1_to_uint16_dtype_0, x = while_loop_4_loop_vars0_0_x0_1_1_1_1)[name = string("cast_82")];
                    tensor<fp16, [1, 1, 64]> gather_18_cast_fp16_cast_uint16 = gather(axis = gather_18_axis_0, batch_dims = gather_18_batch_dims_0, indices = while_loop_4_loop_vars0_0_x0_1_to_uint16, validate_indices = gather_18_validate_indices_0, x = transpose_8_cast_fp16)[name = string("gather_18_cast_fp16_cast_uint16")];
                    int32 gather_19_axis_0 = const()[name = string("gather_19_axis_0"), val = int32(0)];
                    int32 gather_19_batch_dims_0 = const()[name = string("gather_19_batch_dims_0"), val = int32(0)];
                    bool gather_19_validate_indices_0 = const()[name = string("gather_19_validate_indices_0"), val = bool(false)];
                    string concat_9_x0_1_to_fp16_dtype_0 = const()[name = string("concat_9_x0_1_to_fp16_dtype_0"), val = string("fp16")];
                    tensor<fp16, [49, 1, 64]> concat_9_x0_1_to_fp16 = cast(dtype = concat_9_x0_1_to_fp16_dtype_0, x = concat_9_x0_1_1_1_1)[name = string("cast_81")];
                    tensor<fp16, [1, 1, 64]> gather_19_cast_fp16_cast_uint16 = gather(axis = gather_19_axis_0, batch_dims = gather_19_batch_dims_0, indices = while_loop_4_loop_vars0_0_x0_1_to_uint16, validate_indices = gather_19_validate_indices_0, x = concat_9_x0_1_to_fp16)[name = string("gather_19_cast_fp16_cast_uint16")];
                    tensor<int32, [1]> squeeze_18_axes_0 = const()[name = string("squeeze_18_axes_0"), val = tensor<int32, [1]>([0])];
                    tensor<fp16, [1, 64]> squeeze_18_cast_fp16 = squeeze(axes = squeeze_18_axes_0, x = gather_18_cast_fp16_cast_uint16)[name = string("squeeze_18_cast_fp16")];
                    tensor<int32, [1]> squeeze_19_axes_0 = const()[name = string("squeeze_19_axes_0"), val = tensor<int32, [1]>([0])];
                    tensor<fp16, [1, 64]> squeeze_19_cast_fp16 = squeeze(axes = squeeze_19_axes_0, x = gather_19_cast_fp16_cast_uint16)[name = string("squeeze_19_cast_fp16")];
                    tensor<fp16, [64, 64]> linear_62_weight_0_to_fp16 = const()[name = string("linear_62_weight_0_to_fp16"), val = tensor<fp16, [64, 64]>(BLOBFILE(path = string("@model_path/weights/weight.bin"), offset = uint64(427072)))];
                    tensor<fp16, [64]> linear_62_bias_0_to_fp16 = const()[name = string("linear_62_bias_0_to_fp16"), val = tensor<fp16, [64]>(BLOBFILE(path = string("@model_path/weights/weight.bin"), offset = uint64(435328)))];
                    tensor<fp16, [1, 64]> linear_62_cast_fp16 = linear(bias = linear_62_bias_0_to_fp16, weight = linear_62_weight_0_to_fp16, x = squeeze_18_cast_fp16)[name = string("linear_62_cast_fp16")];
                    tensor<fp16, [64, 64]> linear_63_weight_0_to_fp16 = const()[name = string("linear_63_weight_0_to_fp16"), val = tensor<fp16, [64, 64]>(BLOBFILE(path = string("@model_path/weights/weight.bin"), offset = uint64(435520)))];
                    tensor<fp16, [64]> linear_63_bias_0_to_fp16 = const()[name = string("linear_63_bias_0_to_fp16"), val = tensor<fp16, [64]>(BLOBFILE(path = string("@model_path/weights/weight.bin"), offset = uint64(443776)))];
                    tensor<fp16, [1, 64]> linear_63_cast_fp16 = linear(bias = linear_63_bias_0_to_fp16, weight = linear_63_weight_0_to_fp16, x = squeeze_19_cast_fp16)[name = string("linear_63_cast_fp16")];
                    tensor<fp16, [1, 64]> add_45_cast_fp16 = add(x = linear_62_cast_fp16, y = linear_63_cast_fp16)[name = string("add_45_cast_fp16")];
                    tensor<fp16, [1, 64]> sigmoid_18_cast_fp16 = sigmoid(x = add_45_cast_fp16)[name = string("sigmoid_18_cast_fp16")];
                    tensor<fp16, [64, 64]> linear_64_weight_0_to_fp16 = const()[name = string("linear_64_weight_0_to_fp16"), val = tensor<fp16, [64, 64]>(BLOBFILE(path = string("@model_path/weights/weight.bin"), offset = uint64(443968)))];
                    tensor<fp16, [64]> linear_64_bias_0_to_fp16 = const()[name = string("linear_64_bias_0_to_fp16"), val = tensor<fp16, [64]>(BLOBFILE(path = string("@model_path/weights/weight.bin"), offset = uint64(452224)))];
                    tensor<fp16, [1, 64]> linear_64_cast_fp16 = linear(bias = linear_64_bias_0_to_fp16, weight = linear_64_weight_0_to_fp16, x = squeeze_18_cast_fp16)[name = string("linear_64_cast_fp16")];
                    tensor<fp16, [64, 64]> linear_65_weight_0_to_fp16 = const()[name = string("linear_65_weight_0_to_fp16"), val = tensor<fp16, [64, 64]>(BLOBFILE(path = string("@model_path/weights/weight.bin"), offset = uint64(452416)))];
                    tensor<fp16, [64]> linear_65_bias_0_to_fp16 = const()[name = string("linear_65_bias_0_to_fp16"), val = tensor<fp16, [64]>(BLOBFILE(path = string("@model_path/weights/weight.bin"), offset = uint64(460672)))];
                    tensor<fp16, [1, 64]> linear_65_cast_fp16 = linear(bias = linear_65_bias_0_to_fp16, weight = linear_65_weight_0_to_fp16, x = squeeze_19_cast_fp16)[name = string("linear_65_cast_fp16")];
                    tensor<fp16, [1, 64]> add_46_cast_fp16 = add(x = linear_64_cast_fp16, y = linear_65_cast_fp16)[name = string("add_46_cast_fp16")];
                    tensor<fp16, [1, 64]> sigmoid_19_cast_fp16 = sigmoid(x = add_46_cast_fp16)[name = string("sigmoid_19_cast_fp16")];
                    tensor<fp16, [64, 64]> linear_66_weight_0_to_fp16 = const()[name = string("linear_66_weight_0_to_fp16"), val = tensor<fp16, [64, 64]>(BLOBFILE(path = string("@model_path/weights/weight.bin"), offset = uint64(460864)))];
                    tensor<fp16, [64]> linear_66_bias_0_to_fp16 = const()[name = string("linear_66_bias_0_to_fp16"), val = tensor<fp16, [64]>(BLOBFILE(path = string("@model_path/weights/weight.bin"), offset = uint64(469120)))];
                    tensor<fp16, [1, 64]> linear_66_cast_fp16 = linear(bias = linear_66_bias_0_to_fp16, weight = linear_66_weight_0_to_fp16, x = squeeze_18_cast_fp16)[name = string("linear_66_cast_fp16")];
                    tensor<fp16, [64, 64]> linear_67_weight_0_to_fp16 = const()[name = string("linear_67_weight_0_to_fp16"), val = tensor<fp16, [64, 64]>(BLOBFILE(path = string("@model_path/weights/weight.bin"), offset = uint64(469312)))];
                    tensor<fp16, [64]> linear_67_bias_0_to_fp16 = const()[name = string("linear_67_bias_0_to_fp16"), val = tensor<fp16, [64]>(BLOBFILE(path = string("@model_path/weights/weight.bin"), offset = uint64(477568)))];
                    tensor<fp16, [1, 64]> linear_67_cast_fp16 = linear(bias = linear_67_bias_0_to_fp16, weight = linear_67_weight_0_to_fp16, x = squeeze_19_cast_fp16)[name = string("linear_67_cast_fp16")];
                    tensor<fp16, [1, 64]> mul_28_cast_fp16 = mul(x = sigmoid_18_cast_fp16, y = linear_67_cast_fp16)[name = string("mul_28_cast_fp16")];
                    tensor<fp16, [1, 64]> add_47_cast_fp16 = add(x = linear_66_cast_fp16, y = mul_28_cast_fp16)[name = string("add_47_cast_fp16")];
                    tensor<fp16, [1, 64]> tanh_9_cast_fp16 = tanh(x = add_47_cast_fp16)[name = string("tanh_9_cast_fp16")];
                    fp16 sub_9_x_0_to_fp16 = const()[name = string("sub_9_x_0_to_fp16"), val = fp16(0x1p+0)];
                    tensor<fp16, [1, 64]> sub_9_cast_fp16 = sub(x = sub_9_x_0_to_fp16, y = sigmoid_19_cast_fp16)[name = string("sub_9_cast_fp16")];
                    tensor<fp16, [1, 64]> mul_29_cast_fp16 = mul(x = sub_9_cast_fp16, y = tanh_9_cast_fp16)[name = string("mul_29_cast_fp16")];
                    tensor<fp16, [1, 64]> mul_30_cast_fp16 = mul(x = sigmoid_19_cast_fp16, y = squeeze_19_cast_fp16)[name = string("mul_30_cast_fp16")];
                    tensor<fp16, [1, 64]> add_48_cast_fp16 = add(x = mul_29_cast_fp16, y = mul_30_cast_fp16)[name = string("add_48_cast_fp16")];
                    int32 add_49_y_0 = const()[name = string("add_49_y_0"), val = int32(1)];
                    tensor<int32, [1]> add_49 = add(x = while_loop_4_loop_vars0_0_x0_1_1_1_1, y = add_49_y_0)[name = string("add_49")];
                    tensor<int32, [1]> expand_dims_9_axes_0 = const()[name = string("expand_dims_9_axes_0"), val = tensor<int32, [1]>([0])];
                    tensor<fp16, [1, 1, 64]> expand_dims_9_cast_fp16 = expand_dims(axes = expand_dims_9_axes_0, x = add_48_cast_fp16)[name = string("expand_dims_9_cast_fp16")];
                    int32 scatter_9_axis_0 = const()[name = string("scatter_9_axis_0"), val = int32(0)];
                    string scatter_9_mode_0 = const()[name = string("scatter_9_mode_0"), val = string("add")];
                    bool scatter_9_validate_indices_0 = const()[name = string("scatter_9_validate_indices_0"), val = bool(false)];
                    tensor<fp16, [49, 1, 64]> scatter_9_cast_fp16 = scatter(axis = scatter_9_axis_0, data = concat_9_x0_1_to_fp16, indices = add_49, mode = scatter_9_mode_0, updates = expand_dims_9_cast_fp16, validate_indices = scatter_9_validate_indices_0)[name = string("scatter_9_cast_fp16")];
                    string scatter_9_cast_fp16_to_fp32_dtype_0 = const()[name = string("scatter_9_cast_fp16_to_fp32_dtype_0"), val = string("fp32")];
                    tensor<fp32, [49, 1, 64]> scatter_9_cast_fp16_to_fp32 = cast(dtype = scatter_9_cast_fp16_to_fp32_dtype_0, x = scatter_9_cast_fp16)[name = string("cast_80")];
                } -> (add_49, scatter_9_cast_fp16_to_fp32);
            tensor<int32, [3]> input_67_tmp_forward_begin_0 = const()[name = string("input_67_tmp_forward_begin_0"), val = tensor<int32, [3]>([1, 0, 0])];
            tensor<int32, [3]> input_67_tmp_forward_end_0 = const()[name = string("input_67_tmp_forward_end_0"), val = tensor<int32, [3]>([0, 0, 0])];
            tensor<bool, [3]> input_67_tmp_forward_begin_mask_0 = const()[name = string("input_67_tmp_forward_begin_mask_0"), val = tensor<bool, [3]>([false, true, true])];
            tensor<bool, [3]> input_67_tmp_forward_end_mask_0 = const()[name = string("input_67_tmp_forward_end_mask_0"), val = tensor<bool, [3]>([true, true, true])];
            string while_loop_4_1_to_fp16_dtype_0 = const()[name = string("while_loop_4_1_to_fp16_dtype_0"), val = string("fp16")];
            tensor<fp16, [49, 1, 64]> while_loop_4_1_to_fp16 = cast(dtype = while_loop_4_1_to_fp16_dtype_0, x = while_loop_4_1)[name = string("cast_79")];
            tensor<fp16, [48, 1, 64]> input_67_tmp_forward_cast_fp16 = slice_by_index(begin = input_67_tmp_forward_begin_0, begin_mask = input_67_tmp_forward_begin_mask_0, end = input_67_tmp_forward_end_0, end_mask = input_67_tmp_forward_end_mask_0, x = while_loop_4_1_to_fp16)[name = string("input_67_tmp_forward_cast_fp16")];
            tensor<int32, [1]> reverse_2_axes_0 = const()[name = string("reverse_2_axes_0"), val = tensor<int32, [1]>([0])];
            tensor<fp16, [48, 1, 64]> reverse_2_cast_fp16 = reverse(axes = reverse_2_axes_0, x = transpose_8_cast_fp16)[name = string("reverse_2_cast_fp16")];
            tensor<int32, [1]> slice_by_index_16 = const()[name = string("slice_by_index_16"), val = tensor<int32, [1]>([48])];
            tensor<int32, [1]> while_loop_5_loop_vars0_0 = const()[name = string("while_loop_5_loop_vars0_0"), val = tensor<int32, [1]>([0])];
            tensor<int32, [1]> while_loop_5_0, tensor<fp32, [49, 1, 64]> while_loop_5_1 = while_loop(loop_vars = (while_loop_5_loop_vars0_0, concat_9))[name = string("while_loop_5")]
                (tensor<int32, [1]> while_loop_5_loop_vars0_0_x0_1_1_1_0, tensor<fp32, [49, 1, 64]> concat_11_x0_1_1_1_0) {
                    tensor<bool, [1]> less_11 = less(x = while_loop_5_loop_vars0_0_x0_1_1_1_0, y = slice_by_index_16)[name = string("less_11")];
                } -> (less_11)
                (tensor<int32, [1]> while_loop_5_loop_vars0_0_x0_1_1_1_1, tensor<fp32, [49, 1, 64]> concat_11_x0_1_1_1_1) {
                    int32 gather_22_axis_0 = const()[name = string("gather_22_axis_0"), val = int32(0)];
                    int32 gather_22_batch_dims_0 = const()[name = string("gather_22_batch_dims_0"), val = int32(0)];
                    bool gather_22_validate_indices_0 = const()[name = string("gather_22_validate_indices_0"), val = bool(false)];
                    string while_loop_5_loop_vars0_0_x0_1_to_uint16_dtype_0 = const()[name = string("while_loop_5_loop_vars0_0_x0_1_to_uint16_dtype_0"), val = string("uint16")];
                    tensor<uint16, [1]> while_loop_5_loop_vars0_0_x0_1_to_uint16 = cast(dtype = while_loop_5_loop_vars0_0_x0_1_to_uint16_dtype_0, x = while_loop_5_loop_vars0_0_x0_1_1_1_1)[name = string("cast_78")];
                    tensor<fp16, [1, 1, 64]> gather_22_cast_fp16_cast_uint16 = gather(axis = gather_22_axis_0, batch_dims = gather_22_batch_dims_0, indices = while_loop_5_loop_vars0_0_x0_1_to_uint16, validate_indices = gather_22_validate_indices_0, x = reverse_2_cast_fp16)[name = string("gather_22_cast_fp16_cast_uint16")];
                    int32 gather_23_axis_0 = const()[name = string("gather_23_axis_0"), val = int32(0)];
                    int32 gather_23_batch_dims_0 = const()[name = string("gather_23_batch_dims_0"), val = int32(0)];
                    bool gather_23_validate_indices_0 = const()[name = string("gather_23_validate_indices_0"), val = bool(false)];
                    string concat_11_x0_1_to_fp16_dtype_0 = const()[name = string("concat_11_x0_1_to_fp16_dtype_0"), val = string("fp16")];
                    tensor<fp16, [49, 1, 64]> concat_11_x0_1_to_fp16 = cast(dtype = concat_11_x0_1_to_fp16_dtype_0, x = concat_11_x0_1_1_1_1)[name = string("cast_77")];
                    tensor<fp16, [1, 1, 64]> gather_23_cast_fp16_cast_uint16 = gather(axis = gather_23_axis_0, batch_dims = gather_23_batch_dims_0, indices = while_loop_5_loop_vars0_0_x0_1_to_uint16, validate_indices = gather_23_validate_indices_0, x = concat_11_x0_1_to_fp16)[name = string("gather_23_cast_fp16_cast_uint16")];
                    tensor<int32, [1]> squeeze_22_axes_0 = const()[name = string("squeeze_22_axes_0"), val = tensor<int32, [1]>([0])];
                    tensor<fp16, [1, 64]> squeeze_22_cast_fp16 = squeeze(axes = squeeze_22_axes_0, x = gather_22_cast_fp16_cast_uint16)[name = string("squeeze_22_cast_fp16")];
                    tensor<int32, [1]> squeeze_23_axes_0 = const()[name = string("squeeze_23_axes_0"), val = tensor<int32, [1]>([0])];
                    tensor<fp16, [1, 64]> squeeze_23_cast_fp16 = squeeze(axes = squeeze_23_axes_0, x = gather_23_cast_fp16_cast_uint16)[name = string("squeeze_23_cast_fp16")];
                    tensor<fp16, [64, 64]> linear_74_weight_0_to_fp16 = const()[name = string("linear_74_weight_0_to_fp16"), val = tensor<fp16, [64, 64]>(BLOBFILE(path = string("@model_path/weights/weight.bin"), offset = uint64(477760)))];
                    tensor<fp16, [64]> linear_74_bias_0_to_fp16 = const()[name = string("linear_74_bias_0_to_fp16"), val = tensor<fp16, [64]>(BLOBFILE(path = string("@model_path/weights/weight.bin"), offset = uint64(486016)))];
                    tensor<fp16, [1, 64]> linear_74_cast_fp16 = linear(bias = linear_74_bias_0_to_fp16, weight = linear_74_weight_0_to_fp16, x = squeeze_22_cast_fp16)[name = string("linear_74_cast_fp16")];
                    tensor<fp16, [64, 64]> linear_75_weight_0_to_fp16 = const()[name = string("linear_75_weight_0_to_fp16"), val = tensor<fp16, [64, 64]>(BLOBFILE(path = string("@model_path/weights/weight.bin"), offset = uint64(486208)))];
                    tensor<fp16, [64]> linear_75_bias_0_to_fp16 = const()[name = string("linear_75_bias_0_to_fp16"), val = tensor<fp16, [64]>(BLOBFILE(path = string("@model_path/weights/weight.bin"), offset = uint64(494464)))];
                    tensor<fp16, [1, 64]> linear_75_cast_fp16 = linear(bias = linear_75_bias_0_to_fp16, weight = linear_75_weight_0_to_fp16, x = squeeze_23_cast_fp16)[name = string("linear_75_cast_fp16")];
                    tensor<fp16, [1, 64]> add_55_cast_fp16 = add(x = linear_74_cast_fp16, y = linear_75_cast_fp16)[name = string("add_55_cast_fp16")];
                    tensor<fp16, [1, 64]> sigmoid_22_cast_fp16 = sigmoid(x = add_55_cast_fp16)[name = string("sigmoid_22_cast_fp16")];
                    tensor<fp16, [64, 64]> linear_76_weight_0_to_fp16 = const()[name = string("linear_76_weight_0_to_fp16"), val = tensor<fp16, [64, 64]>(BLOBFILE(path = string("@model_path/weights/weight.bin"), offset = uint64(494656)))];
                    tensor<fp16, [64]> linear_76_bias_0_to_fp16 = const()[name = string("linear_76_bias_0_to_fp16"), val = tensor<fp16, [64]>(BLOBFILE(path = string("@model_path/weights/weight.bin"), offset = uint64(502912)))];
                    tensor<fp16, [1, 64]> linear_76_cast_fp16 = linear(bias = linear_76_bias_0_to_fp16, weight = linear_76_weight_0_to_fp16, x = squeeze_22_cast_fp16)[name = string("linear_76_cast_fp16")];
                    tensor<fp16, [64, 64]> linear_77_weight_0_to_fp16 = const()[name = string("linear_77_weight_0_to_fp16"), val = tensor<fp16, [64, 64]>(BLOBFILE(path = string("@model_path/weights/weight.bin"), offset = uint64(503104)))];
                    tensor<fp16, [64]> linear_77_bias_0_to_fp16 = const()[name = string("linear_77_bias_0_to_fp16"), val = tensor<fp16, [64]>(BLOBFILE(path = string("@model_path/weights/weight.bin"), offset = uint64(511360)))];
                    tensor<fp16, [1, 64]> linear_77_cast_fp16 = linear(bias = linear_77_bias_0_to_fp16, weight = linear_77_weight_0_to_fp16, x = squeeze_23_cast_fp16)[name = string("linear_77_cast_fp16")];
                    tensor<fp16, [1, 64]> add_56_cast_fp16 = add(x = linear_76_cast_fp16, y = linear_77_cast_fp16)[name = string("add_56_cast_fp16")];
                    tensor<fp16, [1, 64]> sigmoid_23_cast_fp16 = sigmoid(x = add_56_cast_fp16)[name = string("sigmoid_23_cast_fp16")];
                    tensor<fp16, [64, 64]> linear_78_weight_0_to_fp16 = const()[name = string("linear_78_weight_0_to_fp16"), val = tensor<fp16, [64, 64]>(BLOBFILE(path = string("@model_path/weights/weight.bin"), offset = uint64(511552)))];
                    tensor<fp16, [64]> linear_78_bias_0_to_fp16 = const()[name = string("linear_78_bias_0_to_fp16"), val = tensor<fp16, [64]>(BLOBFILE(path = string("@model_path/weights/weight.bin"), offset = uint64(519808)))];
                    tensor<fp16, [1, 64]> linear_78_cast_fp16 = linear(bias = linear_78_bias_0_to_fp16, weight = linear_78_weight_0_to_fp16, x = squeeze_22_cast_fp16)[name = string("linear_78_cast_fp16")];
                    tensor<fp16, [64, 64]> linear_79_weight_0_to_fp16 = const()[name = string("linear_79_weight_0_to_fp16"), val = tensor<fp16, [64, 64]>(BLOBFILE(path = string("@model_path/weights/weight.bin"), offset = uint64(520000)))];
                    tensor<fp16, [64]> linear_79_bias_0_to_fp16 = const()[name = string("linear_79_bias_0_to_fp16"), val = tensor<fp16, [64]>(BLOBFILE(path = string("@model_path/weights/weight.bin"), offset = uint64(528256)))];
                    tensor<fp16, [1, 64]> linear_79_cast_fp16 = linear(bias = linear_79_bias_0_to_fp16, weight = linear_79_weight_0_to_fp16, x = squeeze_23_cast_fp16)[name = string("linear_79_cast_fp16")];
                    tensor<fp16, [1, 64]> mul_34_cast_fp16 = mul(x = sigmoid_22_cast_fp16, y = linear_79_cast_fp16)[name = string("mul_34_cast_fp16")];
                    tensor<fp16, [1, 64]> add_57_cast_fp16 = add(x = linear_78_cast_fp16, y = mul_34_cast_fp16)[name = string("add_57_cast_fp16")];
                    tensor<fp16, [1, 64]> tanh_11_cast_fp16 = tanh(x = add_57_cast_fp16)[name = string("tanh_11_cast_fp16")];
                    fp16 sub_11_x_0_to_fp16 = const()[name = string("sub_11_x_0_to_fp16"), val = fp16(0x1p+0)];
                    tensor<fp16, [1, 64]> sub_11_cast_fp16 = sub(x = sub_11_x_0_to_fp16, y = sigmoid_23_cast_fp16)[name = string("sub_11_cast_fp16")];
                    tensor<fp16, [1, 64]> mul_35_cast_fp16 = mul(x = sub_11_cast_fp16, y = tanh_11_cast_fp16)[name = string("mul_35_cast_fp16")];
                    tensor<fp16, [1, 64]> mul_36_cast_fp16 = mul(x = sigmoid_23_cast_fp16, y = squeeze_23_cast_fp16)[name = string("mul_36_cast_fp16")];
                    tensor<fp16, [1, 64]> add_58_cast_fp16 = add(x = mul_35_cast_fp16, y = mul_36_cast_fp16)[name = string("add_58_cast_fp16")];
                    int32 add_59_y_0 = const()[name = string("add_59_y_0"), val = int32(1)];
                    tensor<int32, [1]> add_59 = add(x = while_loop_5_loop_vars0_0_x0_1_1_1_1, y = add_59_y_0)[name = string("add_59")];
                    tensor<int32, [1]> expand_dims_11_axes_0 = const()[name = string("expand_dims_11_axes_0"), val = tensor<int32, [1]>([0])];
                    tensor<fp16, [1, 1, 64]> expand_dims_11_cast_fp16 = expand_dims(axes = expand_dims_11_axes_0, x = add_58_cast_fp16)[name = string("expand_dims_11_cast_fp16")];
                    int32 scatter_11_axis_0 = const()[name = string("scatter_11_axis_0"), val = int32(0)];
                    string scatter_11_mode_0 = const()[name = string("scatter_11_mode_0"), val = string("add")];
                    bool scatter_11_validate_indices_0 = const()[name = string("scatter_11_validate_indices_0"), val = bool(false)];
                    tensor<fp16, [49, 1, 64]> scatter_11_cast_fp16 = scatter(axis = scatter_11_axis_0, data = concat_11_x0_1_to_fp16, indices = add_59, mode = scatter_11_mode_0, updates = expand_dims_11_cast_fp16, validate_indices = scatter_11_validate_indices_0)[name = string("scatter_11_cast_fp16")];
                    string scatter_11_cast_fp16_to_fp32_dtype_0 = const()[name = string("scatter_11_cast_fp16_to_fp32_dtype_0"), val = string("fp32")];
                    tensor<fp32, [49, 1, 64]> scatter_11_cast_fp16_to_fp32 = cast(dtype = scatter_11_cast_fp16_to_fp32_dtype_0, x = scatter_11_cast_fp16)[name = string("cast_76")];
                } -> (add_59, scatter_11_cast_fp16_to_fp32);
            tensor<int32, [3]> input_67_tmp_backward_reverse_begin_0 = const()[name = string("input_67_tmp_backward_reverse_begin_0"), val = tensor<int32, [3]>([1, 0, 0])];
            tensor<int32, [3]> input_67_tmp_backward_reverse_end_0 = const()[name = string("input_67_tmp_backward_reverse_end_0"), val = tensor<int32, [3]>([0, 0, 0])];
            tensor<bool, [3]> input_67_tmp_backward_reverse_begin_mask_0 = const()[name = string("input_67_tmp_backward_reverse_begin_mask_0"), val = tensor<bool, [3]>([false, true, true])];
            tensor<bool, [3]> input_67_tmp_backward_reverse_end_mask_0 = const()[name = string("input_67_tmp_backward_reverse_end_mask_0"), val = tensor<bool, [3]>([true, true, true])];
            string while_loop_5_1_to_fp16_dtype_0 = const()[name = string("while_loop_5_1_to_fp16_dtype_0"), val = string("fp16")];
            tensor<fp16, [49, 1, 64]> while_loop_5_1_to_fp16 = cast(dtype = while_loop_5_1_to_fp16_dtype_0, x = while_loop_5_1)[name = string("cast_75")];
            tensor<fp16, [48, 1, 64]> input_67_tmp_backward_reverse_cast_fp16 = slice_by_index(begin = input_67_tmp_backward_reverse_begin_0, begin_mask = input_67_tmp_backward_reverse_begin_mask_0, end = input_67_tmp_backward_reverse_end_0, end_mask = input_67_tmp_backward_reverse_end_mask_0, x = while_loop_5_1_to_fp16)[name = string("input_67_tmp_backward_reverse_cast_fp16")];
            tensor<int32, [1]> input_67_tmp_backward_axes_0 = const()[name = string("input_67_tmp_backward_axes_0"), val = tensor<int32, [1]>([0])];
            tensor<fp16, [48, 1, 64]> input_67_tmp_backward_cast_fp16 = reverse(axes = input_67_tmp_backward_axes_0, x = input_67_tmp_backward_reverse_cast_fp16)[name = string("input_67_tmp_backward_cast_fp16")];
            int32 input_67_tmp_axis_0 = const()[name = string("input_67_tmp_axis_0"), val = int32(2)];
            bool input_67_tmp_interleave_0 = const()[name = string("input_67_tmp_interleave_0"), val = bool(false)];
            tensor<fp16, [48, 1, 128]> input_67_tmp_cast_fp16 = concat(axis = input_67_tmp_axis_0, interleave = input_67_tmp_interleave_0, values = (input_67_tmp_forward_cast_fp16, input_67_tmp_backward_cast_fp16))[name = string("input_67_tmp_cast_fp16")];
            tensor<int32, [3]> input_67_perm_0 = const()[name = string("input_67_perm_0"), val = tensor<int32, [3]>([1, 0, 2])];
            tensor<fp16, [64, 128]> model_enc_dprnn_df_blocks_0_fc_intra_weight_to_fp16 = const()[name = string("model_enc_dprnn_df_blocks_0_fc_intra_weight_to_fp16"), val = tensor<fp16, [64, 128]>(BLOBFILE(path = string("@model_path/weights/weight.bin"), offset = uint64(528448)))];
            tensor<fp16, [64]> model_enc_dprnn_df_blocks_0_fc_intra_bias_to_fp16 = const()[name = string("model_enc_dprnn_df_blocks_0_fc_intra_bias_to_fp16"), val = tensor<fp16, [64]>(BLOBFILE(path = string("@model_path/weights/weight.bin"), offset = uint64(544896)))];
            tensor<fp16, [1, 48, 128]> input_67_cast_fp16 = transpose(perm = input_67_perm_0, x = input_67_tmp_cast_fp16)[name = string("transpose_34")];
            tensor<fp16, [1, 48, 64]> linear_80_cast_fp16 = linear(bias = model_enc_dprnn_df_blocks_0_fc_intra_bias_to_fp16, weight = model_enc_dprnn_df_blocks_0_fc_intra_weight_to_fp16, x = input_67_cast_fp16)[name = string("linear_80_cast_fp16")];
            tensor<int32, [1]> x_intra_9_axes_0 = const()[name = string("x_intra_9_axes_0"), val = tensor<int32, [1]>([-1])];
            tensor<fp16, [64]> model_enc_dprnn_df_blocks_0_ln_intra_weight_to_fp16 = const()[name = string("model_enc_dprnn_df_blocks_0_ln_intra_weight_to_fp16"), val = tensor<fp16, [64]>(BLOBFILE(path = string("@model_path/weights/weight.bin"), offset = uint64(545088)))];
            tensor<fp16, [64]> model_enc_dprnn_df_blocks_0_ln_intra_bias_to_fp16 = const()[name = string("model_enc_dprnn_df_blocks_0_ln_intra_bias_to_fp16"), val = tensor<fp16, [64]>(BLOBFILE(path = string("@model_path/weights/weight.bin"), offset = uint64(545280)))];
            tensor<fp16, [1, 48, 64]> x_intra_9_cast_fp16 = layer_norm(axes = x_intra_9_axes_0, beta = model_enc_dprnn_df_blocks_0_ln_intra_bias_to_fp16, epsilon = var_22_to_fp16, gamma = model_enc_dprnn_df_blocks_0_ln_intra_weight_to_fp16, x = linear_80_cast_fp16)[name = string("x_intra_9_cast_fp16")];
            tensor<int32, [3]> var_508 = const()[name = string("op_508"), val = tensor<int32, [3]>([0, 2, 1])];
            tensor<int32, [1]> x_intra_11_axes_0 = const()[name = string("x_intra_11_axes_0"), val = tensor<int32, [1]>([2])];
            tensor<fp16, [1, 64, 48]> var_509_cast_fp16 = transpose(perm = var_508, x = x_intra_9_cast_fp16)[name = string("transpose_33")];
            tensor<fp16, [1, 64, 1, 48]> x_intra_11_cast_fp16 = expand_dims(axes = x_intra_11_axes_0, x = var_509_cast_fp16)[name = string("x_intra_11_cast_fp16")];
            tensor<fp16, [1, 64, 1, 48]> x_23_cast_fp16 = add(x = inputs_5_cast_fp16, y = x_intra_11_cast_fp16)[name = string("x_23_cast_fp16")];
            tensor<int32, [1]> var_512_axes_0 = const()[name = string("op_512_axes_0"), val = tensor<int32, [1]>([0])];
            tensor<fp16, [64, 1, 48]> var_512_cast_fp16 = squeeze(axes = var_512_axes_0, x = x_23_cast_fp16)[name = string("op_512_cast_fp16")];
            tensor<int32, [1]> var_513_axes_0 = const()[name = string("op_513_axes_0"), val = tensor<int32, [1]>([1])];
            tensor<fp16, [64, 48]> var_513_cast_fp16 = squeeze(axes = var_513_axes_0, x = var_512_cast_fp16)[name = string("op_513_cast_fp16")];
            tensor<int32, [2]> var_514 = const()[name = string("op_514"), val = tensor<int32, [2]>([1, 0])];
            tensor<int32, [1]> h_flat_5_begin_0 = const()[name = string("h_flat_5_begin_0"), val = tensor<int32, [1]>([1824])];
            tensor<int32, [1]> h_flat_5_end_0 = const()[name = string("h_flat_5_end_0"), val = tensor<int32, [1]>([4896])];
            tensor<bool, [1]> h_flat_5_end_mask_0 = const()[name = string("h_flat_5_end_mask_0"), val = tensor<bool, [1]>([false])];
            tensor<fp16, [3072]> h_flat_5_cast_fp16 = slice_by_index(begin = h_flat_5_begin_0, end = h_flat_5_end_0, end_mask = h_flat_5_end_mask_0, x = state_in_to_fp16)[name = string("h_flat_5_cast_fp16")];
            tensor<int32, [2]> var_525 = const()[name = string("op_525"), val = tensor<int32, [2]>([48, 64])];
            tensor<fp16, [48, 64]> h_5_cast_fp16 = reshape(shape = var_525, x = h_flat_5_cast_fp16)[name = string("h_5_cast_fp16")];
            tensor<fp16, [192, 64]> model_enc_dprnn_df_blocks_0_inter_gru_grucell_weight_ih_to_fp16 = const()[name = string("model_enc_dprnn_df_blocks_0_inter_gru_grucell_weight_ih_to_fp16"), val = tensor<fp16, [192, 64]>(BLOBFILE(path = string("@model_path/weights/weight.bin"), offset = uint64(545472)))];
            tensor<fp16, [192]> model_enc_dprnn_df_blocks_0_inter_gru_grucell_bias_ih_to_fp16 = const()[name = string("model_enc_dprnn_df_blocks_0_inter_gru_grucell_bias_ih_to_fp16"), val = tensor<fp16, [192]>(BLOBFILE(path = string("@model_path/weights/weight.bin"), offset = uint64(570112)))];
            tensor<fp16, [48, 64]> x_25_cast_fp16 = transpose(perm = var_514, x = var_513_cast_fp16)[name = string("transpose_32")];
            tensor<fp16, [48, 192]> linear_81_cast_fp16 = linear(bias = model_enc_dprnn_df_blocks_0_inter_gru_grucell_bias_ih_to_fp16, weight = model_enc_dprnn_df_blocks_0_inter_gru_grucell_weight_ih_to_fp16, x = x_25_cast_fp16)[name = string("linear_81_cast_fp16")];
            tensor<fp16, [192, 64]> model_enc_dprnn_df_blocks_0_inter_gru_grucell_weight_hh_to_fp16 = const()[name = string("model_enc_dprnn_df_blocks_0_inter_gru_grucell_weight_hh_to_fp16"), val = tensor<fp16, [192, 64]>(BLOBFILE(path = string("@model_path/weights/weight.bin"), offset = uint64(570560)))];
            tensor<fp16, [192]> model_enc_dprnn_df_blocks_0_inter_gru_grucell_bias_hh_to_fp16 = const()[name = string("model_enc_dprnn_df_blocks_0_inter_gru_grucell_bias_hh_to_fp16"), val = tensor<fp16, [192]>(BLOBFILE(path = string("@model_path/weights/weight.bin"), offset = uint64(595200)))];
            tensor<fp16, [48, 192]> linear_82_cast_fp16 = linear(bias = model_enc_dprnn_df_blocks_0_inter_gru_grucell_bias_hh_to_fp16, weight = model_enc_dprnn_df_blocks_0_inter_gru_grucell_weight_hh_to_fp16, x = h_5_cast_fp16)[name = string("linear_82_cast_fp16")];
            tensor<int32, [2]> var_529_begin_0 = const()[name = string("op_529_begin_0"), val = tensor<int32, [2]>([0, 0])];
            tensor<int32, [2]> var_529_end_0 = const()[name = string("op_529_end_0"), val = tensor<int32, [2]>([48, 64])];
            tensor<fp16, [48, 64]> var_529_cast_fp16 = slice_by_index(begin = var_529_begin_0, end = var_529_end_0, x = linear_81_cast_fp16)[name = string("op_529_cast_fp16")];
            tensor<int32, [2]> var_530_begin_0 = const()[name = string("op_530_begin_0"), val = tensor<int32, [2]>([0, 0])];
            tensor<int32, [2]> var_530_end_0 = const()[name = string("op_530_end_0"), val = tensor<int32, [2]>([48, 64])];
            tensor<fp16, [48, 64]> var_530_cast_fp16 = slice_by_index(begin = var_530_begin_0, end = var_530_end_0, x = linear_82_cast_fp16)[name = string("op_530_cast_fp16")];
            tensor<fp16, [48, 64]> var_531_cast_fp16 = add(x = var_529_cast_fp16, y = var_530_cast_fp16)[name = string("op_531_cast_fp16")];
            tensor<fp16, [48, 64]> r_5_cast_fp16 = sigmoid(x = var_531_cast_fp16)[name = string("r_5_cast_fp16")];
            tensor<int32, [2]> var_533_begin_0 = const()[name = string("op_533_begin_0"), val = tensor<int32, [2]>([0, 64])];
            tensor<int32, [2]> var_533_end_0 = const()[name = string("op_533_end_0"), val = tensor<int32, [2]>([48, 128])];
            tensor<fp16, [48, 64]> var_533_cast_fp16 = slice_by_index(begin = var_533_begin_0, end = var_533_end_0, x = linear_81_cast_fp16)[name = string("op_533_cast_fp16")];
            tensor<int32, [2]> var_534_begin_0 = const()[name = string("op_534_begin_0"), val = tensor<int32, [2]>([0, 64])];
            tensor<int32, [2]> var_534_end_0 = const()[name = string("op_534_end_0"), val = tensor<int32, [2]>([48, 128])];
            tensor<fp16, [48, 64]> var_534_cast_fp16 = slice_by_index(begin = var_534_begin_0, end = var_534_end_0, x = linear_82_cast_fp16)[name = string("op_534_cast_fp16")];
            tensor<fp16, [48, 64]> var_535_cast_fp16 = add(x = var_533_cast_fp16, y = var_534_cast_fp16)[name = string("op_535_cast_fp16")];
            tensor<fp16, [48, 64]> z_5_cast_fp16 = sigmoid(x = var_535_cast_fp16)[name = string("z_5_cast_fp16")];
            tensor<int32, [2]> var_537_begin_0 = const()[name = string("op_537_begin_0"), val = tensor<int32, [2]>([0, 128])];
            tensor<int32, [2]> var_537_end_0 = const()[name = string("op_537_end_0"), val = tensor<int32, [2]>([48, 192])];
            tensor<fp16, [48, 64]> var_537_cast_fp16 = slice_by_index(begin = var_537_begin_0, end = var_537_end_0, x = linear_81_cast_fp16)[name = string("op_537_cast_fp16")];
            tensor<int32, [2]> var_538_begin_0 = const()[name = string("op_538_begin_0"), val = tensor<int32, [2]>([0, 128])];
            tensor<int32, [2]> var_538_end_0 = const()[name = string("op_538_end_0"), val = tensor<int32, [2]>([48, 192])];
            tensor<fp16, [48, 64]> var_538_cast_fp16 = slice_by_index(begin = var_538_begin_0, end = var_538_end_0, x = linear_82_cast_fp16)[name = string("op_538_cast_fp16")];
            tensor<fp16, [48, 64]> var_539_cast_fp16 = mul(x = r_5_cast_fp16, y = var_538_cast_fp16)[name = string("op_539_cast_fp16")];
            tensor<fp16, [48, 64]> var_540_cast_fp16 = add(x = var_537_cast_fp16, y = var_539_cast_fp16)[name = string("op_540_cast_fp16")];
            tensor<fp16, [48, 64]> n_5_cast_fp16 = tanh(x = var_540_cast_fp16)[name = string("n_5_cast_fp16")];
            tensor<fp16, [48, 64]> var_542_cast_fp16 = sub(x = var_29_to_fp16, y = z_5_cast_fp16)[name = string("op_542_cast_fp16")];
            tensor<fp16, [48, 64]> var_543_cast_fp16 = mul(x = var_542_cast_fp16, y = n_5_cast_fp16)[name = string("op_543_cast_fp16")];
            tensor<fp16, [48, 64]> var_544_cast_fp16 = mul(x = z_5_cast_fp16, y = h_5_cast_fp16)[name = string("op_544_cast_fp16")];
            tensor<fp16, [48, 64]> y_5_cast_fp16 = add(x = var_543_cast_fp16, y = var_544_cast_fp16)[name = string("y_5_cast_fp16")];
            tensor<int32, [1]> var_546 = const()[name = string("op_546"), val = tensor<int32, [1]>([-1])];
            tensor<fp16, [3072]> var_547_cast_fp16 = reshape(shape = var_546, x = y_5_cast_fp16)[name = string("op_547_cast_fp16")];
            tensor<fp16, [64, 64]> model_enc_dprnn_df_blocks_0_fc_inter_weight_to_fp16 = const()[name = string("model_enc_dprnn_df_blocks_0_fc_inter_weight_to_fp16"), val = tensor<fp16, [64, 64]>(BLOBFILE(path = string("@model_path/weights/weight.bin"), offset = uint64(595648)))];
            tensor<fp16, [64]> model_enc_dprnn_df_blocks_0_fc_inter_bias_to_fp16 = const()[name = string("model_enc_dprnn_df_blocks_0_fc_inter_bias_to_fp16"), val = tensor<fp16, [64]>(BLOBFILE(path = string("@model_path/weights/weight.bin"), offset = uint64(603904)))];
…
            tensor<fp16, [1, 8, 1, 64]> var_1073_cast_fp16 = expand_dims(axes = var_1073_axes_0, x = x_69_cast_fp16)[name = string("op_1073_cast_fp16")];
            bool var_1074_transpose_x_0 = const()[name = string("op_1074_transpose_x_0"), val = bool(false)];
            bool var_1074_transpose_y_0 = const()[name = string("op_1074_transpose_y_0"), val = bool(false)];
            tensor<fp16, [8, 64, 32]> model_df_dec_df_gru_linear_in_0_weight_to_fp16 = const()[name = string("model_df_dec_df_gru_linear_in_0_weight_to_fp16"), val = tensor<fp16, [8, 64, 32]>(BLOBFILE(path = string("@model_path/weights/weight.bin"), offset = uint64(3365696)))];
            tensor<fp16, [1, 8, 1, 32]> var_1074_cast_fp16 = matmul(transpose_x = var_1074_transpose_x_0, transpose_y = var_1074_transpose_y_0, x = var_1073_cast_fp16, y = model_df_dec_df_gru_linear_in_0_weight_to_fp16)[name = string("op_1074_cast_fp16")];
            tensor<int32, [1]> x_71_axes_0 = const()[name = string("x_71_axes_0"), val = tensor<int32, [1]>([-2])];
            tensor<fp16, [1, 8, 32]> x_71_cast_fp16 = squeeze(axes = x_71_axes_0, x = var_1074_cast_fp16)[name = string("x_71_cast_fp16")];
            tensor<int32, [2]> var_1076 = const()[name = string("op_1076"), val = tensor<int32, [2]>([1, 256])];
            tensor<fp16, [1, 256]> x_73_cast_fp16 = reshape(shape = var_1076, x = x_71_cast_fp16)[name = string("x_73_cast_fp16")];
            tensor<fp16, [256]> model_df_dec_df_gru_linear_in_0_bias_to_fp16 = const()[name = string("model_df_dec_df_gru_linear_in_0_bias_to_fp16"), val = tensor<fp16, [256]>(BLOBFILE(path = string("@model_path/weights/weight.bin"), offset = uint64(3398528)))];
            tensor<fp16, [1, 256]> input_141_cast_fp16 = add(x = x_73_cast_fp16, y = model_df_dec_df_gru_linear_in_0_bias_to_fp16)[name = string("input_141_cast_fp16")];
            tensor<fp16, [1, 256]> x_75_cast_fp16 = relu(x = input_141_cast_fp16)[name = string("x_75_cast_fp16")];
            tensor<int32, [1]> h_flat_15_begin_0 = const()[name = string("h_flat_15_begin_0"), val = tensor<int32, [1]>([8736])];
            tensor<int32, [1]> h_flat_15_end_0 = const()[name = string("h_flat_15_end_0"), val = tensor<int32, [1]>([8992])];
            tensor<bool, [1]> h_flat_15_end_mask_0 = const()[name = string("h_flat_15_end_mask_0"), val = tensor<bool, [1]>([false])];
            tensor<fp16, [256]> h_flat_15_cast_fp16 = slice_by_index(begin = h_flat_15_begin_0, end = h_flat_15_end_0, end_mask = h_flat_15_end_mask_0, x = state_in_to_fp16)[name = string("h_flat_15_cast_fp16")];
            tensor<int32, [2]> var_1089 = const()[name = string("op_1089"), val = tensor<int32, [2]>([1, 256])];
            tensor<fp16, [1, 256]> h_15_cast_fp16 = reshape(shape = var_1089, x = h_flat_15_cast_fp16)[name = string("h_15_cast_fp16")];
            tensor<fp16, [768, 256]> model_df_dec_df_gru_gru_0_grucell_weight_ih_to_fp16 = const()[name = string("model_df_dec_df_gru_gru_0_grucell_weight_ih_to_fp16"), val = tensor<fp16, [768, 256]>(BLOBFILE(path = string("@model_path/weights/weight.bin"), offset = uint64(3399104)))];
            tensor<fp16, [768]> model_df_dec_df_gru_gru_0_grucell_bias_ih_to_fp16 = const()[name = string("model_df_dec_df_gru_gru_0_grucell_bias_ih_to_fp16"), val = tensor<fp16, [768]>(BLOBFILE(path = string("@model_path/weights/weight.bin"), offset = uint64(3792384)))];
            tensor<fp16, [1, 768]> linear_118_cast_fp16 = linear(bias = model_df_dec_df_gru_gru_0_grucell_bias_ih_to_fp16, weight = model_df_dec_df_gru_gru_0_grucell_weight_ih_to_fp16, x = x_75_cast_fp16)[name = string("linear_118_cast_fp16")];
            tensor<fp16, [768, 256]> model_df_dec_df_gru_gru_0_grucell_weight_hh_to_fp16 = const()[name = string("model_df_dec_df_gru_gru_0_grucell_weight_hh_to_fp16"), val = tensor<fp16, [768, 256]>(BLOBFILE(path = string("@model_path/weights/weight.bin"), offset = uint64(3793984)))];
            tensor<fp16, [768]> model_df_dec_df_gru_gru_0_grucell_bias_hh_to_fp16 = const()[name = string("model_df_dec_df_gru_gru_0_grucell_bias_hh_to_fp16"), val = tensor<fp16, [768]>(BLOBFILE(path = string("@model_path/weights/weight.bin"), offset = uint64(4187264)))];
            tensor<fp16, [1, 768]> linear_119_cast_fp16 = linear(bias = model_df_dec_df_gru_gru_0_grucell_bias_hh_to_fp16, weight = model_df_dec_df_gru_gru_0_grucell_weight_hh_to_fp16, x = h_15_cast_fp16)[name = string("linear_119_cast_fp16")];
            tensor<int32, [2]> var_1093_begin_0 = const()[name = string("op_1093_begin_0"), val = tensor<int32, [2]>([0, 0])];
            tensor<int32, [2]> var_1093_end_0 = const()[name = string("op_1093_end_0"), val = tensor<int32, [2]>([1, 256])];
            tensor<fp16, [1, 256]> var_1093_cast_fp16 = slice_by_index(begin = var_1093_begin_0, end = var_1093_end_0, x = linear_118_cast_fp16)[name = string("op_1093_cast_fp16")];
            tensor<int32, [2]> var_1094_begin_0 = const()[name = string("op_1094_begin_0"), val = tensor<int32, [2]>([0, 0])];
            tensor<int32, [2]> var_1094_end_0 = const()[name = string("op_1094_end_0"), val = tensor<int32, [2]>([1, 256])];
            tensor<fp16, [1, 256]> var_1094_cast_fp16 = slice_by_index(begin = var_1094_begin_0, end = var_1094_end_0, x = linear_119_cast_fp16)[name = string("op_1094_cast_fp16")];
            tensor<fp16, [1, 256]> var_1095_cast_fp16 = add(x = var_1093_cast_fp16, y = var_1094_cast_fp16)[name = string("op_1095_cast_fp16")];
            tensor<fp16, [1, 256]> r_15_cast_fp16 = sigmoid(x = var_1095_cast_fp16)[name = string("r_15_cast_fp16")];
            tensor<int32, [2]> var_1097_begin_0 = const()[name = string("op_1097_begin_0"), val = tensor<int32, [2]>([0, 256])];
            tensor<int32, [2]> var_1097_end_0 = const()[name = string("op_1097_end_0"), val = tensor<int32, [2]>([1, 512])];
            tensor<fp16, [1, 256]> var_1097_cast_fp16 = slice_by_index(begin = var_1097_begin_0, end = var_1097_end_0, x = linear_118_cast_fp16)[name = string("op_1097_cast_fp16")];
            tensor<int32, [2]> var_1098_begin_0 = const()[name = string("op_1098_begin_0"), val = tensor<int32, [2]>([0, 256])];
            tensor<int32, [2]> var_1098_end_0 = const()[name = string("op_1098_end_0"), val = tensor<int32, [2]>([1, 512])];
            tensor<fp16, [1, 256]> var_1098_cast_fp16 = slice_by_index(begin = var_1098_begin_0, end = var_1098_end_0, x = linear_119_cast_fp16)[name = string("op_1098_cast_fp16")];
            tensor<fp16, [1, 256]> var_1099_cast_fp16 = add(x = var_1097_cast_fp16, y = var_1098_cast_fp16)[name = string("op_1099_cast_fp16")];
            tensor<fp16, [1, 256]> z_15_cast_fp16 = sigmoid(x = var_1099_cast_fp16)[name = string("z_15_cast_fp16")];
            tensor<int32, [2]> var_1101_begin_0 = const()[name = string("op_1101_begin_0"), val = tensor<int32, [2]>([0, 512])];
            tensor<int32, [2]> var_1101_end_0 = const()[name = string("op_1101_end_0"), val = tensor<int32, [2]>([1, 768])];
            tensor<fp16, [1, 256]> var_1101_cast_fp16 = slice_by_index(begin = var_1101_begin_0, end = var_1101_end_0, x = linear_118_cast_fp16)[name = string("op_1101_cast_fp16")];
            tensor<int32, [2]> var_1102_begin_0 = const()[name = string("op_1102_begin_0"), val = tensor<int32, [2]>([0, 512])];
            tensor<int32, [2]> var_1102_end_0 = const()[name = string("op_1102_end_0"), val = tensor<int32, [2]>([1, 768])];
            tensor<fp16, [1, 256]> var_1102_cast_fp16 = slice_by_index(begin = var_1102_begin_0, end = var_1102_end_0, x = linear_119_cast_fp16)[name = string("op_1102_cast_fp16")];
            tensor<fp16, [1, 256]> var_1103_cast_fp16 = mul(x = r_15_cast_fp16, y = var_1102_cast_fp16)[name = string("op_1103_cast_fp16")];
            tensor<fp16, [1, 256]> var_1104_cast_fp16 = add(x = var_1101_cast_fp16, y = var_1103_cast_fp16)[name = string("op_1104_cast_fp16")];
            tensor<fp16, [1, 256]> n_15_cast_fp16 = tanh(x = var_1104_cast_fp16)[name = string("n_15_cast_fp16")];
            tensor<fp16, [1, 256]> var_1106_cast_fp16 = sub(x = var_29_to_fp16, y = z_15_cast_fp16)[name = string("op_1106_cast_fp16")];
            tensor<fp16, [1, 256]> var_1107_cast_fp16 = mul(x = var_1106_cast_fp16, y = n_15_cast_fp16)[name = string("op_1107_cast_fp16")];
            tensor<fp16, [1, 256]> var_1108_cast_fp16 = mul(x = z_15_cast_fp16, y = h_15_cast_fp16)[name = string("op_1108_cast_fp16")];
            tensor<fp16, [1, 256]> y_15_cast_fp16 = add(x = var_1107_cast_fp16, y = var_1108_cast_fp16)[name = string("y_15_cast_fp16")];
            tensor<int32, [1]> var_1110 = const()[name = string("op_1110"), val = tensor<int32, [1]>([-1])];
            tensor<fp16, [256]> var_1111_cast_fp16 = reshape(shape = var_1110, x = y_15_cast_fp16)[name = string("op_1111_cast_fp16")];
            tensor<int32, [1]> h_flat_begin_0 = const()[name = string("h_flat_begin_0"), val = tensor<int32, [1]>([8992])];
            tensor<int32, [1]> h_flat_end_0 = const()[name = string("h_flat_end_0"), val = tensor<int32, [1]>([9248])];
            tensor<bool, [1]> h_flat_end_mask_0 = const()[name = string("h_flat_end_mask_0"), val = tensor<bool, [1]>([false])];
            tensor<fp16, [256]> h_flat_cast_fp16 = slice_by_index(begin = h_flat_begin_0, end = h_flat_end_0, end_mask = h_flat_end_mask_0, x = state_in_to_fp16)[name = string("h_flat_cast_fp16")];
            tensor<int32, [2]> var_1124 = const()[name = string("op_1124"), val = tensor<int32, [2]>([1, 256])];
            tensor<fp16, [1, 256]> h_cast_fp16 = reshape(shape = var_1124, x = h_flat_cast_fp16)[name = string("h_cast_fp16")];
            tensor<fp16, [768, 256]> model_df_dec_df_gru_gru_1_grucell_weight_ih_to_fp16 = const()[name = string("model_df_dec_df_gru_gru_1_grucell_weight_ih_to_fp16"), val = tensor<fp16, [768, 256]>(BLOBFILE(path = string("@model_path/weights/weight.bin"), offset = uint64(4188864)))];
            tensor<fp16, [768]> model_df_dec_df_gru_gru_1_grucell_bias_ih_to_fp16 = const()[name = string("model_df_dec_df_gru_gru_1_grucell_bias_ih_to_fp16"), val = tensor<fp16, [768]>(BLOBFILE(path = string("@model_path/weights/weight.bin"), offset = uint64(4582144)))];
            tensor<fp16, [1, 768]> linear_120_cast_fp16 = linear(bias = model_df_dec_df_gru_gru_1_grucell_bias_ih_to_fp16, weight = model_df_dec_df_gru_gru_1_grucell_weight_ih_to_fp16, x = y_15_cast_fp16)[name = string("linear_120_cast_fp16")];
            tensor<fp16, [768, 256]> model_df_dec_df_gru_gru_1_grucell_weight_hh_to_fp16 = const()[name = string("model_df_dec_df_gru_gru_1_grucell_weight_hh_to_fp16"), val = tensor<fp16, [768, 256]>(BLOBFILE(path = string("@model_path/weights/weight.bin"), offset = uint64(4583744)))];
            tensor<fp16, [768]> model_df_dec_df_gru_gru_1_grucell_bias_hh_to_fp16 = const()[name = string("model_df_dec_df_gru_gru_1_grucell_bias_hh_to_fp16"), val = tensor<fp16, [768]>(BLOBFILE(path = string("@model_path/weights/weight.bin"), offset = uint64(4977024)))];
            tensor<fp16, [1, 768]> linear_121_cast_fp16 = linear(bias = model_df_dec_df_gru_gru_1_grucell_bias_hh_to_fp16, weight = model_df_dec_df_gru_gru_1_grucell_weight_hh_to_fp16, x = h_cast_fp16)[name = string("linear_121_cast_fp16")];
            tensor<int32, [2]> var_1128_begin_0 = const()[name = string("op_1128_begin_0"), val = tensor<int32, [2]>([0, 0])];
            tensor<int32, [2]> var_1128_end_0 = const()[name = string("op_1128_end_0"), val = tensor<int32, [2]>([1, 256])];
            tensor<fp16, [1, 256]> var_1128_cast_fp16 = slice_by_index(begin = var_1128_begin_0, end = var_1128_end_0, x = linear_120_cast_fp16)[name = string("op_1128_cast_fp16")];
            tensor<int32, [2]> var_1129_begin_0 = const()[name = string("op_1129_begin_0"), val = tensor<int32, [2]>([0, 0])];
            tensor<int32, [2]> var_1129_end_0 = const()[name = string("op_1129_end_0"), val = tensor<int32, [2]>([1, 256])];
            tensor<fp16, [1, 256]> var_1129_cast_fp16 = slice_by_index(begin = var_1129_begin_0, end = var_1129_end_0, x = linear_121_cast_fp16)[name = string("op_1129_cast_fp16")];
            tensor<fp16, [1, 256]> var_1130_cast_fp16 = add(x = var_1128_cast_fp16, y = var_1129_cast_fp16)[name = string("op_1130_cast_fp16")];
            tensor<fp16, [1, 256]> r_cast_fp16 = sigmoid(x = var_1130_cast_fp16)[name = string("r_cast_fp16")];
            tensor<int32, [2]> var_1132_begin_0 = const()[name = string("op_1132_begin_0"), val = tensor<int32, [2]>([0, 256])];
            tensor<int32, [2]> var_1132_end_0 = const()[name = string("op_1132_end_0"), val = tensor<int32, [2]>([1, 512])];
            tensor<fp16, [1, 256]> var_1132_cast_fp16 = slice_by_index(begin = var_1132_begin_0, end = var_1132_end_0, x = linear_120_cast_fp16)[name = string("op_1132_cast_fp16")];
            tensor<int32, [2]> var_1133_begin_0 = const()[name = string("op_1133_begin_0"), val = tensor<int32, [2]>([0, 256])];
            tensor<int32, [2]> var_1133_end_0 = const()[name = string("op_1133_end_0"), val = tensor<int32, [2]>([1, 512])];
            tensor<fp16, [1, 256]> var_1133_cast_fp16 = slice_by_index(begin = var_1133_begin_0, end = var_1133_end_0, x = linear_121_cast_fp16)[name = string("op_1133_cast_fp16")];
            tensor<fp16, [1, 256]> var_1134_cast_fp16 = add(x = var_1132_cast_fp16, y = var_1133_cast_fp16)[name = string("op_1134_cast_fp16")];
            tensor<fp16, [1, 256]> z_cast_fp16 = sigmoid(x = var_1134_cast_fp16)[name = string("z_cast_fp16")];
            tensor<int32, [2]> var_1136_begin_0 = const()[name = string("op_1136_begin_0"), val = tensor<int32, [2]>([0, 512])];
            tensor<int32, [2]> var_1136_end_0 = const()[name = string("op_1136_end_0"), val = tensor<int32, [2]>([1, 768])];
            tensor<fp16, [1, 256]> var_1136_cast_fp16 = slice_by_index(begin = var_1136_begin_0, end = var_1136_end_0, x = linear_120_cast_fp16)[name = string("op_1136_cast_fp16")];
            tensor<int32, [2]> var_1137_begin_0 = const()[name = string("op_1137_begin_0"), val = tensor<int32, [2]>([0, 512])];
            tensor<int32, [2]> var_1137_end_0 = const()[name = string("op_1137_end_0"), val = tensor<int32, [2]>([1, 768])];
            tensor<fp16, [1, 256]> var_1137_cast_fp16 = slice_by_index(begin = var_1137_begin_0, end = var_1137_end_0, x = linear_121_cast_fp16)[name = string("op_1137_cast_fp16")];
            tensor<fp16, [1, 256]> var_1138_cast_fp16 = mul(x = r_cast_fp16, y = var_1137_cast_fp16)[name = string("op_1138_cast_fp16")];
            tensor<fp16, [1, 256]> var_1139_cast_fp16 = add(x = var_1136_cast_fp16, y = var_1138_cast_fp16)[name = string("op_1139_cast_fp16")];
            tensor<fp16, [1, 256]> n_cast_fp16 = tanh(x = var_1139_cast_fp16)[name = string("n_cast_fp16")];
            tensor<fp16, [1, 256]> var_1141_cast_fp16 = sub(x = var_29_to_fp16, y = z_cast_fp16)[name = string("op_1141_cast_fp16")];
            tensor<fp16, [1, 256]> var_1142_cast_fp16 = mul(x = var_1141_cast_fp16, y = n_cast_fp16)[name = string("op_1142_cast_fp16")];
            tensor<fp16, [1, 256]> var_1143_cast_fp16 = mul(x = z_cast_fp16, y = h_cast_fp16)[name = string("op_1143_cast_fp16")];
            tensor<fp16, [1, 256]> y_cast_fp16 = add(x = var_1142_cast_fp16, y = var_1143_cast_fp16)[name = string("y_cast_fp16")];
            tensor<int32, [1]> var_1145 = const()[name = string("op_1145"), val = tensor<int32, [1]>([-1])];
            tensor<fp16, [256]> gru_state_out_cast_fp16 = reshape(shape = var_1145, x = y_cast_fp16)[name = string("gru_state_out_cast_fp16")];
            bool df_gru_state_out_interleave_0 = const()[name = string("df_gru_state_out_interleave_0"), val = bool(false)];
            tensor<fp16, [512]> df_gru_state_out_cast_fp16 = concat(axis = var_46, interleave = df_gru_state_out_interleave_0, values = (var_1111_cast_fp16, gru_state_out_cast_fp16))[name = string("df_gru_state_out_cast_fp16")];
            bool var_1161_transpose_x_0 = const()[name = string("op_1161_transpose_x_0"), val = bool(false)];
            bool var_1161_transpose_y_0 = const()[name = string("op_1161_transpose_y_0"), val = bool(false)];
            tensor<fp16, [16, 32, 16]> model_df_dec_df_skip_weight_to_fp16 = const()[name = string("model_df_dec_df_skip_weight_to_fp16"), val = tensor<fp16, [16, 32, 16]>(BLOBFILE(path = string("@model_path/weights/weight.bin"), offset = uint64(4978624)))];
            tensor<fp16, [1, 16, 1, 16]> var_1161_cast_fp16 = matmul(transpose_x = var_1161_transpose_x_0, transpose_y = var_1161_transpose_y_0, x = var_784_cast_fp16, y = model_df_dec_df_skip_weight_to_fp16)[name = string("op_1161_cast_fp16")];
            tensor<int32, [1]> x_79_axes_0 = const()[name = string("x_79_axes_0"), val = tensor<int32, [1]>([-2])];
            tensor<fp16, [1, 16, 16]> x_79_cast_fp16 = squeeze(axes = x_79_axes_0, x = var_1161_cast_fp16)[name = string("x_79_cast_fp16")];
            tensor<int32, [2]> var_1163 = const()[name = string("op_1163"), val = tensor<int32, [2]>([1, 256])];
            tensor<fp16, [1, 256]> x_81_cast_fp16 = reshape(shape = var_1163, x = x_79_cast_fp16)[name = string("x_81_cast_fp16")];
            tensor<fp16, [256]> model_df_dec_df_skip_bias_to_fp16 = const()[name = string("model_df_dec_df_skip_bias_to_fp16"), val = tensor<fp16, [256]>(BLOBFILE(path = string("@model_path/weights/weight.bin"), offset = uint64(4995072)))];
            tensor<fp16, [1, 256]> var_1165_cast_fp16 = add(x = x_81_cast_fp16, y = model_df_dec_df_skip_bias_to_fp16)[name = string("op_1165_cast_fp16")];
            tensor<fp16, [1, 256]> x_85_cast_fp16 = add(x = y_cast_fp16, y = var_1165_cast_fp16)[name = string("x_85_cast_fp16")];
            tensor<int32, [4]> var_1167 = const()[name = string("op_1167"), val = tensor<int32, [4]>([2, 0, 1, 3])];
            tensor<int32, [1]> buf_flat_5_begin_0 = const()[name = string("buf_flat_5_begin_0"), val = tensor<int32, [1]>([9248])];
            tensor<int32, [1]> buf_flat_5_end_0 = const()[name = string("buf_flat_5_end_0"), val = tensor<int32, [1]>([39968])];
            tensor<bool, [1]> buf_flat_5_end_mask_0 = const()[name = string("buf_flat_5_end_mask_0"), val = tensor<bool, [1]>([false])];
            tensor<fp16, [30720]> buf_flat_5_cast_fp16 = slice_by_index(begin = buf_flat_5_begin_0, end = buf_flat_5_end_0, end_mask = buf_flat_5_end_mask_0, x = state_in_to_fp16)[name = string("buf_flat_5_cast_fp16")];
            tensor<int32, [4]> var_1170 = const()[name = string("op_1170"), val = tensor<int32, [4]>([5, 1, 64, 96])];
            tensor<fp16, [5, 1, 64, 96]> buf_5_cast_fp16 = reshape(shape = var_1170, x = buf_flat_5_cast_fp16)[name = string("buf_5_cast_fp16")];
            tensor<int32, [4]> var_1172_begin_0 = const()[name = string("op_1172_begin_0"), val = tensor<int32, [4]>([1, 0, 0, 0])];
            tensor<int32, [4]> var_1172_end_0 = const()[name = string("op_1172_end_0"), val = tensor<int32, [4]>([5, 1, 64, 96])];
            tensor<bool, [4]> var_1172_end_mask_0 = const()[name = string("op_1172_end_mask_0"), val = tensor<bool, [4]>([true, true, true, true])];
            tensor<fp16, [4, 1, 64, 96]> var_1172_cast_fp16 = slice_by_index(begin = var_1172_begin_0, end = var_1172_end_0, end_mask = var_1172_end_mask_0, x = buf_5_cast_fp16)[name = string("op_1172_cast_fp16")];
            bool buf_next_5_interleave_0 = const()[name = string("buf_next_5_interleave_0"), val = bool(false)];
            tensor<fp16, [1, 1, 64, 96]> x_tf_5_cast_fp16 = transpose(perm = var_1167, x = input_57_cast_fp16)[name = string("transpose_20")];
            tensor<fp16, [5, 1, 64, 96]> buf_next_5_cast_fp16 = concat(axis = var_46, interleave = buf_next_5_interleave_0, values = (var_1172_cast_fp16, x_tf_5_cast_fp16))[name = string("buf_next_5_cast_fp16")];
            tensor<int32, [4]> var_1176 = const()[name = string("op_1176"), val = tensor<int32, [4]>([1, 2, 0, 3])];
            tensor<int32, [1]> var_1178 = const()[name = string("op_1178"), val = tensor<int32, [1]>([-1])];
            tensor<fp16, [30720]> df_convp_state_out_cast_fp16 = reshape(shape = var_1178, x = buf_next_5_cast_fp16)[name = string("df_convp_state_out_cast_fp16")];
            tensor<int32, [2]> var_1190_split_sizes_0 = const()[name = string("op_1190_split_sizes_0"), val = tensor<int32, [2]>([32, 32])];
            int32 var_1190_axis_0 = const()[name = string("op_1190_axis_0"), val = int32(1)];
            tensor<fp16, [1, 64, 5, 96]> x_83_cast_fp16 = transpose(perm = var_1176, x = buf_next_5_cast_fp16)[name = string("transpose_19")];
            tensor<fp16, [1, 32, 5, 96]> var_1190_cast_fp16_0, tensor<fp16, [1, 32, 5, 96]> var_1190_cast_fp16_1 = split(axis = var_1190_axis_0, split_sizes = var_1190_split_sizes_0, x = x_83_cast_fp16)[name = string("op_1190_cast_fp16")];
            string var_1197_pad_type_0 = const()[name = string("op_1197_pad_type_0"), val = string("valid")];
            tensor<int32, [2]> var_1197_strides_0 = const()[name = string("op_1197_strides_0"), val = tensor<int32, [2]>([1, 1])];
            tensor<int32, [4]> var_1197_pad_0 = const()[name = string("op_1197_pad_0"), val = tensor<int32, [4]>([0, 0, 0, 0])];
            tensor<int32, [2]> var_1197_dilations_0 = const()[name = string("op_1197_dilations_0"), val = tensor<int32, [2]>([1, 1])];
            int32 var_1197_groups_0 = const()[name = string("op_1197_groups_0"), val = int32(1)];
            tensor<fp16, [5, 32, 5, 1]> model_df_dec_df_convp_1_convs_0_weight_to_fp16 = const()[name = string("model_df_dec_df_convp_1_convs_0_weight_to_fp16"), val = tensor<fp16, [5, 32, 5, 1]>(BLOBFILE(path = string("@model_path/weights/weight.bin"), offset = uint64(4995648)))];
            tensor<fp16, [1, 5, 1, 96]> var_1197_cast_fp16 = conv(dilations = var_1197_dilations_0, groups = var_1197_groups_0, pad = var_1197_pad_0, pad_type = var_1197_pad_type_0, strides = var_1197_strides_0, weight = model_df_dec_df_convp_1_convs_0_weight_to_fp16, x = var_1190_cast_fp16_0)[name = string("op_1197_cast_fp16")];
            string var_1203_pad_type_0 = const()[name = string("op_1203_pad_type_0"), val = string("valid")];
            tensor<int32, [2]> var_1203_strides_0 = const()[name = string("op_1203_strides_0"), val = tensor<int32, [2]>([1, 1])];
            tensor<int32, [4]> var_1203_pad_0 = const()[name = string("op_1203_pad_0"), val = tensor<int32, [4]>([0, 0, 0, 0])];
            tensor<int32, [2]> var_1203_dilations_0 = const()[name = string("op_1203_dilations_0"), val = tensor<int32, [2]>([1, 1])];
            int32 var_1203_groups_0 = const()[name = string("op_1203_groups_0"), val = int32(1)];
            tensor<fp16, [5, 32, 5, 1]> model_df_dec_df_convp_1_convs_1_weight_to_fp16 = const()[name = string("model_df_dec_df_convp_1_convs_1_weight_to_fp16"), val = tensor<fp16, [5, 32, 5, 1]>(BLOBFILE(path = string("@model_path/weights/weight.bin"), offset = uint64(4997312)))];
            tensor<fp16, [1, 5, 1, 96]> var_1203_cast_fp16 = conv(dilations = var_1203_dilations_0, groups = var_1203_groups_0, pad = var_1203_pad_0, pad_type = var_1203_pad_type_0, strides = var_1203_strides_0, weight = model_df_dec_df_convp_1_convs_1_weight_to_fp16, x = var_1190_cast_fp16_1)[name = string("op_1203_cast_fp16")];
            bool input_147_interleave_0 = const()[name = string("input_147_interleave_0"), val = bool(false)];
            tensor<fp16, [1, 10, 1, 96]> input_147_cast_fp16 = concat(axis = var_47, interleave = input_147_interleave_0, values = (var_1197_cast_fp16, var_1203_cast_fp16))[name = string("input_147_cast_fp16")];
            string input_149_pad_type_0 = const()[name = string("input_149_pad_type_0"), val = string("valid")];
            tensor<int32, [2]> input_149_strides_0 = const()[name = string("input_149_strides_0"), val = tensor<int32, [2]>([1, 1])];
            tensor<int32, [4]> input_149_pad_0 = const()[name = string("input_149_pad_0"), val = tensor<int32, [4]>([0, 0, 0, 0])];
            tensor<int32, [2]> input_149_dilations_0 = const()[name = string("input_149_dilations_0"), val = tensor<int32, [2]>([1, 1])];
            int32 input_149_groups_0 = const()[name = string("input_149_groups_0"), val = int32(1)];
            tensor<fp16, [10, 10, 1, 1]> const_48_to_fp16 = const()[name = string("const_48_to_fp16"), val = tensor<fp16, [10, 10, 1, 1]>(BLOBFILE(path = string("@model_path/weights/weight.bin"), offset = uint64(4998976)))];
            tensor<fp16, [10]> const_49_to_fp16 = const()[name = string("const_49_to_fp16"), val = tensor<fp16, [10]>(BLOBFILE(path = string("@model_path/weights/weight.bin"), offset = uint64(4999296)))];
            tensor<fp16, [1, 10, 1, 96]> input_151_cast_fp16 = conv(bias = const_49_to_fp16, dilations = input_149_dilations_0, groups = input_149_groups_0, pad = input_149_pad_0, pad_type = input_149_pad_type_0, strides = input_149_strides_0, weight = const_48_to_fp16, x = input_147_cast_fp16)[name = string("input_151_cast_fp16")];
            tensor<fp16, [1, 10, 1, 96]> var_1217_cast_fp16 = relu(x = input_151_cast_fp16)[name = string("op_1217_cast_fp16")];
            tensor<int32, [4]> var_1218 = const()[name = string("op_1218"), val = tensor<int32, [4]>([0, 2, 3, 1])];
            tensor<int32, [3]> var_1225 = const()[name = string("op_1225"), val = tensor<int32, [3]>([-1, 16, 16])];
            tensor<fp16, [1, 16, 16]> x_87_cast_fp16 = reshape(shape = var_1225, x = x_85_cast_fp16)[name = string("x_87_cast_fp16")];
            tensor<int32, [1]> var_1227_axes_0 = const()[name = string("op_1227_axes_0"), val = tensor<int32, [1]>([-2])];
            tensor<fp16, [1, 16, 1, 16]> var_1227_cast_fp16 = expand_dims(axes = var_1227_axes_0, x = x_87_cast_fp16)[name = string("op_1227_cast_fp16")];
            bool var_1228_transpose_x_0 = const()[name = string("op_1228_transpose_x_0"), val = bool(false)];
            bool var_1228_transpose_y_0 = const()[name = string("op_1228_transpose_y_0"), val = bool(false)];
            tensor<fp16, [16, 16, 60]> model_df_dec_df_out_0_weight_to_fp16 = const()[name = string("model_df_dec_df_out_0_weight_to_fp16"), val = tensor<fp16, [16, 16, 60]>(BLOBFILE(path = string("@model_path/weights/weight.bin"), offset = uint64(4999424)))];
            tensor<fp16, [1, 16, 1, 60]> var_1228_cast_fp16 = matmul(transpose_x = var_1228_transpose_x_0, transpose_y = var_1228_transpose_y_0, x = var_1227_cast_fp16, y = model_df_dec_df_out_0_weight_to_fp16)[name = string("op_1228_cast_fp16")];
            tensor<int32, [1]> x_89_axes_0 = const()[name = string("x_89_axes_0"), val = tensor<int32, [1]>([-2])];
            tensor<fp16, [1, 16, 60]> x_89_cast_fp16 = squeeze(axes = x_89_axes_0, x = var_1228_cast_fp16)[name = string("x_89_cast_fp16")];
            tensor<int32, [2]> var_1230 = const()[name = string("op_1230"), val = tensor<int32, [2]>([1, 960])];
            tensor<fp16, [1, 960]> x_91_cast_fp16 = reshape(shape = var_1230, x = x_89_cast_fp16)[name = string("x_91_cast_fp16")];
            tensor<fp16, [960]> model_df_dec_df_out_0_bias_to_fp16 = const()[name = string("model_df_dec_df_out_0_bias_to_fp16"), val = tensor<fp16, [960]>(BLOBFILE(path = string("@model_path/weights/weight.bin"), offset = uint64(5030208)))];
            tensor<fp16, [1, 960]> input_cast_fp16 = add(x = x_91_cast_fp16, y = model_df_dec_df_out_0_bias_to_fp16)[name = string("input_cast_fp16")];
            tensor<fp16, [1, 960]> c_1_cast_fp16 = tanh(x = input_cast_fp16)[name = string("c_1_cast_fp16")];
            tensor<int32, [1]> c_axes_0 = const()[name = string("c_axes_0"), val = tensor<int32, [1]>([1])];
            tensor<fp16, [1, 1, 960]> c_cast_fp16 = expand_dims(axes = c_axes_0, x = c_1_cast_fp16)[name = string("c_cast_fp16")];
            tensor<int32, [4]> var_1235 = const()[name = string("op_1235"), val = tensor<int32, [4]>([1, 1, 96, 10])];
            tensor<fp16, [1, 1, 96, 10]> var_1236_cast_fp16 = reshape(shape = var_1235, x = c_cast_fp16)[name = string("op_1236_cast_fp16")];
            tensor<fp16, [1, 1, 96, 10]> c0_cast_fp16 = transpose(perm = var_1218, x = var_1217_cast_fp16)[name = string("transpose_18")];
            tensor<fp16, [1, 1, 96, 10]> coefs_1_cast_fp16 = add(x = var_1236_cast_fp16, y = c0_cast_fp16)[name = string("coefs_1_cast_fp16")];
            bool df_dec_state_out_interleave_0 = const()[name = string("df_dec_state_out_interleave_0"), val = bool(false)];
            tensor<fp16, [31232]> df_dec_state_out_cast_fp16 = concat(axis = var_46, interleave = df_dec_state_out_interleave_0, values = (df_gru_state_out_cast_fp16, df_convp_state_out_cast_fp16))[name = string("df_dec_state_out_cast_fp16")];
            tensor<int32, [5]> var_1246 = const()[name = string("op_1246"), val = tensor<int32, [5]>([1, 1, 96, -1, 2])];
            tensor<fp16, [1, 1, 96, 5, 2]> coefs_3_cast_fp16 = reshape(shape = var_1246, x = coefs_1_cast_fp16)[name = string("coefs_3_cast_fp16")];
            tensor<int32, [5]> transpose_10_perm_0 = const()[name = string("transpose_10_perm_0"), val = tensor<int32, [5]>([1, 0, 3, 2, 4])];
            bool mask_3_transpose_x_0 = const()[name = string("mask_3_transpose_x_0"), val = bool(false)];
            bool mask_3_transpose_y_0 = const()[name = string("mask_3_transpose_y_0"), val = bool(false)];
            tensor<fp16, [32, 161]> model_erb_inv_fb_to_fp16 = const()[name = string("model_erb_inv_fb_to_fp16"), val = tensor<fp16, [32, 161]>(BLOBFILE(path = string("@model_path/weights/weight.bin"), offset = uint64(5032192)))];
            tensor<fp16, [1, 1, 1, 161]> mask_3_cast_fp16 = matmul(transpose_x = mask_3_transpose_x_0, transpose_y = mask_3_transpose_y_0, x = mask_1_cast_fp16, y = model_erb_inv_fb_to_fp16)[name = string("mask_3_cast_fp16")];
            tensor<int32, [1]> mask_5_axes_0 = const()[name = string("mask_5_axes_0"), val = tensor<int32, [1]>([4])];
            tensor<fp16, [1, 1, 1, 161, 1]> mask_5_cast_fp16 = expand_dims(axes = mask_5_axes_0, x = mask_3_cast_fp16)[name = string("mask_5_cast_fp16")];
            tensor<int32, [5]> var_1252 = const()[name = string("op_1252"), val = tensor<int32, [5]>([2, 0, 1, 3, 4])];
            tensor<int32, [1]> buf_flat_7_begin_0 = const()[name = string("buf_flat_7_begin_0"), val = tensor<int32, [1]>([39968])];
            tensor<int32, [1]> buf_flat_7_end_0 = const()[name = string("buf_flat_7_end_0"), val = tensor<int32, [1]>([40934])];
            tensor<bool, [1]> buf_flat_7_end_mask_0 = const()[name = string("buf_flat_7_end_mask_0"), val = tensor<bool, [1]>([false])];
            tensor<fp16, [966]> buf_flat_7_cast_fp16 = slice_by_index(begin = buf_flat_7_begin_0, end = buf_flat_7_end_0, end_mask = buf_flat_7_end_mask_0, x = state_in_to_fp16)[name = string("buf_flat_7_cast_fp16")];
            tensor<int32, [5]> var_1255 = const()[name = string("op_1255"), val = tensor<int32, [5]>([3, 1, 1, 161, 2])];
            tensor<fp16, [3, 1, 1, 161, 2]> buf_7_cast_fp16 = reshape(shape = var_1255, x = buf_flat_7_cast_fp16)[name = string("buf_7_cast_fp16")];
            tensor<int32, [5]> var_1257_begin_0 = const()[name = string("op_1257_begin_0"), val = tensor<int32, [5]>([1, 0, 0, 0, 0])];
            tensor<int32, [5]> var_1257_end_0 = const()[name = string("op_1257_end_0"), val = tensor<int32, [5]>([3, 1, 1, 161, 2])];
            tensor<bool, [5]> var_1257_end_mask_0 = const()[name = string("op_1257_end_mask_0"), val = tensor<bool, [5]>([true, true, true, true, true])];
            tensor<fp16, [2, 1, 1, 161, 2]> var_1257_cast_fp16 = slice_by_index(begin = var_1257_begin_0, end = var_1257_end_0, end_mask = var_1257_end_mask_0, x = buf_7_cast_fp16)[name = string("op_1257_cast_fp16")];
            bool buf_next_7_interleave_0 = const()[name = string("buf_next_7_interleave_0"), val = bool(false)];
            tensor<fp16, [1, 1, 1, 161, 2]> x_tf_7_cast_fp16 = transpose(perm = var_1252, x = x_93_cast_fp16)[name = string("transpose_16")];
            tensor<fp16, [3, 1, 1, 161, 2]> buf_next_7_cast_fp16 = concat(axis = var_46, interleave = buf_next_7_interleave_0, values = (var_1257_cast_fp16, x_tf_7_cast_fp16))[name = string("buf_next_7_cast_fp16")];
            tensor<int32, [5]> out_tf_7_begin_0 = const()[name = string("out_tf_7_begin_0"), val = tensor<int32, [5]>([0, 0, 0, 0, 0])];
            tensor<int32, [5]> out_tf_7_end_0 = const()[name = string("out_tf_7_end_0"), val = tensor<int32, [5]>([1, 1, 1, 161, 2])];
            tensor<bool, [5]> out_tf_7_end_mask_0 = const()[name = string("out_tf_7_end_mask_0"), val = tensor<bool, [5]>([false, true, true, true, true])];
            tensor<fp16, [1, 1, 1, 161, 2]> out_tf_7_cast_fp16 = slice_by_index(begin = out_tf_7_begin_0, end = out_tf_7_end_0, end_mask = out_tf_7_end_mask_0, x = buf_next_7_cast_fp16)[name = string("out_tf_7_cast_fp16")];
            tensor<int32, [5]> var_1261 = const()[name = string("op_1261"), val = tensor<int32, [5]>([1, 2, 0, 3, 4])];
            tensor<int32, [1]> var_1263 = const()[name = string("op_1263"), val = tensor<int32, [1]>([-1])];
            tensor<fp16, [966]> mask_state_out_cast_fp16 = reshape(shape = var_1263, x = buf_next_7_cast_fp16)[name = string("mask_state_out_cast_fp16")];
            tensor<fp16, [1, 1, 1, 161, 2]> buffered_spec_cast_fp16 = transpose(perm = var_1261, x = out_tf_7_cast_fp16)[name = string("transpose_15")];
            tensor<fp16, [1, 1, 1, 161, 2]> spec_3_cast_fp16 = mul(x = buffered_spec_cast_fp16, y = mask_5_cast_fp16)[name = string("spec_3_cast_fp16")];
            tensor<int32, [1]> buf_flat_9_begin_0 = const()[name = string("buf_flat_9_begin_0"), val = tensor<int32, [1]>([40934])];
            tensor<int32, [1]> buf_flat_9_end_0 = const()[name = string("buf_flat_9_end_0"), val = tensor<int32, [1]>([43814])];
            tensor<bool, [1]> buf_flat_9_end_mask_0 = const()[name = string("buf_flat_9_end_mask_0"), val = tensor<bool, [1]>([false])];
            tensor<fp16, [2880]> buf_flat_9_cast_fp16 = slice_by_index(begin = buf_flat_9_begin_0, end = buf_flat_9_end_0, end_mask = buf_flat_9_end_mask_0, x = state_in_to_fp16)[name = string("buf_flat_9_cast_fp16")];
            tensor<int32, [5]> var_1276 = const()[name = string("op_1276"), val = tensor<int32, [5]>([3, 1, 5, 96, 2])];
            tensor<fp16, [3, 1, 5, 96, 2]> buf_9_cast_fp16 = reshape(shape = var_1276, x = buf_flat_9_cast_fp16)[name = string("buf_9_cast_fp16")];
            tensor<int32, [5]> var_1278_begin_0 = const()[name = string("op_1278_begin_0"), val = tensor<int32, [5]>([1, 0, 0, 0, 0])];
            tensor<int32, [5]> var_1278_end_0 = const()[name = string("op_1278_end_0"), val = tensor<int32, [5]>([3, 1, 5, 96, 2])];
            tensor<bool, [5]> var_1278_end_mask_0 = const()[name = string("op_1278_end_mask_0"), val = tensor<bool, [5]>([true, true, true, true, true])];
            tensor<fp16, [2, 1, 5, 96, 2]> var_1278_cast_fp16 = slice_by_index(begin = var_1278_begin_0, end = var_1278_end_0, end_mask = var_1278_end_mask_0, x = buf_9_cast_fp16)[name = string("op_1278_cast_fp16")];
            bool buf_next_9_interleave_0 = const()[name = string("buf_next_9_interleave_0"), val = bool(false)];
            tensor<fp16, [1, 1, 5, 96, 2]> transpose_10_cast_fp16 = transpose(perm = transpose_10_perm_0, x = coefs_3_cast_fp16)[name = string("transpose_17")];
            tensor<fp16, [3, 1, 5, 96, 2]> buf_next_9_cast_fp16 = concat(axis = var_46, interleave = buf_next_9_interleave_0, values = (var_1278_cast_fp16, transpose_10_cast_fp16))[name = string("buf_next_9_cast_fp16")];
            tensor<int32, [5]> out_tf_9_begin_0 = const()[name = string("out_tf_9_begin_0"), val = tensor<int32, [5]>([0, 0, 0, 0, 0])];
            tensor<int32, [5]> out_tf_9_end_0 = const()[name = string("out_tf_9_end_0"), val = tensor<int32, [5]>([1, 1, 5, 96, 2])];
            tensor<bool, [5]> out_tf_9_end_mask_0 = const()[name = string("out_tf_9_end_mask_0"), val = tensor<bool, [5]>([false, true, true, true, true])];
            tensor<fp16, [1, 1, 5, 96, 2]> out_tf_9_cast_fp16 = slice_by_index(begin = out_tf_9_begin_0, end = out_tf_9_end_0, end_mask = out_tf_9_end_mask_0, x = buf_next_9_cast_fp16)[name = string("out_tf_9_cast_fp16")];
            tensor<int32, [5]> transpose_11_perm_0 = const()[name = string("transpose_11_perm_0"), val = tensor<int32, [5]>([1, 0, 2, 3, 4])];
            tensor<int32, [1]> var_1284 = const()[name = string("op_1284"), val = tensor<int32, [1]>([-1])];
            tensor<fp16, [2880]> coefs_state_out_cast_fp16 = reshape(shape = var_1284, x = buf_next_9_cast_fp16)[name = string("coefs_state_out_cast_fp16")];
            tensor<int32, [5]> var_1291 = const()[name = string("op_1291"), val = tensor<int32, [5]>([2, 0, 1, 3, 4])];
            tensor<int32, [1]> buf_flat_begin_0 = const()[name = string("buf_flat_begin_0"), val = tensor<int32, [1]>([43814])];
            tensor<int32, [1]> buf_flat_end_0 = const()[name = string("buf_flat_end_0"), val = tensor<int32, [1]>([1])];
            tensor<bool, [1]> buf_flat_end_mask_0 = const()[name = string("buf_flat_end_mask_0"), val = tensor<bool, [1]>([true])];
            tensor<fp16, [1610]> buf_flat_cast_fp16 = slice_by_index(begin = buf_flat_begin_0, end = buf_flat_end_0, end_mask = buf_flat_end_mask_0, x = state_in_to_fp16)[name = string("buf_flat_cast_fp16")];
            tensor<int32, [5]> var_1294 = const()[name = string("op_1294"), val = tensor<int32, [5]>([5, 1, 1, 161, 2])];
            tensor<fp16, [5, 1, 1, 161, 2]> buf_cast_fp16 = reshape(shape = var_1294, x = buf_flat_cast_fp16)[name = string("buf_cast_fp16")];
            tensor<int32, [5]> var_1296_begin_0 = const()[name = string("op_1296_begin_0"), val = tensor<int32, [5]>([1, 0, 0, 0, 0])];
            tensor<int32, [5]> var_1296_end_0 = const()[name = string("op_1296_end_0"), val = tensor<int32, [5]>([5, 1, 1, 161, 2])];
            tensor<bool, [5]> var_1296_end_mask_0 = const()[name = string("op_1296_end_mask_0"), val = tensor<bool, [5]>([true, true, true, true, true])];
            tensor<fp16, [4, 1, 1, 161, 2]> var_1296_cast_fp16 = slice_by_index(begin = var_1296_begin_0, end = var_1296_end_0, end_mask = var_1296_end_mask_0, x = buf_cast_fp16)[name = string("op_1296_cast_fp16")];
            bool buf_next_interleave_0 = const()[name = string("buf_next_interleave_0"), val = bool(false)];
            tensor<fp16, [1, 1, 1, 161, 2]> x_tf_cast_fp16 = transpose(perm = var_1291, x = spec_3_cast_fp16)[name = string("transpose_13")];
            tensor<fp16, [5, 1, 1, 161, 2]> buf_next_cast_fp16 = concat(axis = var_46, interleave = buf_next_interleave_0, values = (var_1296_cast_fp16, x_tf_cast_fp16))[name = string("buf_next_cast_fp16")];
            tensor<int32, [5]> var_1300 = const()[name = string("op_1300"), val = tensor<int32, [5]>([1, 2, 0, 3, 4])];
            tensor<int32, [1]> var_1302 = const()[name = string("op_1302"), val = tensor<int32, [1]>([-1])];
            tensor<fp16, [1610]> spec_state_out_cast_fp16 = reshape(shape = var_1302, x = buf_next_cast_fp16)[name = string("spec_state_out_cast_fp16")];
            tensor<int32, [5]> var_1307_begin_0 = const()[name = string("op_1307_begin_0"), val = tensor<int32, [5]>([0, 0, 0, 0, 0])];
            tensor<int32, [5]> var_1307_end_0 = const()[name = string("op_1307_end_0"), val = tensor<int32, [5]>([1, 1, 5, 96, 2])];
            tensor<bool, [5]> var_1307_end_mask_0 = const()[name = string("op_1307_end_mask_0"), val = tensor<bool, [5]>([true, true, true, false, true])];
            tensor<fp16, [1, 1, 5, 161, 2]> full_spec_buffered_cast_fp16 = transpose(perm = var_1300, x = buf_next_cast_fp16)[name = string("transpose_12")];
            tensor<fp16, [1, 1, 5, 96, 2]> var_1307_cast_fp16 = slice_by_index(begin = var_1307_begin_0, end = var_1307_end_0, end_mask = var_1307_end_mask_0, x = full_spec_buffered_cast_fp16)[name = string("op_1307_cast_fp16")];
            tensor<int32, [5]> full_spec_frame_begin_0 = const()[name = string("full_spec_frame_begin_0"), val = tensor<int32, [5]>([0, 0, 2, 0, 0])];
            tensor<int32, [5]> full_spec_frame_end_0 = const()[name = string("full_spec_frame_end_0"), val = tensor<int32, [5]>([1, 1, 3, 161, 2])];
            tensor<bool, [5]> full_spec_frame_end_mask_0 = const()[name = string("full_spec_frame_end_mask_0"), val = tensor<bool, [5]>([true, true, false, true, true])];
            tensor<fp16, [1, 1, 1, 161, 2]> full_spec_frame_cast_fp16 = slice_by_index(begin = full_spec_frame_begin_0, end = full_spec_frame_end_0, end_mask = full_spec_frame_end_mask_0, x = full_spec_buffered_cast_fp16)[name = string("full_spec_frame_cast_fp16")];
            tensor<int32, [5]> var_1312_begin_0 = const()[name = string("op_1312_begin_0"), val = tensor<int32, [5]>([0, 0, 0, 0, 0])];
            tensor<int32, [5]> var_1312_end_0 = const()[name = string("op_1312_end_0"), val = tensor<int32, [5]>([1, 1, 5, 96, 1])];
            tensor<bool, [5]> var_1312_end_mask_0 = const()[name = string("op_1312_end_mask_0"), val = tensor<bool, [5]>([true, true, true, true, false])];
            tensor<bool, [5]> var_1312_squeeze_mask_0 = const()[name = string("op_1312_squeeze_mask_0"), val = tensor<bool, [5]>([false, false, false, false, true])];
            tensor<fp16, [1, 1, 5, 96]> var_1312_cast_fp16 = slice_by_index(begin = var_1312_begin_0, end = var_1312_end_0, end_mask = var_1312_end_mask_0, squeeze_mask = var_1312_squeeze_mask_0, x = var_1307_cast_fp16)[name = string("op_1312_cast_fp16")];
            tensor<int32, [5]> var_1313_begin_0 = const()[name = string("op_1313_begin_0"), val = tensor<int32, [5]>([0, 0, 0, 0, 0])];
            tensor<int32, [5]> var_1313_end_0 = const()[name = string("op_1313_end_0"), val = tensor<int32, [5]>([1, 1, 5, 96, 1])];
            tensor<bool, [5]> var_1313_end_mask_0 = const()[name = string("op_1313_end_mask_0"), val = tensor<bool, [5]>([true, true, true, true, false])];
            tensor<bool, [5]> var_1313_squeeze_mask_0 = const()[name = string("op_1313_squeeze_mask_0"), val = tensor<bool, [5]>([false, false, false, false, true])];
            tensor<fp16, [1, 1, 5, 96, 2]> transpose_11_cast_fp16 = transpose(perm = transpose_11_perm_0, x = out_tf_9_cast_fp16)[name = string("transpose_14")];
            tensor<fp16, [1, 1, 5, 96]> var_1313_cast_fp16 = slice_by_index(begin = var_1313_begin_0, end = var_1313_end_0, end_mask = var_1313_end_mask_0, squeeze_mask = var_1313_squeeze_mask_0, x = transpose_11_cast_fp16)[name = string("op_1313_cast_fp16")];
            tensor<fp16, [1, 1, 5, 96]> var_1314_cast_fp16 = mul(x = var_1312_cast_fp16, y = var_1313_cast_fp16)[name = string("op_1314_cast_fp16")];
            tensor<int32, [1]> var_1316_axes_0 = const()[name = string("op_1316_axes_0"), val = tensor<int32, [1]>([2])];
            bool var_1316_keep_dims_0 = const()[name = string("op_1316_keep_dims_0"), val = bool(false)];
            tensor<fp16, [1, 1, 96]> var_1316_cast_fp16 = reduce_sum(axes = var_1316_axes_0, keep_dims = var_1316_keep_dims_0, x = var_1314_cast_fp16)[name = string("op_1316_cast_fp16")];
            tensor<int32, [5]> var_1317_begin_0 = const()[name = string("op_1317_begin_0"), val = tensor<int32, [5]>([0, 0, 0, 0, 1])];
            tensor<int32, [5]> var_1317_end_0 = const()[name = string("op_1317_end_0"), val = tensor<int32, [5]>([1, 1, 5, 96, 2])];
            tensor<bool, [5]> var_1317_end_mask_0 = const()[name = string("op_1317_end_mask_0"), val = tensor<bool, [5]>([true, true, true, true, false])];
            tensor<bool, [5]> var_1317_squeeze_mask_0 = const()[name = string("op_1317_squeeze_mask_0"), val = tensor<bool, [5]>([false, false, false, false, true])];
            tensor<fp16, [1, 1, 5, 96]> var_1317_cast_fp16 = slice_by_index(begin = var_1317_begin_0, end = var_1317_end_0, end_mask = var_1317_end_mask_0, squeeze_mask = var_1317_squeeze_mask_0, x = var_1307_cast_fp16)[name = string("op_1317_cast_fp16")];
            tensor<int32, [5]> var_1318_begin_0 = const()[name = string("op_1318_begin_0"), val = tensor<int32, [5]>([0, 0, 0, 0, 1])];
            tensor<int32, [5]> var_1318_end_0 = const()[name = string("op_1318_end_0"), val = tensor<int32, [5]>([1, 1, 5, 96, 2])];
            tensor<bool, [5]> var_1318_end_mask_0 = const()[name = string("op_1318_end_mask_0"), val = tensor<bool, [5]>([true, true, true, true, false])];
            tensor<bool, [5]> var_1318_squeeze_mask_0 = const()[name = string("op_1318_squeeze_mask_0"), val = tensor<bool, [5]>([false, false, false, false, true])];
            tensor<fp16, [1, 1, 5, 96]> var_1318_cast_fp16 = slice_by_index(begin = var_1318_begin_0, end = var_1318_end_0, end_mask = var_1318_end_mask_0, squeeze_mask = var_1318_squeeze_mask_0, x = transpose_11_cast_fp16)[name = string("op_1318_cast_fp16")];
            tensor<fp16, [1, 1, 5, 96]> var_1319_cast_fp16 = mul(x = var_1317_cast_fp16, y = var_1318_cast_fp16)[name = string("op_1319_cast_fp16")];
            tensor<int32, [1]> var_1321_axes_0 = const()[name = string("op_1321_axes_0"), val = tensor<int32, [1]>([2])];
            bool var_1321_keep_dims_0 = const()[name = string("op_1321_keep_dims_0"), val = bool(false)];
            tensor<fp16, [1, 1, 96]> var_1321_cast_fp16 = reduce_sum(axes = var_1321_axes_0, keep_dims = var_1321_keep_dims_0, x = var_1319_cast_fp16)[name = string("op_1321_cast_fp16")];
            tensor<fp16, [1, 1, 96]> real_part_cast_fp16 = sub(x = var_1316_cast_fp16, y = var_1321_cast_fp16)[name = string("real_part_cast_fp16")];
            tensor<fp16, [1, 1, 5, 96]> var_1325_cast_fp16 = mul(x = var_1312_cast_fp16, y = var_1318_cast_fp16)[name = string("op_1325_cast_fp16")];
            tensor<int32, [1]> var_1327_axes_0 = const()[name = string("op_1327_axes_0"), val = tensor<int32, [1]>([2])];
            bool var_1327_keep_dims_0 = const()[name = string("op_1327_keep_dims_0"), val = bool(false)];
            tensor<fp16, [1, 1, 96]> var_1327_cast_fp16 = reduce_sum(axes = var_1327_axes_0, keep_dims = var_1327_keep_dims_0, x = var_1325_cast_fp16)[name = string("op_1327_cast_fp16")];
            tensor<fp16, [1, 1, 5, 96]> var_1330_cast_fp16 = mul(x = var_1317_cast_fp16, y = var_1313_cast_fp16)[name = string("op_1330_cast_fp16")];
            tensor<int32, [1]> var_1332_axes_0 = const()[name = string("op_1332_axes_0"), val = tensor<int32, [1]>([2])];
            bool var_1332_keep_dims_0 = const()[name = string("op_1332_keep_dims_0"), val = bool(false)];
            tensor<fp16, [1, 1, 96]> var_1332_cast_fp16 = reduce_sum(axes = var_1332_axes_0, keep_dims = var_1332_keep_dims_0, x = var_1330_cast_fp16)[name = string("op_1332_cast_fp16")];
            tensor<fp16, [1, 1, 96]> imag_part_cast_fp16 = add(x = var_1327_cast_fp16, y = var_1332_cast_fp16)[name = string("imag_part_cast_fp16")];
            int32 spec_df_1_axis_0 = const()[name = string("spec_df_1_axis_0"), val = int32(-1)];
            tensor<fp16, [1, 1, 96, 2]> spec_df_1_cast_fp16 = stack(axis = spec_df_1_axis_0, values = (real_part_cast_fp16, imag_part_cast_fp16))[name = string("spec_df_1_cast_fp16")];
            tensor<int32, [1]> spec_df_axes_0 = const()[name = string("spec_df_axes_0"), val = tensor<int32, [1]>([1])];
            tensor<fp16, [1, 1, 1, 96, 2]> spec_df_cast_fp16 = expand_dims(axes = spec_df_axes_0, x = spec_df_1_cast_fp16)[name = string("spec_df_cast_fp16")];
            tensor<int32, [5]> var_1340_begin_0 = const()[name = string("op_1340_begin_0"), val = tensor<int32, [5]>([0, 0, 0, 96, 0])];
            tensor<int32, [5]> var_1340_end_0 = const()[name = string("op_1340_end_0"), val = tensor<int32, [5]>([1, 1, 1, 161, 2])];
            tensor<bool, [5]> var_1340_end_mask_0 = const()[name = string("op_1340_end_mask_0"), val = tensor<bool, [5]>([true, true, true, true, true])];
            tensor<fp16, [1, 1, 1, 65, 2]> var_1340_cast_fp16 = slice_by_index(begin = var_1340_begin_0, end = var_1340_end_0, end_mask = var_1340_end_mask_0, x = full_spec_frame_cast_fp16)[name = string("op_1340_cast_fp16")];
            bool spec_e_1_interleave_0 = const()[name = string("spec_e_1_interleave_0"), val = bool(false)];
            tensor<fp16, [1, 1, 1, 161, 2]> spec_e_1_cast_fp16 = concat(axis = var_44, interleave = spec_e_1_interleave_0, values = (spec_df_cast_fp16, var_1340_cast_fp16))[name = string("spec_e_1_cast_fp16")];
            bool df_state_out_interleave_0 = const()[name = string("df_state_out_interleave_0"), val = bool(false)];
            tensor<fp16, [4490]> df_state_out_cast_fp16 = concat(axis = var_46, interleave = df_state_out_interleave_0, values = (coefs_state_out_cast_fp16, spec_state_out_cast_fp16))[name = string("df_state_out_cast_fp16")];
            tensor<int32, [1]> spec_e_axes_0 = const()[name = string("spec_e_axes_0"), val = tensor<int32, [1]>([1])];
            tensor<fp16, [1, 1, 161, 2]> spec_e_cast_fp16 = squeeze(axes = spec_e_axes_0, x = spec_e_1_cast_fp16)[name = string("spec_e_cast_fp16")];
            bool var_1350_interleave_0 = const()[name = string("op_1350_interleave_0"), val = bool(false)];
            tensor<fp16, [45424]> var_1350_cast_fp16 = concat(axis = var_46, interleave = var_1350_interleave_0, values = (erb_norm_state_out_cast_fp16, spec_norm_state_out_cast_fp16, enc_state_out_cast_fp16, erb_dec_state_out_cast_fp16, df_dec_state_out_cast_fp16, mask_state_out_cast_fp16, df_state_out_cast_fp16))[name = string("op_1350_cast_fp16")];
            string var_1350_cast_fp16_to_fp32_dtype_0 = const()[name = string("op_1350_cast_fp16_to_fp32_dtype_0"), val = string("fp32")];
            fp16 inv_wnorm_to_fp16 = const()[name = string("inv_wnorm_to_fp16"), val = fp16(0x1.4p+8)];
            tensor<fp16, [1, 1, 161, 2]> var_1354_cast_fp16 = mul(x = spec_e_cast_fp16, y = inv_wnorm_to_fp16)[name = string("op_1354_cast_fp16")];
            string var_1354_cast_fp16_to_fp32_dtype_0 = const()[name = string("op_1354_cast_fp16_to_fp32_dtype_0"), val = string("fp32")];
            tensor<fp32, [1, 1, 161, 2]> spec_e = cast(dtype = var_1354_cast_fp16_to_fp32_dtype_0, x = var_1354_cast_fp16)[name = string("cast_65")];
            tensor<fp32, [45424]> state_out = cast(dtype = var_1350_cast_fp16_to_fp32_dtype_0, x = var_1350_cast_fp16)[name = string("cast_66")];
        } -> (spec_e, state_out);
}